engine/nnmt/translated_networks/CartPole_Controller.onnx (onnx, 2182 bytes, 5 tensors)

W f4 [2, 16]
000000 5d 2c 2d bd ff 56 28 bd 75 81 2a bd 02 6e 30 bd
       -0.042278636 -0.04109859 -0.041627366 -0.04307366
000010 79 29 35 bd 32 77 31 bd 3f 1d 34 3d 76 4f 31 3d
       -0.044229005 -0.043326564 0.043973204 0.04328867
000020 cb dc 31 bd b5 9f 31 3d ea c4 2a bd c0 1a 26 3d
       -0.043423455 0.0433652 -0.041691698 0.040552855
000030 55 7e 31 3d 74 9b 31 3d 9a 55 31 3d ab e8 23 bd
       0.04333337 0.043361142 0.043294527 -0.04001681
000040 5e f1 ff bf 2a f2 ff bf d0 f1 ff bf ce f0 ff bf
       -1.9995534 -1.9995778 -1.999567 -1.9995363
000050 fa ef ff bf a0 f0 ff bf 2a f0 ff 3f a8 f0 ff 3f
       -1.999511 -1.9995308 1.9995167 1.9995317
000060 90 f0 ff bf 98 f0 ff 3f c4 f1 ff bf 8a f2 ff 3f
       -1.9995289 1.9995298 -1.9995656 1.9995892
000070 a0 f0 ff 3f 9a f0 ff 3f a6 f0 ff 3f e3 f2 ff bf
       1.9995308 1.9995301 1.9995315 -1.9995998

B f4 [16]
000000 20 83 a0 bd c2 09 5b bd 15 c5 83 bd c2 33 c3 bd
       -0.0783751 -0.053476103 -0.06434075 -0.095313564
000010 3f 6c f7 bd b3 83 ce bd 2d a8 99 3d e8 26 77 3d
       -0.12081193 -0.100837134 0.0750278 0.06033984
000020 f0 93 d2 bd 28 bc 7d 3d 0b 99 86 bd 0b 39 74 3b
       -0.10282123 0.061947018 -0.065721594 0.0037265446
000030 ad 01 7b 3d ed 89 7d 3d 58 ce 77 3d 34 e1 fd bc
       0.061280895 0.061899114 0.06049952 -0.030991174

W1 f4 [16, 16]
000000 15 c0 00 3f a0 e3 f1 be 63 4a ff 3e 61 eb 00 3f
       0.50293094 -0.47243977 0.4986144 0.5035916
000010 c6 75 fa be ec 3e 01 3f 1d 20 f8 be 38 f0 f0 be
       -0.4891798 0.50486636 -0.48462 -0.47058272
000020 a7 1b 01 bf f8 af f9 be 56 f0 f7 be bc 0c f4 be
       -0.5043282 -0.48767066 -0.4842555 -0.47665966
000030 60 81 ff 3e 9a 99 ff 3e b2 86 fe be 15 f9 f2 be
       0.49903393 0.49921876 -0.4971214 -0.4745566
000040 0e 90 fe 3e 81 4c ec be ff 4e fd 3e 11 60 ff 3e
       0.4971928 -0.46152118 0.49474332 0.4987798
000050 1d 3a f4 be d0 bb fb 3e f2 cf f1 be 85 49 ed be
       -0.47700587 0.49166727 -0.47228962 -0.46345153
000060 e9 e4 fb be 19 66 f3 be dc a3 f1 be 3a 82 ef be
       -0.49198082 -0.47538832 -0.47195327 -0.46779042
000070 58 30 00 3f 12 76 00 3f 4c 48 fd be 06 54 ec be
       0.50073767 0.5018016 -0.4946922 -0.46157855
000080 19 8e 02 3f 4f 52 ef be 83 17 ff 3e 3c 3f 01 3f
       0.50998074 -0.46742484 0.49822626 0.50487113
000090 db 13 f7 be d5 07 00 3f 41 b9 f4 be 68 14 ef be
       -0.48257336 0.5001195 -0.47797588 -0.46695256
0000a0 10 0b ff be 47 3b f6 be b6 87 f4 be 8c 5e f1 be
       -0.49813128 -0.480921 -0.4775979 -0.47142446
0000b0 31 79 02 3f 1e 24 00 3f c1 46 fc be 92 81 ed be
       0.50966173 0.5005511 -0.4927273 -0.46387917
0000c0 e2 15 04 3f cf eb f5 be a6 6f 02 3f db 62 02 3f
       0.5159589 -0.4803147 0.5095161 0.5093209
0000d0 28 eb fe be 2a db 01 3f 0f 9a fc be 6b 0c f2 be
       -0.49788785 0.5072504 -0.49336287 -0.472751
0000e0 69 a3 f9 be 98 27 fe be e5 68 fc be f0 74 f3 be
       -0.48757485 -0.49639583 -0.49298778 -0.47550154
0000f0 d5 f1 00 3f 76 ca fd 3e 42 3c fe be 9f 55 f7 be
       0.50369006 0.49568528 -0.49655348 -0.4830751
000100 84 df 00 3f 48 b7 fc be c4 b7 01 3f 4e 34 03 3f
       0.5034106 -0.49358582 0.5067103 0.51251686
000110 29 3c 02 bf d6 38 01 3f 6c 44 01 bf 9e 15 f4 be
       -0.5087305 0.5047735 -0.5049503 -0.47672743
000120 30 0c fd be 77 f0 01 bf f3 2e 01 bf 61 39 f5 be
       -0.4942336 -0.50757545 -0.50462264 -0.4789534
000130 5e 89 02 3f 0c 3b fb 3e e2 a1 fe be 73 96 fd be
       0.50990856 0.49068487 -0.49732882 -0.49528846
000140 6f d5 04 3f 7d d8 f7 be 42 73 01 3f ec 1e 03 3f
       0.51888174 -0.48407355 0.50566494 0.5121906
000150 52 24 00 bf 67 d5 fe 3e 6f f6 fd be a6 c2 f1 be
       -0.5005542 0.49772188 -0.49602076 -0.47218817
000160 8b 52 fc be 24 71 ff be 09 cf fd be 11 db f3 be
       -0.49281725 -0.49891007 -0.49572018 -0.47628072
000170 a3 ac 00 3f 28 02 ff 3e 0d 31 ff be 9e 24 f8 be
       0.5026342 0.49806333 -0.4984211 -0.48465437
000180 e9 f7 f1 be 37 0a 06 3f d9 38 f6 be c8 d4 f3 be
       -0.47259453 0.52359337 -0.48090246 -0.47623277
000190 9b 57 00 3f 7b 1c fa be 74 d2 01 3f b5 66 08 3f
       0.50133675 -0.48849854 0.5071175 0.5328172
0001a0 6d 7b fd 3e f4 e4 00 3f 22 f1 01 3f 7f 0f 07 3f
       0.4950823 0.50349355 0.50758564 0.5275802
0001b0 1a e3 f2 be 96 10 f9 be 23 1f fe 3e 93 4f 06 3f
       -0.4743889 -0.48645467 0.4963313 0.5246517
0001c0 82 57 f4 be 45 4d 07 3f 49 e7 ff be 86 82 f7 be
       -0.47723013 0.5285228 -0.49981144 -0.4834177
0001d0 e9 bb 02 3f fe 7a fb be 4b 1e 04 3f c1 19 07 3f
       0.5106798 -0.49117273 0.51608723 0.5277367
0001e0 de d5 fa 3e 8f 40 03 3f 79 39 04 3f 4f 9d 05 3f
       0.48991293 0.51270384 0.51650196 0.5219316
0001f0 39 7b fa be 9e 8e fe be 05 6a fe 3e 92 b3 07 3f
       -0.48922136 -0.49718183 0.4969026 0.5300838
000200 82 f3 04 3f 87 02 f8 be b4 c7 01 3f 4e 42 04 3f
       0.51934063 -0.48439428 0.5069535 0.5166367
000210 67 38 00 bf 05 ca 00 3f dc fc fd be 19 1d f4 be
       -0.50086063 0.5030826 -0.4960698 -0.4767845
000220 4c a0 fc be 2f 6d ff be 4b d4 fd be ef a3 f6 be
       -0.49341047 -0.49887988 -0.4957603 -0.48171946
000230 82 99 00 3f 49 6b 02 3f 6e e7 00 bf 56 e0 f8 be
       0.50234234 0.50944954 -0.50353134 -0.48608655
000240 a2 aa fa be 05 8d 07 3f 59 28 fa be 66 47 f6 be
       -0.48958308 0.52949554 -0.48858908 -0.48101348
000250 ce 67 02 3f 01 42 fb be 00 ce 03 3f b7 9e 07 3f
       0.50939643 -0.49073794 0.51486206 0.52976555
000260 ef 1c fb 3e cb ee 02 3f 16 e9 03 3f fe 92 06 3f
       0.49045512 0.5114562 0.51527536 0.5256804
000270 f0 9f fc be 45 19 fb be 4e b0 fe 3e 93 e9 06 3f
       -0.49340773 -0.49042717 0.49743885 0.52700156
000280 04 d4 01 3f 72 e7 ee be a5 47 00 3f 9e f1 00 3f
       0.50714135 -0.46660954 0.5010932 0.5036868
000290 50 4e f7 be f6 ab 00 3f 25 fc f4 be 52 e9 ef be
       -0.48301935 0.5026239 -0.4784862 -0.46857697
0002a0 82 a8 fd be e7 88 f6 be 99 cc f4 be 62 4b f2 be
       -0.49542624 -0.48151323 -0.47812346 -0.47323138
0002b0 9a 5d 02 3f ba f5 ff 3e e2 97 fd be 90 9d ee be
       0.50924075 0.49992162 -0.4952994 -0.46604586
0002c0 82 f5 06 bf b5 d0 0d 3f fe 50 0b bf d9 be 09 bf
       -0.52718365 0.55396587 -0.5442046 -0.53806835
0002d0 3b 07 0a 3f 7b 0f 0a bf e1 6e 0b 3f 38 1f 12 3f
       0.5391728 -0.5392987 0.5446606 0.57078886
0002e0 27 ed 10 3f d6 7a 0a 3f 7f 87 0b 3f d2 75 11 3f
       0.56611866 0.5409368 0.54503626 0.56820405
0002f0 7c a8 09 bf 5d ef 0d bf 00 ef 0c 3f 04 2b 0d 3f
       -0.5377271 -0.55443364 0.55052185 0.5514376
000300 67 6e f9 be d9 4f 07 3f 8e 3b fd be c6 e8 f7 be
       -0.48717043 0.5285621 -0.494595 -0.4841978
000310 98 83 02 3f 99 43 fe be 47 e3 03 3f 60 b1 07 3f
       0.50982046 -0.49660948 0.5151867 0.5300503
000320 97 5e 01 3f 97 f5 02 3f 17 ff 03 3f 31 1f 06 3f
       0.5053496 0.5115599 0.5156111 0.52391344
000330 af f3 f6 be 06 1c fb be af 35 fd 3e 88 11 07 3f
       -0.4823279 -0.49044818 0.4945502 0.52761126
000340 51 34 f5 be c4 b2 07 3f 84 5b fa be 81 26 f9 be
       -0.47891477 0.5300715 -0.48897946 -0.4866219
000350 84 86 02 3f 5a 86 f9 be ba df 03 3f 49 61 07 3f
       0.50986505 -0.48735315 0.51513255 0.5288282
000360 cd 4e ff 3e d3 f2 02 3f 54 fa 03 3f 41 f2 05 3f
       0.49864808 0.5115177 0.51553845 0.52322775
000370 a6 cc f8 be e0 e6 fe be 5c 66 fd 3e bd 53 07 3f
       -0.48593634 -0.4978552 0.49492157 0.5286215
000380 ae 1d fb be 18 94 07 3f 41 34 fa be e4 f1 fc be
       -0.4904608 0.5296035 -0.48867992 -0.49403298
000390 35 61 02 3f 77 8e fd be 19 cb 03 3f 59 1e 09 3f
       0.50929576 -0.49522755 0.5148178 0.5356193
0003a0 3f 66 01 3f 30 e5 02 3f 02 e7 03 3f 57 c3 07 3f
       0.5054664 0.5113096 0.51524365 0.5303244
0003b0 19 82 fb be da f0 fa be 96 33 01 3f 09 1c 08 3f
       -0.49122694 -0.4901188 0.5046934 0.5316778
0003c0 49 ff fe 3e 11 88 e6 be fb b0 fa 3e de 57 fb 3e
       0.49804142 -0.45025685 0.4896315 0.49090475
0003d0 a1 a9 ee be 9d 57 fe 3e 2d 5b ec be 99 ee e9 be
       -0.46613792 0.4967622 -0.46163312 -0.45689848
0003e0 f8 bd f8 be b5 e0 ed be bf 29 ec be 6a d1 ec be
       -0.48582435 -0.464605 -0.461256 -0.4625352
0003f0 fb 5e 01 3f 18 f1 fc 3e 60 d0 f8 be a0 85 e5 be
       0.50535554 0.4940269 -0.48596478 -0.4482851

B1 f4 [16]
000000 49 03 89 bd c8 ef 8e be 0f 68 20 3b 1b 8b 34 bd
       -0.0669008 -0.27917314 0.0024476086 -0.044077974
000010 85 32 fa bd 47 b1 a9 3b 5c f4 29 be 56 07 a2 be
       -0.12216667 0.005178604 -0.16597122 -0.31646222
000020 6e 19 a3 bd cf be 0c be 25 7c 2d be 7c f4 8c be
       -0.07963835 -0.13744663 -0.16941889 -0.27530277
000030 03 6a 08 bd 29 2b d3 3c 1c 3b 78 bd 59 78 8d be
       -0.033304226 0.025777416 -0.060603246 -0.2763088

W2 f4 [16, 1]
000000 f0 4e 96 c0 25 b5 64 40 e3 28 99 c0 d3 b1 98 c0
       -4.697136 3.5735562 -4.786241 -4.771707
000010 27 6b b0 40 02 ea 83 c0 ce 8d e6 40 52 62 50 40
       5.51308 -4.1223154 7.20481 3.256001
000020 5c f9 20 40 83 a7 bf 40 df 37 d8 40 31 7b 33 40
       2.5152197 5.989198 6.75682 2.804394
000030 03 10 7e c0 d6 2e 88 c0 85 97 53 40 9f 5b 58 40
       -3.9697273 -4.2557173 3.306123 3.380592
