engine/nnmt/ONNX/1L_abalone_nets.onnx (onnx, 1338 bytes, 4 tensors)

input_AvgImg f4 [1, 1, 1, 8]
000000 00 00 80 3f 00 00 80 3f 00 00 80 3f 00 00 80 3f
       1.0 1.0 1.0 1.0
000010 00 00 80 3f 00 00 80 3f 00 00 80 3f 00 00 80 3f
       1.0 1.0 1.0 1.0

Operation_1_W f4 [10, 8]
000000 52 61 1d b0 ce 44 05 32 92 57 84 31 7d 66 7c 31
       -5.725457e-10 7.757263e-09 3.851661e-09 3.6729084e-09
000010 9a db 2d b2 b9 20 f8 30 57 77 f2 b1 38 b9 90 31
       -1.0119857e-08 1.8053675e-09 -7.0566943e-09 4.2120085e-09
000020 72 33 36 b2 5e 6a f0 b5 7b 37 c0 b5 1d 60 12 b5
       -1.0605492e-08 -1.791235e-06 -1.4321262e-06 -5.45291e-07
000030 24 18 dd b5 5e cc e2 b3 ee 98 9b b4 1d d1 67 b5
       -1.6472809e-06 -1.0561119e-07 -2.898227e-07 -8.6358506e-07
000040 c9 6d d8 b1 2e 34 27 b2 64 78 08 b2 76 92 98 31
       -6.2989085e-09 -9.732544e-09 -7.9436155e-09 4.440433e-09
000050 e5 c7 b1 b1 64 08 79 31 5b 96 87 31 4b d4 08 b2
       -5.1741034e-09 3.6239038e-09 3.9461105e-09 -7.964512e-09
000060 da 0f 1a b7 78 ce 2b b6 d8 c6 26 b6 e6 bc 85 b5
       -9.182806e-06 -2.5601166e-06 -2.485167e-06 -9.964249e-07
000070 c8 89 e1 b5 b1 83 45 b6 f8 52 60 34 4a 0a 4e b5
       -1.6803906e-06 -2.9431942e-06 2.089181e-07 -7.675595e-07
000080 a9 ce 7a 3b f6 9f ce 3e f6 82 1d 40 d5 14 af 3f
       0.0038270152 0.40356416 2.4611182 1.3678232
000090 b0 dc c3 3e 62 14 8d bf 47 05 67 be dd 7b dd 3f
       0.3825431 -1.1021845 -0.22560607 1.7303425
0000a0 0a 81 60 b4 d9 e3 7d b6 fe 7f 5e b6 86 93 de b5
       -2.090857e-07 -3.7832563e-06 -3.315508e-06 -1.6583224e-06
0000b0 aa 1f c9 b6 db f2 04 36 65 f1 4e b5 4d c7 a0 b6
       -5.993953e-06 1.9810893e-06 -7.7092255e-07 -4.7915732e-06
0000c0 62 23 20 b3 00 de 96 b5 3a 14 79 b5 8c 6b dd b4
       -3.7285083e-08 -1.1240481e-06 -9.278916e-07 -4.1242708e-07
0000d0 2f f7 c7 b5 a2 50 6f 34 a3 b5 69 b4 1c 4c 89 b5
       -1.4898595e-06 2.2287944e-07 -2.1765895e-07 -1.0229446e-06
0000e0 8d 15 ad b2 45 42 38 b5 25 b2 1c b5 3a b6 86 b4
       -2.014965e-08 -6.8641776e-07 -5.8373763e-07 -2.5092032e-07
0000f0 d3 f8 4d b5 59 3f 79 34 ff 61 f3 b3 bd 54 1f b5
       -7.673054e-07 2.3212978e-07 -1.1333395e-07 -5.9355426e-07
000100 cf 5f 71 b2 8c af a6 b5 83 ce 83 b5 fc 86 ce b4
       -1.4049831e-08 -1.2419055e-06 -9.820363e-07 -3.8468704e-07
000110 b0 7d b0 b5 dc e4 f2 b3 de 28 82 b4 24 95 38 b5
       -1.3149602e-06 -1.13106324e-07 -2.4244122e-07 -6.876237e-07
000120 30 1f 35 3c 8f b3 92 be 8e 38 cc 3f a1 2f 94 3f
       0.011054799 -0.28652617 1.5954759 1.1577035
000130 53 8f 0a 40 cd 8e a3 c0 aa dc ef bf 10 26 dd 3c
       2.1649978 -5.1111817 -1.8739216 0.026995689

Operation_1_B f4 [10]
000000 9f aa e1 b1 a4 4a 8c b6 61 3c 40 b2 56 63 19 b7
       -6.5677592e-09 -4.1810144e-06 -1.11895995e-08 -9.142639e-06
000010 21 df 37 3f 39 9a 96 b6 f8 2c f2 b5 76 e8 92 b5
       0.7182484 -4.4883022e-06 -1.8043493e-06 -1.0945503e-06
000020 3b 9f 3a b6 0a 82 56 be
       -2.7808844e-06 -0.20948043

Operation_2_W f4 [1, 10]
000000 b6 4f fd 30 a7 1f c4 35 0f 47 13 b2 53 92 be 36
       1.8430828e-09 1.461235e-06 -8.572683e-09 5.6794756e-06
000010 2f c7 66 40 b9 c5 f5 b4 77 29 07 37 fb 3f 5b b3
       3.6059072 -4.5778668e-07 8.056281e-06 -5.10481e-08
000020 12 15 a8 36 5d 1c c6 40
       5.009243e-06 6.1909623
