engine/nnmt/ONNX/1L_engine_nets.onnx (onnx, 2271 bytes, 5 tensors)

input_AvgImg f4 [1, 1, 1, 4]
0	0x3f800000	1.0
1	0x3f800000	1.0
2	0x3f800000	1.0
3	0x3f800000	1.0

Operation_1_W f4 [50, 4]
0	0x2a1b72d9	1.3806611e-13
1	0x29f26984	1.0765263e-13
2	0xa82fbe2b	-9.7556876e-15
3	0xaa2d36c8	-1.5384493e-13
4	0xa9f68d6f	-1.09491294e-13
5	0xa944f599	-4.3733765e-14
6	0xaa2965c1	-1.5045518e-13
7	0xa83f6663	-1.06248315e-14
8	0xa7880940	-3.775761e-15
9	0xa9b889c1	-8.195138e-14
10	0xaa0c744a	-1.2474844e-13
11	0xa8c0fe7d	-2.1426649e-14
12	0x3b2494bc	0.0025113067
13	0xb9a74074	-0.00031900743
14	0xba5acf05	-0.00083468884
15	0xbb99d97a	-0.0046951147
16	0x28b38e9a	1.9934836e-14
17	0x2ac6160c	3.5187164e-13
18	0xaa4da1c6	-1.8263784e-13
19	0xabf5e8b1	-1.7472882e-12
20	0xa9935c81	-6.544158e-14
21	0x27b44ea6	5.0045307e-15
22	0x28b316bd	1.9882853e-14
23	0xa97aa4ff	-5.5654263e-14
24	0xa9e7def8	-1.02971397e-13
25	0x2bef9c57	1.7025364e-12
26	0x2a93c62a	2.624995e-13
27	0xac50f802	-2.969625e-12
28	0x29d649a6	9.516285e-14
29	0xa883a1a4	-1.4614022e-14
30	0xa9f0c6a7	-1.0692602e-13
31	0xa988c9b7	-6.074605e-14
32	0xbd8be5f8	-0.068309724
33	0xbd51a896	-0.051186167
34	0x3d7f4342	0.06232
35	0xbca53d4a	-0.020170826
36	0xa941a7f6	-4.300029e-14
37	0xaa09f5d3	-1.2253332e-13
38	0x2a23b527	1.4540158e-13
39	0xaa26dc98	-1.4820296e-13
40	0x3bfa727e	0.007643043
41	0xbad27f8d	-0.0016059742
42	0xba9a9c65	-0.0011795877
43	0xbc2b542e	-0.010457082
44	0xa9c7556f	-8.8521956e-14
45	0x27e9ed7b	6.492797e-15
46	0x2978604c	5.5150586e-14
47	0xa9fc27fe	-1.11979856e-13
48	0x3f8ed313	1.1158165
49	0xbe62e527	-0.22157727
50	0xbcac2c67	-0.021017266
51	0xbcd5d109	-0.026100652
52	0x29e9c490	1.0381377e-13
53	0xa9f3cc25	-1.0826781e-13
54	0x2a2ded9a	1.5447921e-13
55	0xa9af484c	-7.784103e-14
56	0xa980295d	-5.691517e-14
57	0xaa2ad7b3	-1.5173869e-13
58	0x2a1f334f	1.4139838e-13
59	0xaa2aa52b	-1.5156337e-13
60	0xa913c937	-3.2815083e-14
61	0x2be4b838	1.6251505e-12
62	0xa79d648e	-4.3685275e-15
63	0xac968e5b	-4.279061e-12
64	0xa96444e0	-5.068591e-14
65	0x290bd0ed	3.1045414e-14
66	0xa9609eee	-4.987584e-14
67	0xa97b0322	-5.5735913e-14
68	0xab0e0b12	-5.04639e-13
69	0x2aa44a30	2.918373e-13
70	0xaade2af3	-3.9464924e-13
71	0xac9a775c	-4.390195e-12
72	0xa9d540f4	-9.470368e-14
73	0xa9bcd473	-8.385731e-14
74	0xa98fb0c7	-6.381142e-14
75	0xaa282bde	-1.4936617e-13
76	0xaa21612e	-1.4333389e-13
77	0x2bdb3fb6	1.5578569e-12
78	0xa9975976	-6.721266e-14
79	0xac72ac93	-3.4486066e-12
80	0xa90022de	-2.8451952e-14
81	0x29d997a1	9.663039e-14
82	0xaa311d15	-1.5730848e-13
83	0xaa2e7f70	-1.5498518e-13
84	0xaa5418da	-1.8838005e-13
85	0x2ab1cadc	3.1582278e-13
86	0xa98b1148	-6.175838e-14
87	0xab4f5965	-7.3665233e-13
88	0xa8b376c4	-1.9924499e-14
89	0xa8fb37c5	-2.7890784e-14
90	0x285382a2	1.1741179e-14
91	0xaa093c67	-1.2189e-13
92	0x3c390f2c	0.011295121
93	0xbb4af75b	-0.003097019
94	0xb94a1303	-0.00019271304
95	0xbc35a66b	-0.01108704
96	0xaabd7283	-3.3652603e-13
97	0xaa0babed	-1.2405329e-13
98	0xaa9c32bb	-2.7746368e-13
99	0xac6a523b	-3.3299047e-12
100	0xb98314c5	-0.00025001742
101	0xba72e652	-0.0009265888
102	0xbbeabc22	-0.0071635405
103	0xbc4dc57c	-0.012559291
104	0xa977101c	-5.485899e-14
105	0xa9cf75a0	-9.213051e-14
106	0x299bbc55	6.916053e-14
107	0xa94ce222	-4.549324e-14
108	0x3f115871	0.56775576
109	0xbd7fa280	-0.06241083
110	0xbd98fd67	-0.07470208
111	0x3be8216c	0.0070840623
112	0x3e215d54	0.15758258
113	0xbd1fa9d6	-0.038980328
114	0x3a8db318	0.001081082
115	0x39b3c175	0.00034285677
116	0x3c1aa207	0.009438044
117	0xbafabd4d	-0.0019129902
118	0xbad2a0dc	-0.0016069668
119	0xbc5a80b9	-0.013336354
120	0xaaceba1f	-3.6722098e-13
121	0x2a0ecc61	1.2683042e-13
122	0xaa98f7a6	-2.7172465e-13
123	0xac53ff5a	-3.0126652e-12
124	0xa9b47c27	-8.015143e-14
125	0xa95cc3c6	-4.901962e-14
126	0x28b8d143	2.0518856e-14
127	0xa974cd49	-5.435694e-14
128	0xa8f558eb	-2.7239026e-14
129	0xa9a5578b	-7.342658e-14
130	0x2a0b3188	1.2362865e-13
131	0xaa068df8	-1.1950846e-13
132	0x2ee78db9	1.0529839e-10
133	0xb0ff3c4e	-1.8570832e-09
134	0x301eaffa	5.7730143e-10
135	0xb05ee0f0	-8.1082785e-10
136	0xb13312ca	-2.6058609e-09
137	0x30bfb075	1.3947231e-09
138	0xaf4e8501	-1.8782843e-10
139	0xb0145a0e	-5.397006e-10
140	0x28e8f917	2.58652e-14
141	0x28e0daca	2.496388e-14
142	0xa9376d45	-4.072894e-14
143	0xa893fb30	-1.6429214e-14
144	0x2ee604a6	1.0460015e-10
145	0x320b2000	8.098141e-09
146	0x31f41957	7.1042154e-09
147	0xb17b1c7c	-3.6541499e-09
148	0xa89eaecb	-1.7617328e-14
149	0x29d12085	9.287106e-14
150	0xa9d25070	-9.339827e-14
151	0xa8bbe97c	-2.0862428e-14
152	0x3f494abe	0.7862967
153	0xbdfaa256	-0.122379944
154	0xbd90b47a	-0.07065673
155	0xbc887b94	-0.01666049
156	0x2a253bbe	1.4675671e-13
157	0xa862382f	-1.2557703e-14
158	0xa86011bc	-1.2438343e-14
159	0xa8508524	-1.157519e-14
160	0x2a1886d4	1.354709e-13
161	0x2c2250f1	2.3066516e-12
162	0x2a661c1d	2.0437857e-13
163	0xac1f6312	-2.2650254e-12
164	0xa5054dd1	-1.1562276e-16
165	0xaa07eba0	-1.2072158e-13
166	0xa9c5a2c1	-8.776791e-14
167	0xaa033165	-1.1652274e-13
168	0xaaa02130	-2.8444738e-13
169	0x2bdff912	1.5914234e-12
170	0x29f95db7	1.1074078e-13
171	0xaca802b4	-4.7751473e-12
172	0x2a089a38	1.2132732e-13
173	0xa9b3bf6b	-7.9824026e-14
174	0xaa1ff0de	-1.4205604e-13
175	0xa8f6793b	-2.7364062e-14
176	0x3be282d3	0.006912568
177	0xbb21a1a6	-0.0024663
178	0x3a90e22b	0.0011053731
179	0xbb5ae3da	-0.003339997
180	0xaab07b61	-3.1349492e-13
181	0x2a2fdf23	1.5620538e-13
182	0xa91a5d59	-3.4275835e-14
183	0xac0265bb	-1.8530583e-12
184	0x2943f4a4	4.351089e-14
185	0xa8ecfeff	-2.631185e-14
186	0xa9e77cb4	-1.0280093e-13
187	0xaa1437e2	-1.3164429e-13
188	0x3d27682c	0.04087083
189	0x3d0d74a1	0.034535054
190	0xbd8a4622	-0.06751658
191	0x3cc494bb	0.023996701
192	0x3c094c39	0.008379989
193	0xbb3a4150	-0.0028420277
194	0x3a861fac	0.0010232828
195	0xbba1e8b0	-0.0049410686
196	0x3c4fa765	0.012674187
197	0xbb5d6373	-0.00337812
198	0xb9de5efd	-0.0004241391
199	0xbc556bca	-0.013026187

Operation_1_B f4 [50]
0	0x28d41d05	2.3549313e-14
1	0xa7fa175f	-6.941428e-15
2	0x2a1c33d5	1.3873566e-13
3	0x3712ea8f	8.756891e-06
4	0xa94c502b	-4.5366634e-14
5	0x29c5b3ec	8.779769e-14
6	0xa991f1b2	-6.481221e-14
7	0xa9c7f386	-8.87962e-14
8	0xbad3602d	-0.0016126685
9	0xa8f7e1ee	-2.752049e-14
10	0x3782befe	1.5586145e-05
11	0xa955ddad	-4.7487774e-14
12	0xbabf2e4d	-0.0014585942
13	0x2964e41b	5.082402e-14
14	0xa9b83cfb	-8.18182e-14
15	0x2a09f161	1.225179e-13
16	0x26940585	1.0271059e-15
17	0x2a18fe15	1.3588464e-13
18	0xaa2812e4	-1.4927951e-13
19	0xa9849997	-5.888621e-14
20	0xa9e467aa	-1.0143217e-13
21	0xa9a10218	-7.1501995e-14
22	0xa9b34c99	-7.9624844e-14
23	0x372ee9c4	1.0425636e-05
24	0xa9cc2195	-9.0652454e-14
25	0x36bde515	5.6593076e-06
26	0xa9e19c0a	-1.0019076e-13
27	0x3a48b9f1	0.0007657102
28	0xb95c0475	-0.00020982495
29	0x37abb4a7	2.0468911e-05
30	0xa9cb89ad	-9.038894e-14
31	0xa9fde4de	-1.1275159e-13
32	0x2a340df4	1.5992053e-13
33	0x2dd56ef8	2.4264576e-11
34	0x2ba3428f	1.160032e-12
35	0x2a227fa2	1.4432772e-13
36	0x2f3917d1	1.6834113e-10
37	0xaa1ec06f	-1.4099983e-13
38	0xb870f430	-5.7447876e-05
39	0x28a44ff6	1.8242335e-14
40	0xaa298389	-1.5055851e-13
41	0xa9022f37	-2.890675e-14
42	0xa9b29b1a	-7.931694e-14
43	0x2a07b9d1	1.2054877e-13
44	0xb66f5a93	-3.5666496e-06
45	0xa9b9801c	-8.237874e-14
46	0x289583da	1.6599505e-14
47	0x3aa00d0f	0.0012210923
48	0xb5eaa905	-1.748355e-06
49	0x3760a196	1.3389063e-05

linear_2_W f4 [2, 50]
0	0x2984d4a1	5.898863e-14
1	0x29b173dd	7.880478e-14
2	0xa9a89dcc	-7.488072e-14
3	0x3be1291c	0.0068713557
4	0x2a1a28de	1.3692126e-13
5	0x29d799a4	9.5745704e-14
6	0x2afeec7a	4.5283552e-13
7	0x2a2776d4	1.4873806e-13
8	0x3e6f4140	0.23364735
9	0x2a05bcc2	1.1878262e-13
10	0x3bdee7a1	0.0068025147
11	0xa9284e20	-3.7371256e-14
12	0x3e9590d3	0.29212055
13	0xaa0e9af9	-1.26659e-13
14	0xa93c653b	-4.183219e-14
15	0x2b679ad2	8.228254e-13
16	0x29b21d5d	7.9098817e-14
17	0xaabebd84	-3.3882283e-13
18	0xa903814e	-2.9199997e-14
19	0x2b9deaf0	1.1220729e-12
20	0xa9a0bb02	-7.137868e-14
21	0x2b7235e1	8.6050443e-13
22	0xa9bd3bcb	-8.4036585e-14
23	0x3b74bfa2	0.0037345667
24	0x2bae8d0b	1.2402591e-12
25	0x3b2ce974	0.0026384266
26	0xa9f5318f	-1.0888783e-13
27	0x3e3bdd02	0.18346027
28	0x3e4cc981	0.19998743
29	0x3c0fd078	0.00877773
30	0x2b5c1b8e	7.819794e-13
31	0xa962edf4	-5.0388472e-14
32	0x29aa6809	7.567564e-14
33	0x30faeaf2	1.825667e-09
34	0xb1a754d8	-4.8699853e-09
35	0xa959bb10	-4.834593e-14
36	0x32901867	1.6774903e-08
37	0xa97df814	-5.639246e-14
38	0x3e662f4d	0.22478981
39	0xa8e20a3a	-2.5095475e-14
40	0x2c04c365	1.8866794e-12
41	0xaa1fc7d6	-1.4191369e-13
42	0x291fb220	3.545959e-14
43	0x298927b9	6.090913e-14
44	0x3ba60911	0.005066999
45	0x2bbc8141	1.3394079e-12
46	0x26e9edbe	1.6232063e-15
47	0xbd07c9ce	-0.03315144
48	0x3addc3a3	0.0016919266
49	0x3c163d7c	0.009169932
50	0xaa04f6d7	-1.1809595e-13
51	0xaa226f16	-1.4427031e-13
52	0xaa051074	-1.1818481e-13
53	0x3c31f541	0.010861696
54	0xaa0203ea	-1.1547677e-13
55	0xaa17cb6c	-1.348207e-13
56	0x2cf72f1e	7.0253933e-12
57	0xa97e2980	-5.6435325e-14
58	0x3e879136	0.26477975
59	0xaa1e3084	-1.4050051e-13
60	0x3c3b8c35	0.011447002
61	0x29566eae	4.7613545e-14
62	0x3ebce67e	0.36894602
63	0xa9ba257e	-8.266563e-14
64	0xaa108191	-1.2834722e-13
65	0x2944700d	4.361793e-14
66	0x2a183d46	1.352157e-13
67	0x2b97ae9b	1.0777658e-12
68	0x29d1031e	9.282005e-14
69	0x2bca34d0	1.4367622e-12
70	0xa9bad161	-8.296381e-14
71	0x2c795dee	3.543717e-12
72	0xa864deef	-1.27048835e-14
73	0x3c54e346	0.012993639
74	0xaacf4d91	-3.682441e-13
75	0xbb1f126a	-0.002427245
76	0x2a052dd9	1.182868e-13
77	0x3e6d001e	0.23144576
78	0x3e77d522	0.24202397
79	0x3cc897de	0.024486478
80	0xa7e87f3d	-6.4530887e-15
81	0xaa049569	-1.1775792e-13
82	0xa9f4fa13	-1.0879158e-13
83	0x30d2591e	1.530484e-09
84	0xb1916999	-4.2320605e-09
85	0x2a0a33fd	1.2274899e-13
86	0xb0fafafd	-1.8261229e-09
87	0x298ce102	6.2562816e-14
88	0x3e8899f6	0.26679963
89	0xaa078510	-1.2036574e-13
90	0x2b39ece8	6.6053977e-13
91	0xaa020d61	-1.1550961e-13
92	0x2c6ebfaf	3.392824e-12
93	0x29edd59b	1.0561969e-13
94	0x3c626ea0	0.01382032
95	0x2c136499	2.09458e-12
96	0x29c2a844	8.64452e-14
97	0xbbab6e73	-0.0052316724
98	0x3c1395bf	0.00900787
99	0x3cd2af80	0.02571845

linear_2_B f4 [2]
0	0x3d575c8d	0.052578498
1	0xbc9c5236	-0.01908217
