engine/nnmt/ONNX/1L_housing_nets.onnx (onnx, 2295 bytes, 4 tensors)

input_AvgImg f4 [1, 1, 1, 12]
000000 00 00 80 3f 00 00 80 3f 00 00 80 3f 00 00 80 3f
       1.0 1.0 1.0 1.0
000010 00 00 80 3f 00 00 80 3f 00 00 80 3f 00 00 80 3f
       1.0 1.0 1.0 1.0
000020 00 00 80 3f 00 00 80 3f 00 00 80 3f 00 00 80 3f
       1.0 1.0 1.0 1.0

Operation_1_W f4 [25, 12]
000000 3a a1 96 32 64 45 a7 b2 48 7b 40 b4 e1 ef 5e 33
       1.7535616e-08 -1.9472914e-08 -1.7926243e-07 5.190657e-08
000010 06 f1 cb 32 69 2e c6 b1 4a 99 16 34 b4 3c 0c b4
       2.3741915e-08 -5.7678347e-09 1.4025605e-07 -1.30606e-07
000020 50 8e c3 b2 61 a6 2e b4 c5 e8 36 b4 2e 9a a5 b1
       -2.2765704e-08 -1.6265541e-07 -1.7034752e-07 -4.8196602e-09
000030 59 85 d4 3b 44 75 3c 3a f3 86 80 ba d8 2a c3 b7
       0.006485623 0.0007189105 -0.0009805843 -2.3265762e-05
000040 6d 7b 6a ba 9c 0b 3e bb 4c 09 84 b9 a7 7e 93 39
       -0.00089447835 -0.002899862 -0.0002518393 0.00028132388
000050 05 02 a8 bb 42 04 4f b9 2b 57 a7 b9 6d a6 24 3c
       -0.005127194 -0.00019742645 -0.00031917667 0.010049445
000060 6c 9b 60 3c 2d eb a1 38 f3 e5 f9 ba 31 11 62 b8
       0.01370893 7.720883e-05 -0.0019065723 -5.389861e-05
000070 2b 14 07 bb e0 e8 ef bb 05 cc 3b ba cd 00 b1 3a
       -0.0020611386 -0.007321462 -0.0007163885 0.0013504267
000080 f6 37 0b bc 09 f0 76 ba fa 3f b5 bb c4 5c aa 3c
       -0.008497229 -0.00094199233 -0.0055313082 0.020796187
000090 2b 95 0d 3d 13 ec 4e 39 e3 2f 86 bb 7e 41 e6 b8
       0.034566086 0.00019733635 -0.004095064 -0.000109794535
0000a0 3d e4 9d bb 31 2d 2d bc ac 44 e2 ba d6 a0 3d 3b
       -0.004818468 -0.0105698565 -0.0017262897 0.0028934977
0000b0 21 6b 78 bb 7c d1 81 ba d9 18 2a bc 01 6a 58 3d
       -0.003790565 -0.000990435 -0.010381901 0.05283547
0000c0 80 51 8d 33 dc 27 89 b3 cd a3 89 32 e6 b0 10 b4
       6.580649e-08 -6.38681e-08 1.6023387e-08 -1.34754e-07
0000d0 e3 cd 22 b4 70 c8 e9 b3 d4 c3 e1 b2 8c 9e cd b1
       -1.5162327e-07 -1.08863674e-07 -2.62825e-08 -5.98431e-09
0000e0 d0 c5 6d b3 9a fd 24 b4 cc 14 fb b3 9f f0 45 34
       -5.5360772e-08 -1.536595e-07 -1.1691881e-07 1.8434592e-07
0000f0 d2 70 39 bd 54 0f cc 3c 76 3e c8 bb 10 f2 a0 b8
       -0.04527361 0.024909653 -0.0061109615 -7.674482e-05
000100 c6 24 90 3d 2f 4b 51 3d c0 1a a9 bc 64 46 88 3b
       0.07038264 0.05109709 -0.020642638 0.004158782
000110 37 7f 26 3b f8 b7 05 3c 04 9c 13 3d 40 1a 2e bd
       0.0025405416 0.008161537 0.03603746 -0.042505503
000120 bb 71 5a b3 be 7f d5 b3 00 7b 93 b3 82 47 24 b2
       -5.0860518e-08 -9.9418216e-08 -6.8675945e-08 -9.562315e-09
000130 ae 13 98 b3 5c 8f 2f b4 e9 0e 9e b3 58 d7 23 34
       -7.081631e-08 -1.6350299e-07 -7.3601605e-08 1.52589e-07
000140 4f 2b 88 b3 0b f3 54 34 63 44 36 b4 cc 53 41 b4
       -6.340871e-08 1.9832457e-07 -1.697495e-07 -1.8005011e-07
000150 76 c5 0b 3d 4b 5d 28 bc 12 f9 0f be f9 2e 33 3c
       0.03412386 -0.010276149 -0.14059857 0.010936492
000160 1c e3 8d 3f 5b d9 4f be 23 1c a5 be 5f f7 92 3d
       1.1084933 -0.20297758 -0.3224803 0.071760885
000170 73 88 5a bc c0 0f c8 be cb 30 8d 3d 13 7c 07 3e
       -0.013338196 -0.39074516 0.06894072 0.13230924
000180 70 c2 53 be 1e 1f 8d bd 02 87 a4 3d 3c 75 0e bb
       -0.20679641 -0.06890701 0.08033563 -0.0021737358
000190 64 a4 0c 3e c8 52 31 bd a6 96 68 bd be 14 4d 3b
       0.13734585 -0.043291837 -0.056784295 0.003129288
0001a0 7b e5 9b 3d 84 b4 78 3d 0b a8 44 bd 0e 06 f2 bd
       0.07612129 0.060719028 -0.04801182 -0.11817561
0001b0 e4 77 56 bd 08 58 81 3c 13 64 7f 3a 8a 98 07 39
       -0.05236043 0.015789047 0.000974239 0.00012931429
0001c0 93 a9 12 3c 25 94 96 3a 83 3d 17 3b 99 c3 af bb
       0.008951562 0.0011488242 0.0023077435 -0.005363893
0001d0 fc ce 81 bd 6b 89 ad ba 05 fb aa 3c 00 96 b4 bd
       -0.06338307 -0.0013239806 0.020871649 -0.08817673
0001e0 79 45 13 b4 8c 47 85 33 ee b2 4e 34 a7 5c 54 b3
       -1.3715716e-07 6.2063094e-08 1.9250339e-07 -4.9444363e-08
0001f0 b3 fd 50 b3 18 5f 2c b4 f0 dd 11 34 a2 9a 32 33
       -4.8659512e-08 -1.6053343e-07 1.3584918e-07 4.1584492e-08
000200 59 41 f8 b3 be 2d ee b3 ef 3e d1 b3 95 ee e8 b0
       -1.15602866e-07 -1.1091059e-07 -9.7437685e-08 -1.6948031e-09
000210 0b aa e3 b7 91 47 4c b4 29 2a 1e b9 f3 fd d8 b6
       -2.7139691e-05 -1.9025016e-07 -0.0001508376 -6.466865e-06
000220 59 fe bd b8 5f 7c 66 ba 8e 2d 00 b8 e0 33 86 b8
       -9.059598e-05 -0.00087923364 -3.0560004e-05 -6.3992804e-05
000230 8f 03 85 bb 29 36 be b8 89 77 67 bb cd 48 e3 38
       -0.004059262 -9.069994e-05 -0.0035319051 0.00010837764
000240 e5 e5 33 b3 34 f9 de b2 3e e9 b2 b3 1e 95 50 34
       -4.1885773e-08 -2.5957526e-08 -8.3311974e-08 1.9425758e-07
000250 07 f4 4a b3 05 ef 42 34 31 95 25 b4 7d 4e 22 b3
       -4.725373e-08 1.8154613e-07 -1.5421098e-07 -3.778995e-08
000260 50 4c c5 b3 0b 6b 24 b3 5a a5 a0 b3 4c a8 8e 33
       -9.1874085e-08 -3.828158e-08 -7.480658e-08 6.643003e-08
000270 ba 6a 49 bc 85 36 20 3c 4e 42 8b bb 3f eb a2 39
       -0.012293512 0.0097786235 -0.0042498475 0.0003107432
000280 d1 b1 98 3c b1 33 70 bb 59 2c 2e bc fd b1 ee 3b
       0.018639477 -0.0036651904 -0.0106306905 0.0072844015
000290 27 ee 93 bc 1d a8 a7 bc 3b 43 e8 bb 0a e5 77 bd
       -0.018057896 -0.020465905 -0.0070880926 -0.060521163
0002a0 f0 e4 1d be 81 eb ba 3d a7 ee ae 3c 82 9d ac bb
       -0.15419364 0.0912695 0.021354033 -0.0052678
0002b0 32 0a 88 3e 80 03 7c 3e 60 2f 4c bd 28 8f 00 bc
       0.26570278 0.2461071 -0.049849868 -0.007846631
0002c0 06 d9 c4 bc 98 56 bf b9 c9 49 09 ba 40 82 a1 be
       -0.024029266 -0.00036494876 -0.000523713 -0.31544685
0002d0 e4 e7 29 be 13 ff a2 bc ce 54 e3 bb 3a a6 f9 ba
       -0.16592366 -0.01989702 -0.0069375997 -0.0019046732
0002e0 15 5b 69 3e ff 92 5d 3e e0 a7 99 bd 00 e2 01 3d
       0.22788651 0.21638106 -0.07502723 0.03170967
0002f0 9e d1 90 bc 9c 45 08 3d 3f 67 94 3c 95 28 6f be
       -0.017678078 0.03326951 0.018115638 -0.23355325
000300 b5 30 e8 b4 cd 8c a4 33 39 d0 be b3 2a af d0 32
       -4.3248806e-07 7.6624566e-08 -8.88544e-08 2.4294042e-08
000310 31 e4 99 b3 f0 d1 84 b5 12 81 4b b4 17 2b 87 b4
       -7.1661255e-08 -9.895866e-07 -1.8952804e-07 -2.5177062e-07
000320 d0 59 0e b7 2d e1 e7 b4 2d 2b 7e b5 c6 bd d8 b4
       -8.484771e-06 -4.319094e-07 -9.46852e-07 -4.0371214e-07
000330 cb 78 06 33 84 9b 5c b1 6a e4 8d 33 97 7e 72 b3
       3.1309167e-08 -3.2102614e-09 6.6073724e-08 -5.646015e-08
000340 86 1c 15 b4 e9 00 f9 33 dc ef ea b3 63 b7 86 33
       -1.3887083e-07 1.15951316e-07 -1.0940104e-07 6.273219e-08
000350 93 5e df b3 ca e3 23 b2 4a 32 9f b3 35 45 9f 33
       -1.040145e-07 -9.539642e-09 -7.413162e-08 7.416603e-08
000360 8e 66 0b 33 fd a6 4c 34 43 66 21 34 90 72 da 33
       3.2456732e-08 1.905973e-07 1.5031496e-07 1.0172255e-07
000370 e6 af 25 b3 e4 e3 8e 33 3f 98 f6 31 90 02 1b 33
       -3.8577035e-08 6.653843e-08 7.1768507e-09 3.609108e-08
000380 35 2a f0 b3 69 d4 13 b4 f6 b5 8c b3 7a 11 4e b3
       -1.1183548e-07 -1.3767716e-07 -6.5523565e-08 -4.7979007e-08
000390 8e 2a 37 3d e7 13 80 39 18 d9 c6 bb 62 58 12 b9
       0.044718318 0.0002442889 -0.00606836 -0.0001395657
0003a0 db 60 d2 bb 44 ea b8 bc c1 5a 1c bb 61 24 8b 3b
       -0.0064202375 -0.022572644 -0.0023857804 0.00424628
0003b0 ac 3b e4 bc d1 78 45 bb 3e a5 f4 bb b0 79 8d 3d
       -0.027860485 -0.0030131827 -0.0074659875 0.06907976
0003c0 89 c1 30 bc bc ec 5e 3c 7e 76 c6 bb 47 4e 03 39
       -0.01078833 0.013606247 -0.006056606 0.00012522294
0003d0 2e 24 fc 3b 2b 22 2e 3c e7 b4 2c bb fd 2d ca 39
       0.0076947426 0.0106282635 -0.0026352943 0.00038562706
0003e0 bc 46 bd bc ff 37 8a bb ac 53 cb 3b 5a 4b 11 bd
       -0.023105018 -0.004218101 0.006205043 -0.03547225
0003f0 08 a3 56 b4 58 9f be 34 b5 c2 25 b4 47 fc 06 33
       -1.9989614e-07 3.5506196e-07 -1.5437656e-07 3.142875e-08

Operation_1_B f4 [25]
000000 1f 0a 82 b3 b8 cd b0 b8 b7 d0 59 b9 7e 00 ec b9
       -6.055438e-08 -8.430652e-05 -0.00020772485 -0.00045013794
000010 d1 c4 07 b4 ab 4f 88 3b 04 79 59 b3 62 1a 1c 3d
       -1.2644456e-07 0.004159888 -5.0634313e-08 0.038111098
000020 1a 79 53 3c bf ac 33 3a 2e be 45 b4 97 fe 35 b7
       0.012907291 0.0006854049 -1.8416242e-07 -1.0847717e-05
000030 9a 21 8b 33 84 7e 16 3a 42 e7 9d 3c 51 1a 63 3c
       6.478804e-08 0.0005740898 0.019275311 0.013861255
000040 3c 90 9a b3 46 45 b1 32 d2 e8 22 b4 58 cb 2c ba
       -7.19742e-08 2.0637014e-08 -1.5172125e-07 -0.000659158
000050 81 d3 bd 39 5a c6 09 33 e9 5e 10 b2 a7 ce ab 3d
       0.00036206472 3.2078198e-08 -8.403483e-09 0.08389025
000060 f8 5c b4 33
       8.398814e-08

linear_2_W f4 [1, 25]
000000 07 a7 31 34 65 61 28 3c 81 11 1d 3b 0b 13 08 3c
       1.6545174e-07 0.010277127 0.0023966732 0.008305321
000010 d1 0c f0 b1 02 56 82 3d 91 f0 4f b3 49 e5 8f 3f
       -6.9863764e-09 0.06364061 -4.8414737e-08 1.1241847
000020 1a 5b 79 3e a6 80 d8 3d 45 e3 15 32 cb 8c 0b 3a
       0.24351159 0.10571413 8.724617e-09 0.0005323409
000030 c5 19 7c b3 cd 5b 69 3d 82 5b f7 3e 0c a9 d4 3e
       -5.869676e-08 0.056972314 0.48312002 0.41535223
000040 b1 55 7a 35 1c 89 76 b3 5a 15 12 2f 6c 64 64 3b
       9.3256955e-07 -5.740104e-08 1.3286208e-10 0.0034849895
000050 40 e3 1d 3d ec 5f 82 35 db a0 10 b4 6c d6 e7 3f
       0.0385468 9.713672e-07 -1.3469564e-07 1.8112311
000060 ca 12 43 2e
       4.4354555e-11
