engine/nnmt/ONNX/1L_heat_nets.onnx (onnx, 1103 bytes, 4 tensors)

input_AvgImg f4 [1, 1, 1, 4]
000000 00 00 80 3f 00 00 80 3f 00 00 80 3f 00 00 80 3f
       1.0 1.0 1.0 1.0

Operation_1_W f4 [10, 4]
000000 81 b8 84 b9 ee 0b 08 ba af 40 88 b9 45 43 98 b9
       -0.00025314468 -0.0005189766 -0.00025988134 -0.0002904182
000010 ad 7e b0 bc 65 50 b2 bc b2 da ae bc 61 70 b2 bc
       -0.021544779 -0.02176685 -0.021344516 -0.021782102
000020 1c 6e 0b b8 37 93 0a b7 1d d3 cc b7 40 4b d3 b7
       -3.324273e-05 -8.259717e-06 -2.4417002e-05 -2.5188201e-05
000030 a6 f0 e5 b7 37 df af 37 16 dc 2c b7 a1 4a 35 37
       -2.7410988e-05 2.0965568e-05 -1.0303242e-05 1.0805817e-05
000040 24 33 b6 bc 30 45 b8 bc 3b b9 b4 bc 7b 39 b8 bc
       -0.022241183 -0.022493929 -0.022060981 -0.022488346
000050 40 9b 9b be a4 8b a7 be 49 f6 a8 be 1c 36 a8 be
       -0.30391884 -0.32723725 -0.330004 -0.32853782
000060 6f d8 2a be 04 6d 36 be 27 48 37 be 9b 30 37 be
       -0.16684125 -0.17815024 -0.17898618 -0.17889635
000070 81 ea 50 bc 46 e6 52 bc 11 9a 4e bc 70 ca 52 bc
       -0.012751223 -0.012872284 -0.0126099745 -0.012865648
000080 bd b4 14 bc 89 37 16 bc ec 8e 10 bc 79 7a 0f bc
       -0.0090762945 -0.009168514 -0.008823138 -0.008757227
000090 65 65 a1 bc 6c 2c 91 bc e5 c4 aa bc 3d 28 90 bc
       -0.019701669 -0.017721377 -0.02084584 -0.017597312

Operation_1_B f4 [10]
000000 e2 e1 ca ba cd d9 7b bd 5b c8 dd 36 f1 c5 b3 b7
       -0.0015478695 -0.061487008 6.6096377e-06 -2.1430636e-05
000010 c5 fb 81 bd 28 2f 12 41 58 67 89 40 1a 02 15 bd
       -0.06346849 9.136513 4.293865 -0.036378957
000020 08 03 c8 bc 36 b6 52 bd
       -0.024415508 -0.0514433

linear_2_W f4 [1, 10]
000000 f5 1c f3 36 24 ac 1b 3e 79 51 d6 b7 6d f8 38 38
       7.2453354e-06 0.15202385 -2.5548727e-05 4.4100383e-05
000010 9f 46 1f 3d 85 54 11 41 50 f3 86 40 1b 8f db 3d
       0.03888571 9.083135 4.217201 0.107206546
000020 98 e4 d0 3c f6 b1 49 3c
       0.025499627 0.012310496
