engine/nnmt/ONNX/1L_valve_nets.onnx (onnx, 965 bytes, 4 tensors)

input_AvgImg f4 [1, 1, 1, 2]
0	0x3f800000	1.0
1	0x3f800000	1.0

Operation_1_W f4 [7, 2]
0	0xb8abaeb9	-8.18646e-05
1	0xb8ac28cc	-8.209198e-05
2	0xb38dbafe	-6.599838e-08
3	0x3236f3c4	1.064922e-08
4	0xb945afde	-0.000188529
5	0xb94669a2	-0.00018922103
6	0x3d44d566	0.048055075
7	0x3f052dd4	0.52023053
8	0xb34eb1cc	-4.8124818e-08
9	0xb2b139a9	-2.0631733e-08
10	0xb8a561de	-7.886042e-05
11	0xb8a5d3e3	-7.90728e-05
12	0xb2d90d93	-2.5268298e-08
13	0xb3c0d04b	-8.978585e-08

Operation_1_B f4 [7]
0	0xb5eb8c00	-1.754961e-06
1	0xb3a254ad	-7.559115e-08
2	0xb68c00a6	-4.1724006e-06
3	0x41b15b40	22.169556
4	0x32f8aad2	2.894868e-08
5	0xb5dd8fed	-1.6507671e-06
6	0x33463d42	4.615618e-08

linear_2_W f4 [1, 7]
0	0x38e79ea6	0.00011044489
1	0x3332ceff	4.1632116e-08
2	0x386df79c	5.6735807e-05
3	0x41adaede	21.710384
4	0xb3f3aa8c	-1.13465916e-07
5	0x3944e904	0.00018778822
6	0x3360c430	5.2332496e-08
