engine/nnmt/ONNX/2L_abalone_nets.onnx (onnx, 1985 bytes, 6 tensors)

input_AvgImg f4 [1, 1, 1, 8]
000000 00 00 80 3f 00 00 80 3f 00 00 80 3f 00 00 80 3f
       1.0 1.0 1.0 1.0
000010 00 00 80 3f 00 00 80 3f 00 00 80 3f 00 00 80 3f
       1.0 1.0 1.0 1.0

Operation_1_W f4 [10, 8]
000000 6f 13 12 bd ae 06 0a 3f ba 62 cc be c4 6e a6 be
       -0.035663065 0.5391644 -0.39919072 -0.32506382
000010 43 26 b3 bf 02 4b 04 40 18 94 82 3f 16 01 ba 3e
       -1.3996052 2.067078 1.0201445 0.36328954
000020 d7 2a fa 3c 06 50 8b 3e 7d 0a 8b be e2 9f e9 3e
       0.030538006 0.2720949 -0.2715644 0.45629793
000030 a9 01 16 3f bb ab d5 bf f1 52 96 bf 51 5e d9 3e
       0.58596283 -1.6693033 -1.1744062 0.4245477
000040 e8 c1 07 bc cd 88 8d bf 01 74 46 3f 29 f8 82 bf
       -0.008285977 -1.1057373 0.7752076 -1.0231982
000050 e4 89 e1 be cc d1 32 3f 70 ea e4 3d a3 57 84 3f
       -0.44050515 0.69851375 0.11177528 1.0339245
000060 f9 d8 65 ba 0b bf 1e 3a 66 28 18 ba 2a 76 d7 b9
       -0.0008767988 0.00060556893 -0.00058043597 -0.00041096035
000070 c4 a2 73 ba 5b b8 17 39 45 1c 72 3a 83 99 90 39
       -0.00092939683 0.0001446916 0.000923578 0.00027580195
000080 ee 09 1f 3d 80 54 3a 3f aa bf 58 3f 44 5c bb 3f
       0.03882783 0.72785187 0.84667456 1.4637532
000090 12 c7 79 3d af c7 4e be 6c 48 f9 bd d7 39 37 3f
       0.060980864 -0.20193361 -0.121720165 0.7157263
0000a0 74 15 03 bb 15 83 6d ba 0a 06 2e ba 59 c4 4b ba
       -0.00200018 -0.0009060365 -0.0006638473 -0.00077730935
0000b0 88 e5 18 3b b5 d0 de 3a 6e 28 9b 3a 46 72 b3 3a
       0.002333017 0.0016999455 0.001183761 0.0013690672
0000c0 bf 84 34 be 26 a6 17 bf a6 e3 18 be 84 30 84 3f
       -0.17628764 -0.592379 -0.14930591 1.0327306
0000d0 e7 50 ad 3f 3f 28 2a c0 09 3d 50 3f d5 a4 d5 be
       1.3540314 -2.6587064 0.8134313 -0.4172732
0000e0 55 6c 12 ba 73 8d 3b ba 6c 6e d2 b9 37 a2 45 37
       -0.0005585601 -0.00071545615 -0.00040136592 1.1779884e-05
0000f0 6d 73 10 3a f9 2f 49 ba 56 1a b0 b9 f6 f3 3f ba
       0.0005510364 -0.000767469 -0.00033588958 -0.0007322425
000100 d9 26 be b9 b4 88 0d 3a 01 b9 03 39 3b d8 ad 39
       -0.00036268568 0.00053990935 0.00012562053 0.00033158236
000110 92 4b 09 ba 82 81 11 39 f3 23 1c ba 84 af 93 b9
       -0.0005237396 0.00013876523 -0.00059562846 -0.00028168794
000120 d7 15 c5 bd 08 aa 47 bc 43 0d c3 3b 06 37 ee 3b
       -0.09623306 -0.012186535 0.0059525087 0.007269743
000130 b5 78 3f bd 2e 89 2a be 2b c9 09 bd f6 9b a2 3d
       -0.046745975 -0.16653892 -0.033639114 0.079399034

Operation_1_B f4 [10]
000000 ca cd d9 3e 02 6b 60 3e fb 9d c1 3f 32 b2 3f ba
       0.42539817 0.2191582 1.5126337 -0.0007312625
000010 d2 11 11 bd 46 19 17 bc 8c 1c 7b 3e 88 fe 60 39
       -0.035417385 -0.009222334 0.24522609 0.00021457125
000020 6d 8b 9e b9 28 74 76 bd
       -0.0003023999 -0.06016937

Operation_2_W f4 [8, 10]
000000 fb c5 e1 3c 51 3e 84 ba da af c7 3d 37 c0 db b7
       0.027560225 -0.0010089373 0.09750338 -2.6196341e-05
000010 d9 80 22 3d 4f 3b 5d 39 96 66 78 bd 89 6b dc 37
       0.03967366 0.00021098297 -0.06064471 2.6276119e-05
000020 ec 4a 8f b9 9e 71 9e 3b 24 25 67 ba 2b 03 0c ba
       -0.00027330907 0.0048353216 -0.0008817485 -0.0005341048
000030 28 af 5e ba c0 0d 67 b9 21 8b ca b9 43 ed b0 b9
       -0.0008494728 -0.00022034999 -0.00038632101 -0.0003374611
000040 57 28 3e 3a e7 fc 5c ba 05 c7 66 ba 5b 4a 72 39
       0.0007253936 -0.00084300194 -0.000880346 0.00023106618
000050 d9 2d 2e c0 99 98 07 40 a3 04 15 3e f4 2a 32 ba
       -2.7215483 2.1186888 0.1455255 -0.00067965616
000060 d9 66 2c 3e ab 89 16 bb 66 c9 a8 3f db 39 16 ba
       0.16836108 -0.002297024 1.3186462 -0.0005730667
000070 a6 41 56 3a 53 5a 84 3d 22 b6 9d 3e 4a 7e 18 bf
       0.00081732345 0.064625405 0.3080302 -0.595677
000080 34 44 a9 3f 42 23 98 b8 88 56 ea bf 91 de e4 b9
       1.3223939 -7.254492e-05 -1.8307657 -0.00043653374
000090 68 87 27 c0 40 1f 00 ba 3f c5 6e b9 2c 4f 68 bc
       -2.6176395 -0.0004887469 -0.00022770929 -0.014179032
0000a0 50 8d b1 3b 27 d6 4f 3b 50 5d 84 3c c8 f9 43 b9
       0.005418457 0.0031713338 0.016157776 -0.000186897
0000b0 6f 7c 8f 3b 56 37 46 3a 8b 42 97 bb 7a 80 1d 3a
       0.0043788473 0.0007561346 -0.004616087 0.0006008219
0000c0 00 5c 1c 39 21 b6 07 b9 11 bc 6b 3e cd 39 74 3e
       0.00014911592 -0.00012942452 0.2302096 0.23850174
0000d0 91 6d a7 3f 86 4e cc 38 8e 25 a9 bd d0 14 f9 b9
       1.3080312 9.742104e-05 -0.08259116 -0.00047508487
0000e0 7a 91 1a bf 8e 66 1f 3a 4f 40 44 3a 1e 79 08 3e
       -0.6037823 0.00060806505 0.00074863894 0.13327453
0000f0 b7 1e 87 b8 a5 0a 50 b6 2d c3 0e 3a 5c 7d fb b9
       -6.443023e-05 -3.1000611e-06 0.00054459536 -0.0004796785
000100 0f ee 69 ba 4d ed bd b9 4e 92 83 b9 2a 70 e5 39
       -0.0008923718 -0.00036225692 -0.00025095273 0.00043761852
000110 f2 a8 42 b9 0d f0 57 b9 f7 14 a5 3e 35 a8 9a 3e
       -0.00018564219 -0.00020593424 0.32242557 0.30206457
000120 df dc df 3f 39 28 3b ba e5 9f c4 3d 32 dc 8d ba
       1.748928 -0.00071394775 0.0960081 -0.001082307
000130 cb a9 77 bf 73 af 35 3a 9f 6a fd 39 3e 76 f1 3e
       -0.9674346 0.0006930746 0.0004833536 0.47160524

Operation_2_B f4 [8]
000000 b2 2d 3e 3d 7a f2 07 ba fb ee 9a 3e 91 07 49 3f
       0.046430297 -0.0005185973 0.30260453 0.7852717
000010 8c c2 6d 3b 6e ad b6 3e b6 33 21 ba 94 1f 50 3f
       0.003627929 0.3567919 -0.0006149368 0.81298184

Operation_3_W f4 [1, 8]
000000 a6 b8 ec 3d 85 9b 26 3a 19 40 69 40 ff cf 63 c0
       0.115586564 0.00063555717 3.6445372 -3.55957
000010 93 30 86 3c cd 90 bb 3f ee ef 50 ba 60 e9 03 40
       0.016380584 1.4653565 -0.00079703226 2.061119
