engine/nnmt/ONNX/2L_engine_nets.onnx (onnx, 8528 bytes, 7 tensors)

input_AvgImg f4 [1, 1, 1, 2]
1.0 1.0
00000000: 0000 803f 0000 803f

Operation_1_W f4 [40, 2]
-0.09726741 -0.49008176 -0.2430646 0.057438232 0.27099073 -0.10828036 0.77826405 -0.1032573
0.28484932 -0.24085687 -0.4371541 -0.043753322 0.21905938 -0.08499985 -0.40290013 0.18824182
0.032528013 0.21845639 -0.16311058 -0.75757885 0.039108537 0.42407322 -0.22414114 -0.022520227
0.31353304 -0.8611869 0.49996454 -0.19472682 -0.11599392 0.09017976 0.5889901 -0.23162305
-0.04214563 0.22442867 -0.2498206 -0.05989379 0.20814453 -0.18121776 -0.35351393 0.18582955
-0.00068813894 0.15073958 -0.30002463 0.22637144 0.35327658 0.107588984 -0.006002751 0.46462095
-0.35201305 0.044703517 -0.50084406 0.061536685 -0.010768512 0.7154515 -0.19401747 0.07191497
-0.65207297 0.050575193 0.20360084 -0.5000792 0.015212596 0.26925477 -0.19964509 -0.03573862
-0.14015065 -0.22203308 0.06821463 0.40775582 -0.7658401 0.05045023 -0.39845452 0.05527203
-0.18110043 -0.09788244 0.7431817 -0.005190157 -0.0562282 -0.03535555 0.78705424 0.40383735
00000000: 2334 c7bd ffeb fabe ede5 78be 5a44 6b3d
00000010: 4cbf 8a3e 18c2 ddbd 503c 473f 9078 d3bd
00000020: c5d7 913e 2fa3 76be aad2 dfbe af36 33bd
00000030: 1a51 603e 6714 aebd ed48 cebe 77c2 403e
00000040: 183c 053d 08b3 5f3e 7606 27be b0f0 41bf
00000050: 4630 203d 2020 d93e 4185 65be 577c b8bc
00000060: 6787 a03e bf76 5cbf 5afb ff3e 7866 47be
00000070: 388e edbd 2ab0 b83d 0ec8 163f 982e 6dbe
00000080: e5a0 2cbd a1d0 653e f9d0 7fbe 3153 75bd
00000090: d723 553e 2691 39be c7ff b4be 1a4a 3e3e
000000a0: 3964 34ba 7a5b 1a3e d49c 99be eacd 673e
000000b0: abe0 b43e 9d57 dc3d bab2 c4bb cce2 ed3e
000000c0: 0e3b b4be 091b 373d 5137 00bf e40d 7c3d
000000d0: 6a6e 30bc d427 373f 84ac 46be 2848 933d
000000e0: 41ee 26bf ef27 4f3d bd7c 503e 3105 00bf
000000f0: 413e 793c c3db 893e c36f 4cbe a962 12bd
00000100: a783 0fbe a45c 63be 1db4 8b3d 5fc5 d03e
00000110: 190e 44bf e6a4 4e3d 3b02 ccbe ed64 623d
00000120: 6472 39be 9776 c8bd 2841 3e3f 3112 aabb
00000130: 8b4f 66bd fbd0 10bd 637c 493f c5c3 ce3e

Operation_1_B f4 [40]
0.469397 0.4343437 0.019796839 0.101730116 0.01278389 0.19083893 0.013689599 -0.5115127
0.30938232 0.6401478 0.3581939 0.10425906 0.09844437 0.014196444 -0.020278715 0.021231374
-0.023407515 0.09343203 0.014705559 0.15711929 0.13307731 -0.03517532 0.22863345 0.43059784
-0.03425784 0.82851523 0.65852934 0.5525245 0.83249605 0.025821852 0.35285264 0.23729713
0.10847758 0.31199864 0.42791724 -0.023532156 -0.1724173 0.020564014 0.005825258 0.4428105
00000000: ce54 f03e 4c62 de3e fb2c a23c e157 d03d
00000010: 8573 513c 486b 433e 574a 603c 7ff2 02bf
00000020: 5c67 9e3e bae0 233f 3165 b73e c685 d53d
00000030: 349d c93d 3498 683c 8c1f a6bc 6bed ad3c
00000040: 1ec1 bfbc 4b59 bf3d 96ef 703c e1e3 203e
00000050: 6b45 083e ff13 10bd e31e 6a3e 5277 dc3e
00000060: f351 0cbd 9319 543f 6195 283f 3f72 0d3f
00000070: 761e 553f 5988 d33c 1aa9 b43e 05fe 723e
00000080: 7e29 de3d 49be 9f3e f817 db3e 82c6 c0bc
00000090: 298e 30be dd75 a83c cee1 be3b 0fb8 e23e

Operation_2_W f4 [40, 40]
0.39989632 0.18307225 -0.033244565 -0.2945486 -0.07693241 0.062191855 -0.07051219 -0.43625414
0.19567081 0.60238385 0.24941227 0.034306947 0.26892102 -0.17818345 -0.08037981 -0.2511005
-0.0305531 0.047444317 -0.02503151 -0.12559384 0.09656816 -0.20257027 -0.14525537 0.25016224
-0.11667585 0.37584013 0.40856037 0.26444834 0.33507305 0.11555089 0.2184108 0.090235434
0.13198942 0.26170027 0.11630618 -0.112728186 -0.18981883 -0.33911133 0.001303376 -0.47951755
-0.0009667943 0.0004367457 0.0013264982 7.810657e-05 0.001924758 -0.00028858683 -0.0003187225 0.0014441696
-0.00012880188 0.00014695755 0.0007791416 -0.0006163707 0.0017690983 0.0019987533 -0.0012392049 0.0016412782
-0.00087730726 -0.0011641773 -0.0011318624 -0.00031872577 -0.00079098064 -0.001448356 -0.0012069872 -0.0010042271
-0.0011372082 0.00018284691 0.0007323536 -0.0010895325 2.5301217e-05 2.8290246e-05 2.8521332e-05 -1.9803045e-05
-0.0014811924 0.00043494292 -0.00035065733 -0.00015125774 -0.00054117246 0.0021342013 -0.0012727424 3.265562e-05
-0.027654985 -0.16389748 0.14907664 0.3696069 0.19434297 -0.17358075 0.122910984 -0.0016150888
0.066912286 0.13801399 0.21735483 -0.069224365 0.53486466 0.25738415 0.019524878 0.3158047
0.1629897 -0.10145147 0.16794986 -0.1768387 0.07663984 0.080101974 0.18842135 0.24427165
-0.098524496 -0.19492523 0.38752145 -0.17191108 -0.31665406 0.32419243 0.13409953 -0.08119914
-0.062219623 0.17782645 -0.3482898 -0.125926 0.040585253 0.37743592 0.0049262466 0.46623987
-0.0031190172 0.011332237 0.04126942 0.1023545 0.04245994 0.041363705 0.040655013 0.107162766
-0.05519564 -0.018329 -0.054019745 0.0349903 0.058457475 0.06550763 0.03210422 0.056389593
-0.0028259624 0.040508434 0.03631782 0.020513205 -0.015216106 0.032918226 0.043577924 -0.053925447
0.087088145 0.009827056 -0.08834607 -0.012121081 0.00015711377 0.057967357 -0.048722327 0.01939797
-0.020111589 -0.043018263 0.110361755 0.07424296 0.04423088 0.17090796 0.04312849 0.122971155
0.04919409 0.016994894 0.009277062 0.093871646 -0.032878634 -0.030050647 -0.017601036 -0.13155125
0.13538936 0.03274214 0.15502177 -0.0007955284 -0.04065141 -0.03746016 -0.02425923 -0.0026001874
0.0101663275 -0.057906274 -0.0131772645 0.0813832 0.049164664 0.021455407 0.029127624 0.14042011
-0.048441384 0.031997856 0.22340144 0.08676631 0.025741903 -0.05741303 0.13364944 0.0026621385
-0.0501497 0.13745518 -0.1015524 -0.06948146 -0.09026415 0.038976986 -0.04319527 0.0012451101
0.014750432 0.0028088803 -0.035296537 -0.029508777 -0.034011655 0.003263372 -0.033088803 -0.04653388
0.025100414 0.028142484 0.03256502 0.03409116 -0.026340418 -0.041448943 -0.028788598 -0.019409755
0.032345824 -0.04815674 -0.026228592 0.037985552 -0.0025604763 0.017951805 -0.025511984 0.046872012
0.041885573 0.017439771 0.06355991 0.03476615 -0.0060265893 -0.05278206 0.047159992 0.032646097
-0.027352057 0.0026710022 -0.052530386 -0.011809905 -0.02346217 -0.042884734 -0.04439308 -0.06799299
0.07182398 0.03840268 -0.0408882 -0.06057945 0.0012551326 0.028643124 -0.0013163182 -0.03625126
0.00898466 0.090483755 0.0041030617 -0.005447878 0.0067662667 -0.013089148 0.0007993845 -0.035844136
00000000: 36bf cc3e 4b77 3b3e 742b 08bd 13cf 96be
00000010: bd8e 9dbd e3bc 7e3d b268 90bd b45c dfbe
00000020: ee5d 483e d435 1a3f ee65 7f3e 7185 0c3d
00000030: 04b0 893e b975 36be 2b9e a4bd 3f90 80be
00000040: 7f4a fabc f954 423d e20e cdbc ac9b 00be
00000050: 87c5 c53d 956e 4fbe d3bd 14be 4415 803e
00000060: bff3 eebd 1e6e c03e d32e d13e c665 873e
00000070: b28e ab3e f2a5 ec3d 15a7 5f3e 5bcd b83d
00000080: 3c28 073e 94fd 853e ef31 ee3d 09de e6bd
00000090: de5f 42be 00a0 adbe 0bd6 aa3a 5383 f5be
000000a0: 7870 7dba 04fb e439 e5dd ad3a 25cd a338
000000b0: 2948 fc3a 784d 97b9 361a a7b9 4a4a bd3a
000000c0: fe0e 07b9 9e18 1a39 4f3f 4c3a f093 21ba
000000d0: 17e1 e73a 84fd 023b d16c a2ba 2820 d73a
000000e0: 18fb 65ba 4f97 98ba 005b 94ba a61a a7b9
000000f0: d059 4fba c3d6 bdba c533 9eba 45a0 83ba
00000100: 600e 95ba 98ba 3f39 6bfb 3f3a a5ce 8eba
00000110: f33d d437 d750 ed37 1841 ef37 b71e a6b7
00000120: 9224 c2ba 0d09 e439 6ed8 b7b9 f19a 1eb9
00000130: 78dd 0dba f5dd 0b3b 26d2 a6ba b4f7 0838
00000140: b58c e2bc bed4 27be 8ca7 183e 1e3d bd3e
00000150: d801 473e 27bf 31be c1b8 fb3d 63b1 d3ba
00000160: 4f09 893d 8a53 0d3e 4492 5e3e 81c5 8dbd
00000170: e4ec 083f dbc7 833e a3f2 9f3c 27b1 a13e
00000180: c6e6 263e cac5 cfbd 0cfb 2b3e 3415 35be
00000190: 59f5 9c3d 810c a43d 87f1 403e 5922 7a3e
000001a0: 36c7 c9bd 7b9a 47be 3669 c63e 7509 30be
000001b0: 7b20 a2be 8dfc a53e 6351 093e bc4b a6bd
000001c0: 01da 7ebd 2318 363e 0a53 b2be bff2 00be
000001d0: b93c 263d 483f c13e 5a6c a13b feb6 ee3e
000001e0: 6d68 4cbb d9aa 393c 200a 293d 3c9f d13d
000001f0: 79ea 2d3d fd6c 293d df85 263d 2778 db3d
00000200: d314 62bd b326 96bc cf43 5dbd fd51 0f3d
00000210: 1b71 6f3d dd28 863d b77f 033d c6f8 663d
00000220: c833 39bb 2cec 253d ffc1 143d 4f0b a83c
00000230: f94c 79bc 43d5 063d c47e 323d eee0 5cbd
00000240: 455b b23d a901 213c c9ee b4bd 8097 46bc
00000250: e8be 2439 2e6f 6d3d 1091 47bd 7ee8 9e3c
00000260: 0fc1 a4bc eb33 30bd 5805 e23d b10c 983d
00000270: 702b 353d 7f02 2f3e 80a7 303d 4dd8 fb3d
00000280: be7f 493d e038 8b3c d1fe 173c c73f c03d
00000290: bfab 06bd c62c f6bc 0c30 90bc 5fb5 06be
000002a0: 82a3 0a3e 9f1c 063d 07be 1e3e 028b 50ba
000002b0: 1882 26bd d36f 19bd 4bbb c6bc e867 2abb
000002c0: ab90 263c 212f 6dbd 74e5 57bc 3cac a63d
000002d0: e360 493d 40c3 af3c 0e9d ee3c 4aca 0f3e
000002e0: 796a 46bd 2f10 033d 59c3 643e 89b2 b13d
000002f0: afe0 d23c ed29 6bbd 66db 083e 4677 2e3b
00000300: c669 4dbd 0dc1 0c3e b4fa cfbd 4c4c 8ebd
00000310: 69dc b8bd 55a6 1f3d 86ed 30bd f632 a33a
00000320: ccab 713c 3115 383b 1a93 10bd 64bc f1bc
00000330: ce4f 0bbd 4cde 553b 2088 07bd 4f9a 3ebd
00000340: 629f cd3c 118b e63c e662 053d 2ca3 0b3d
00000350: dcc7 d7bc 5ec6 29bd 11d6 ebbc 3501 9fbc
00000360: 0e7d 043d 0040 45bd 58dd d6bc bd96 1b3d
00000370: aacd 27bb aa0f 933c 82fe d0bc defc 3f3d
00000380: 3590 2b3d dadd 8e3c b32b 823d f366 0e3d
00000390: b27a c5bb 0032 58bd d62a 413d eab7 053d
000003a0: 6c11 e0bc fb0b 2f3b 1a2a 57bd 557e 41bc
000003b0: bd33 c0bc e7a7 2fbd 85d5 35bd e93f 8bbd
000003c0: 7318 933d 214c 1d3d 637a 27bd 2822 78bd
000003d0: 4383 a43a fca4 ea3c 4f88 acba 347c 14bd
000003e0: 6534 133c 8c4f b93d fa72 863b 1d84 b2bb
000003f0: 8fb7 dd3b de73 56bc c98d 513a 4dd1 12bd

Operation_2_B f4 [40]
0.4397478 -0.002387577 0.25330982 -0.14508149 0.39198586 0.015533908 0.10045624 0.34953338
0.3374572 0.035266347 0.18920866 0.40098026 -0.065094925 -0.011269673 0.06962481 -0.0774873
-0.041534837 -0.053245913 0.0004510703 0.0066411574 -0.022464817 0.06735057 0.05711603 0.2343865
0.16350335 0.18743978 0.34686425 0.1987781 -0.0023847017 -0.0011863296 -0.0032524625 -0.072307
-0.0005921641 0.0532625 0.25797433 -0.011219585 0.104388416 0.006520042 -0.03519658 -0.07984685
00000000: a026 e13e e578 1cbb d3b1 813e 3e90 14be
00000010: 5fb2 c83e ef81 7e3c 00bc cd3d 0af6 b23e
00000020: 31c7 ac3e 7273 103d eabf 413e 494d cd3e
00000030: 7d50 85bd 6fa4 38bc 7497 8e3d a9b1 9ebd
00000040: 6f20 2abd 6318 5abd a17d ec39 119e d93b
00000050: 2308 b8bc 18ef 893d 80f2 693d 0403 703e
00000060: 6c6d 273e 37f0 3f3e 3198 b13e 7c8c 4b3e
00000070: a848 1cbb 9e7e 9bba 4427 55bb b115 94bd
00000080: 763b 1bba c729 5a3d 3615 843e 5ad2 37bc
00000090: 98c9 d53d 14a6 d53b 4a2a 10bd bf86 a3bd

linear_3_W f4 [2, 40]
-0.8306331 -0.0020252273 0.7194957 -0.06869159 0.22359504 0.029596085 -0.1712037 0.58611774
0.29938516 0.14658275 -0.5020248 -0.39635062 0.018726537 -0.059195045 -0.90534526 -0.5546084
-0.08584365 -0.32147905 0.0022998822 0.00675071 -0.058873594 0.46295246 -0.29096726 0.66462
-0.3917075 0.42753705 -0.99930817 0.007850761 -0.00060489436 0.00077637343 0.059252728 -0.053335365
0.0196389 0.1742151 0.55202645 -0.097026445 -0.52341646 0.005711623 -0.014990264 0.031007893
-1.2204106 0.002790228 1.196014 0.3563491 -0.54350215 -0.14602035 -0.1578425 -0.19309637
-0.4814807 0.14815825 -0.476786 -0.9475579 -0.13613679 0.107380204 0.30006096 0.40924394
0.21061069 0.4946727 0.0075500105 -0.009122006 0.13533439 0.5886848 0.050848145 0.14351915
-0.10306911 0.48138 -0.5584341 -0.3948116 -0.005235143 -0.00074645097 0.037523255 -0.055348966
0.025724886 0.09119137 0.5908694 -0.11910516 0.07954791 -0.0071254624 0.11856783 0.4416361
00000000: 5fa4 54bf adb9 04bb df30 383f 2dae 8cbd
00000010: 19f6 643e 7d73 f23c 0650 2fbe d00b 163f
00000020: 0349 993e ca19 163e b384 00bf 78ee cabe
00000030: 6568 993c 8176 72bd b5c4 67bf d1fa 0dbf
00000040: ccce afbd e798 a4be 9fb9 163b 0f35 dd3b
00000050: 7025 71bd 1b08 ed3e a9f9 94be 8924 2a3f
00000060: e38d c8be 23e6 da3e a9d2 7fbf 7aa0 003c
00000070: c691 1eba 8a85 4b3a fdb2 723d 2f76 5abd
00000080: c2e1 a03c 7165 323e 9b51 0d3f cdb5 c6bd
00000090: 9ffe 05bf 9128 bb3b b999 75bc 4404 fe3c
000000a0: 6a36 9cbf 42dc 363b fd16 993f 6473 b63e
000000b0: f522 0bbf 5c86 15be 77a1 21be 0ebb 45be
000000c0: a384 f6be ccb6 173e 4b1d f4be 2893 72bf
000000d0: 7167 0bbe 27ea db3d 97a1 993e 6c88 d13e
000000e0: 54aa 573e bd45 fd3e 1466 f73b 7774 15bc
000000f0: 1995 0a3e 0cb4 163f 2546 503d aff6 123e
00000100: e615 d3bd 7077 f63e 8af5 0ebf bf24 cabe
00000110: 908b abbb 7aad 43ba fcb1 193d 99b5 62bd
00000120: ffbc d23c 8ac2 ba3d 3843 173f 68ed f3bd
00000130: 04ea a23d b67c e9bb b1d3 f23d 201e e23e

linear_3_B f4 [2]
0.5725215 -0.48511535
00000000: c590 123f 0a61 f8be
