engine/nnmt/ONNX/2L_heat_nets.onnx (onnx, 1270 bytes, 6 tensors)

input_AvgImg f4 [1, 1, 1, 3]
00000000: 0000 803f 0000 803f 0000 803f
1.0 1.0 1.0

Operation_1_W f4 [4, 3]
00000000: 0000 0080 0000 0000 0000 0080 a5c4 9abd
00000010: 58bf a3bd f161 a5bd 0000 0080 0000 0000
00000020: 0000 0000 34c7 2fbe f4f9 39be 61d5 3bbe
-0.0 0.0 -0.0 -0.07557038 -0.0799548 -0.080753215 -0.0 0.0
0.0 -0.17165834 -0.18161756 -0.18343116

Operation_1_B f4 [4]
00000000: 0000 0080 f6e2 ea3f 0000 0080 ea62 8540
-0.0 1.8350513 -0.0 4.1683245

Operation_2_W f4 [2, 4]
00000000: 0000 0000 00c1 e53f 0000 0000 9bd0 8540
00000010: 0000 0080 0000 0080 0000 0000 0000 0080
0.0 1.7949524 0.0 4.1817145 -0.0 -0.0 0.0 -0.0

Operation_2_B f4 [2]
00000000: aa66 7f3f 0000 0080
0.9976603 -0.0

linear_3_W f4 [1, 2]
00000000: 983c 9540 0000 0000
4.6636467 0.0
