engine/nnmt/ONNX/2L_housing_nets.onnx (onnx, 3118 bytes, 6 tensors)

input_AvgImg f4 [1, 1, 1, 12]
00000000: 0000 803f 0000 803f 0000 803f 0000 803f
00000010: 0000 803f 0000 803f 0000 803f 0000 803f
00000020: 0000 803f 0000 803f 0000 803f 0000 803f
1.0 1.0 1.0 1.0 1.0 1.0 1.0 1.0
1.0 1.0 1.0 1.0

Operation_1_W f4 [20, 12]
00000000: c5a1 90bb 34fc 8f3b f0ff 95bb 76bb cc38
00000010: c8b4 d23b 3432 56bc c01d 7dbb f52d 053b
00000020: 3984 65bd 7884 e5bb 7fa4 b43c 650f b4bc
00000030: 8882 29be b463 4eb7 cd0d 583c 7d04 fa39
00000040: 65e5 743c 4e8b 8d3d ce56 ce3b 821a 95bc
00000050: 0767 01be 98ce 953c 8ba4 2dbe 8ce2 3cbe
00000060: 021f 0a3e 025e 9dbd e622 babd 5d0a afbc
00000070: 27a8 08be e4b6 a93c 9d18 293e 780a dcbe
00000080: a261 b3bb 0630 0c3e 8f52 abbc 757a 8c3f
00000090: a86b eeb5 4e20 28b6 5684 c8b3 326b 3a36
000000a0: 2e85 2135 e2f1 eab7 9bbe c7b5 270c 83b6
000000b0: cb4d 32b8 dd78 2ab7 8ec7 0fb9 f3b9 47b3
000000c0: 5d68 6236 ca4f f0b5 9c6e 0bb6 bd62 deb3
000000d0: 8baf 89b6 001c 3eb6 50bd 6235 ad6b a0b4
000000e0: 18ae 5db6 b1f6 1536 fcb6 df35 fe34 54b6
000000f0: a62c 2d36 1ad5 88b6 7389 1b35 d27c 05b6
00000100: 0fc0 90b6 b057 13b7 39c9 d435 64e1 29b6
00000110: 816f 1eb8 225b 7535 20d8 2cb6 472b 59b6
00000120: 9cf8 f23d a193 adbd 4264 3f3d c780 88ba
00000130: cd1b 85bd 446e 31bd 8017 ca3c 8ab3 bbbc
00000140: c1d6 66bd 3655 583d 36c2 79bc e4ee b13e
00000150: b8e2 2736 0d81 3635 1a15 94b6 8e5c 9235
00000160: 8fbd 9835 0c0b 89b5 25a9 7e36 56eb 55b6
00000170: d7fa b8b6 8f97 0436 8a43 59b5 2e39 2db6
00000180: 3989 90bb da54 37bd 45d7 343e 849b b1ba
00000190: f946 0dbe 5e95 3c3c a06f db3d 60fb c9bd
000001a0: c7ed 69bd 6843 3f3e d2fd 66bd 44d7 033f
000001b0: fc88 8eb6 1966 42b6 f6f4 8d36 816c bb34
000001c0: 9e4a 0336 ebda 5736 3aca 5fb6 1224 9c35
000001d0: d9bd 18b6 1137 1eb4 f084 eab5 6ae4 50b6
000001e0: eefd 62b4 8766 28b6 3858 6cb6 d640 2bb6
000001f0: 71de 58b6 e425 0336 7023 07b6 5d3a 94b5
00000200: 0dc5 98b6 e01b 9636 7cbe dfb5 79c6 40b6
00000210: 98d0 cb34 a4c7 37b5 18ca 4d36 f008 8335
00000220: f0d0 e835 16b3 90b6 6f2f 6836 bc87 93b6
00000230: 11d8 1b35 f777 90b6 832a 91b6 f1e3 1835
00000240: 7857 ffbd c8b7 f73d 9495 383c edc3 673a
00000250: b9c3 cd3d bf0b e5be 9255 223d 1231 57bd
00000260: c978 cabe f667 283d 0baf 463f c0e6 1a3c
00000270: 45fe 1a3d 3c69 0b3e f6a9 c6bc b918 5bba
00000280: 9b82 69bc 5d14 12be 266d 2a3c ad65 8cbc
00000290: decf 8ebe ef7f 4eba 3513 583d 185e 983d
000002a0: fb60 86b6 f70f 00b6 f5c4 cfb6 9881 cab4
000002b0: 28c1 92b5 7753 e936 e9b3 9e36 350c e7b5
000002c0: 4eda 04b9 4e46 9634 df54 16b7 41a2 c2b6
000002d0: 1d2d 2bb6 8367 0536 ea05 ed35 87f5 87b6
000002e0: 4614 f2b3 51fc f9b6 8a56 3bb6 0d1b 93b5
000002f0: 3edc 19b7 527b 3fb6 0040 9236 3bef 21b5
00000300: 9bde 11be a3ff a5bd a4d3 333d b584 15bd
00000310: 9bce bc3f 0441 acbd 449b b3be fa47 1d3e
00000320: 8da9 cd3d dd43 43be cb85 9dbb 097f a0be
00000330: f37f 87b6 fe31 49b6 5401 4735 5faf 20b6
00000340: 36e6 4334 e8cf e5b7 cc42 7bb6 ec11 fc34
00000350: 8867 07b8 dc04 96b4 506e d0b8 9847 f4b6
00000360: d005 c6bd 85d7 58be 82d9 c53d db86 563c
00000370: 541b 59bf 7498 5abe de26 7d3e 62e4 1fbe
00000380: 26e1 593e 599e 813e 2b87 08bd d2ed 4e3f
00000390: c919 a335 c23d d534 869b bdb5 d74d 89b6
000003a0: 5505 b635 a333 1fb6 1f47 8836 172a dab5
000003b0: 8afc b0b7 ff19 5336 d3df 6cb6 dc47 f6b5
-0.0044138157 0.0043940786 -0.0045776293 9.762395e-05 0.006430242 -0.013073493 -0.0038622469 0.0020321582
-0.0560343 -0.007004317 0.022051094 -0.021979997 -0.165537 -1.2301771e-05 0.013186884 0.0004768706
0.01494727 0.06911336 0.006296969 -0.018201116 -0.12636958 0.018286988 -0.169573 -0.18445796
0.13488391 -0.07683946 -0.090886876 -0.021367246 -0.13345395 0.020717092 0.16513295 -0.42976737
-0.005474285 0.13690194 -0.02091339 1.0974871 -1.7763714e-06 -2.5052755e-06 -9.3372975e-08 2.7778556e-06
6.0170976e-07 -2.800761e-05 -1.4882129e-06 -3.905519e-06 -4.2510957e-05 -1.016093e-05 -0.00013711883 -4.6502418e-08
3.3737372e-06 -1.7904615e-06 -2.0776997e-06 -1.0355641e-07 -4.103354e-06 -2.8328504e-06 8.4467047e-07 -2.9880667e-07
-3.3032902e-06 2.2346323e-06 1.666805e-06 -3.1621307e-06 2.5804998e-06 -4.077924e-06 5.7942015e-07 -1.98912e-06
-4.313893e-06 -8.782299e-06 1.5853794e-06 -2.5314157e-06 -3.777398e-05 9.140223e-07 -2.5755799e-06 -3.236071e-06
0.11863825 -0.084754236 0.046726473 -0.0010414355 -0.06499443 -0.043318048 0.024669409 -0.02291276
-0.05635715 0.05281564 -0.015244057 0.34752572 2.5016907e-06 6.7988077e-07 -4.4132003e-06 1.0904785e-06
1.1380051e-06 -1.021051e-06 3.7947405e-06 -3.1876457e-06 -5.512829e-06 1.9757751e-06 -8.093708e-07 -2.5812292e-06
-0.0044108895 -0.044758655 0.17660244 -0.0013550376 -0.13796605 0.011510221 0.1071465 -0.09862399
-0.057111528 0.18678057 -0.056394406 0.51500344 -4.247877e-06 -2.8967681e-06 4.2306447e-06 3.491041e-07
1.9563954e-06 3.2164924e-06 -3.33473e-06 1.1633404e-06 -2.276027e-06 -1.473493e-07 -1.7473049e-06 -3.112737e-06
-2.1140269e-07 -2.509363e-06 -3.521809e-06 -2.5518725e-06 -3.2315986e-06 1.9542576e-06 -2.0137195e-06 -1.1043845e-06
-4.5528927e-06 4.4735934e-06 -1.6670233e-06 -2.8725756e-06 3.7963468e-07 -6.846333e-07 3.0665014e-06 9.762862e-07
1.7346156e-06 -4.3123828e-06 3.4598304e-06 -4.396743e-06 5.805642e-07 -4.3055e-06 -4.3262858e-06 5.695611e-07
-0.12467855 0.120956 0.011266131 0.0008841146 0.10047097 -0.44735524 0.039632387 -0.05253703
-0.39545277 0.04111477 0.77610844 0.009454429 0.037840147 0.13614362 -0.024250966 -0.0008357871
-0.01425233 -0.1426558 0.010402 -0.017138327 -0.27892965 -0.000787734 0.052752692 0.07439822
-4.004801e-06 -1.908278e-06 -6.1920096e-06 -3.7719724e-07 -1.0934064e-06 6.9536577e-06 4.7297112e-06 -1.7214394e-06
-0.00012669826 2.799083e-07 -8.960457e-06 -5.8005394e-06 -2.5507245e-06 1.9878796e-06 1.7659597e-06 -4.0518967e-06
-1.1272691e-07 -7.4501518e-06 -2.7915544e-06 -1.0960226e-06 -9.17079e-06 -2.8533e-06 4.3585896e-06 -6.03253e-07
-0.14245073 -0.081053995 0.043903008 -0.036503512 1.4750551 -0.08410838 -0.35079396 0.15359488
0.10042105 -0.19068857 -0.004807209 -0.3134692 -4.0382088e-06 -2.9980433e-06 7.413521e-07 -2.3943937e-06
1.824454e-07 -2.7395741e-05 -3.7440795e-06 4.6951698e-07 -3.228293e-05 -2.7943213e-07 -9.93876e-05 -7.2801013e-06
-0.096690774 -0.21175964 0.09660627 0.0130936755 -0.84807324 -0.21347219 0.24721858 -0.15614465
0.21277294 0.25316122 -0.03333203 0.80831635 1.2151951e-06 3.9719276e-07 -1.4126861e-06 -4.09198e-06
1.3561609e-06 -2.3722903e-06 4.0613954e-06 -1.6254515e-06 -2.1098433e-05 3.1456582e-06 -3.5297023e-06 -1.8349342e-06

Operation_1_B f4 [20]
00000000: 498b 3339 06f4 f33a 9b31 0b3d 42f4 5436
00000010: 3156 4db6 b40a 41b6 8e00 1fbb f5d7 4136
00000020: c0df 38ba 8b29 00b6 9565 9436 8ad5 e2b5
00000030: be0e f13b c084 86ba f76c e635 5b03 92b5
00000040: 2654 363e 682c 8535 7760 b2bd 32f1 ec33
0.00017122658 0.0018612153 0.033982854 3.1732638e-06 -3.059755e-06 -2.8765471e-06 -0.0024261805 2.8884945e-06
-0.00070523843 -1.9097668e-06 4.4225694e-06 -1.690046e-06 0.0073564937 -0.0010262951 1.7168048e-06 -1.0878824e-06
0.17805538 9.922196e-07 -0.087098055 1.10334796e-07

Operation_2_W f4 [10, 20]
00000000: ebd1 c1bc 1e67 e8bd 8a96 24bd e77c 2638
00000010: 326e 8736 8a57 c634 31cb 89bd ed80 94b6
00000020: 0f19 5abb 6f4f ccb5 7f67 2736 92ea 64b6
00000030: 8feb f9bb 13ef 96bd 109a 9b36 2514 5eb7
00000040: beeb 21bd 4a2b 6d38 eb20 85bd 3903 e5b5
00000050: fc20 8c36 a58b 0737 3407 0bb7 0d82 a1b5
00000060: 795e 3bb6 5dc0 5d36 1e42 88b6 a5ec b1b5
00000070: bbee 21b7 f4f7 9836 b229 8836 a462 70b5
00000080: ee06 59b6 43d4 70b4 e5d7 2535 fefa c736
00000090: a656 97b4 6199 2db6 8e11 3fb7 d0d6 6d36
000000a0: 3f06 9d39 fe88 1bb6 0a03 04be 60db 70b6
000000b0: e68f d3b5 21e2 7bb6 0190 95b6 77e1 4eb6
000000c0: b77f a9b9 16c1 79b6 add1 58b6 6c93 3fb5
000000d0: e6c4 4a3e f749 113a 2afa 43b6 c34b 9336
000000e0: e85f e63e 5c6d 79b6 9d8f 86bc 9184 88b6
000000f0: bc04 a8b9 9625 c8ba 008c 0eba 9766 a335
00000100: 9569 9834 3315 2eb6 8959 6eba 35a9 b4b5
00000110: fc6f 46b8 791d 1ab6 20d5 3f36 4504 40b4
00000120: 1e1f d2b8 b14d 82ba 5b5d 7d36 adb0 1c35
00000130: 17a2 0aba 16ee 4fb5 49e8 65ba 9bf5 6936
00000140: 6946 d83a c947 5ebd 53ca 92be 3ceb d137
00000150: 71e6 b8b5 1ddd 8a35 5d2c 28bd b792 cdb3
00000160: db22 0bbc ca7b 77b6 ef6c 2835 0865 6336
00000170: 237f 7bbc b74b 92bc a4f0 14b8 67e3 b1b8
00000180: 238e b93e 3ab8 1238 af0e eebd 8451 b635
00000190: 267a 5f3d ea8f 323b 0db6 633f 0e63 e936
000001a0: 3329 3235 cea3 73b6 a9ee d33a 8beb 7035
000001b0: 4e5b cf3d 79ad 9036 7846 bd35 9522 1db5
000001c0: 686d f9bc 93c0 1a3e f44e 5c35 3672 c836
000001d0: a786 b33f db37 6637 b743 36bf 6920 cdb4
000001e0: 7e05 5eb6 4c37 4b37 5b0e dcb7 17e4 09b7
000001f0: ee21 6836 84ec ebb4 66a5 bfb6 191a b835
00000200: 5ef0 e2b7 a638 e0b4 8ef5 5ab6 b005 a5b4
00000210: 8a7e 7ab7 bca6 dfb5 ce69 9436 14d3 7837
00000220: aedb 1236 bb1c 12b7 3b95 dfb7 4e65 3a33
00000230: 887f 51bc 9737 7bbd 6874 b1bc c355 2d38
00000240: 48b8 de33 6336 11b6 d5c6 14bd 5c03 5836
00000250: fb41 e4ba f6ae 4d36 9320 5836 e7fe 0236
00000260: 939f 85bb cb07 23bd 92c2 8535 fcd0 84b7
00000270: 5604 afbc b1e5 8c38 68b8 0fbd 3a9c 0636
00000280: 057e feba 9124 1abc 2aa8 50bb 1eb5 ce37
00000290: 2642 4235 1d64 2837 0478 b4bb 2ab5 1936
000002a0: d190 1eb9 c52a 7436 005b 0636 79e0 6b36
000002b0: 1862 17ba 4879 c6bb fb2a 0fb7 0811 58b8
000002c0: 3ad1 56bb a884 2138 70d0 abbb d407 16b6
000002d0: 0e8a 32bb 9425 843c a36f 9fbc 7dd8 d0b5
000002e0: 9f46 27b5 0e98 2bb7 91a8 97bd 9a93 6bb6
000002f0: a3cc 9abc da24 2836 695c 5236 b647 66b6
00000300: 45fd 24bc 7526 2a3c e535 46b7 1617 2f38
00000310: 6fde 6fbc 80f0 1a38 3b8a 0abd a60e 7636
-0.023659667 -0.11347793 -0.040182628 3.969381e-05 4.036142e-06 3.6944067e-07 -0.06728209 -4.4257526e-06
-0.0033279096 -1.5222303e-06 2.4945182e-06 -3.4111185e-06 -0.0076269577 -0.073698185 4.637295e-06 -1.3236921e-05
-0.039531462 5.654552e-05 -0.06500419 -1.7062767e-06 4.176165e-06 8.079141e-06 -8.286723e-06 -1.2033285e-06
-2.7920162e-06 3.3043536e-06 -4.060813e-06 -1.32564e-06 -9.651932e-06 4.5588185e-06 4.05797e-06 -8.955051e-07
-3.2339553e-06 -2.2428962e-07 6.178146e-07 5.9598815e-06 -2.8188987e-07 -2.5868287e-06 -1.1388574e-05 3.544079e-06
0.00029950027 -2.317654e-06 -0.12891784 -3.589048e-06 -1.5762605e-06 -3.753354e-06 -4.4573103e-06 -3.082763e-06
-0.00032329347 -3.7216282e-06 -3.2308556e-06 -7.136757e-07 0.19801673 0.00055423327 -2.920288e-06 4.389761e-06
0.44995046 -3.7167547e-06 -0.016425902 -4.0685486e-06 -0.00032046984 -0.001526999 -0.0005437732 1.2174304e-06
2.8389027e-07 -2.594036e-06 -0.0009092321 -1.3460291e-06 -4.7311172e-05 -2.2964944e-06 2.8585273e-06 -1.7882947e-07
-0.00010019376 -0.0009941367 3.7754278e-06 5.8371626e-07 -0.00052884355 -7.745997e-07 -0.000877027 3.4862667e-06
0.0016500476 -0.05426768 -0.28669986 2.5024281e-05 -1.3776136e-06 1.0346154e-06 -0.041057933 -9.572744e-08
-0.008492197 -3.6877923e-06 6.2743396e-07 3.3884444e-06 -0.015350136 -0.01785837 -3.5510064e-05 -8.482375e-05
0.36241254 3.4980687e-05 -0.116238944 1.3583781e-06 0.05455985 0.0027246424 0.8894966 6.9554726e-06
6.637012e-07 -3.6305169e-06 0.0016169149 8.974973e-07 0.10124837 4.3117293e-06 1.4102106e-06 -5.853738e-07
-0.030447677 0.15112524 8.207128e-07 5.9737604e-06 1.4025468 1.3722073e-05 -0.71197075 -3.8207807e-07
-3.3083775e-06 1.2112618e-05 -2.6232728e-05 -8.218943e-06 3.4590444e-06 -4.394425e-07 -5.7114985e-06 1.3716664e-06
-2.705323e-05 -4.1764469e-07 -3.2627463e-06 -3.0737783e-07 -1.4930623e-05 -1.6663321e-06 4.423061e-06 1.4831097e-05
2.1883566e-06 -8.7089675e-06 -2.6653162e-05 4.3398636e-08 -0.0127867535 -0.06133231 -0.021661952 4.1326286e-05
1.0371201e-07 -2.163834e-06 -0.036322434 3.2188464e-06 -0.0017414683 3.064922e-06 3.220547e-06 1.9519882e-06
-0.0040778606 -0.039802354 9.9659e-07 -1.5832942e-05 -0.021364372 6.7185036e-05 -0.035087973 2.0058492e-06
-0.0019416219 -0.009408132 -0.0031838515 2.4641453e-05 7.236689e-07 1.003689e-05 -0.005507471 2.2904228e-06
-0.00015122003 3.6383728e-06 2.0020525e-06 3.514839e-06 -0.000577481 -0.0060569383 -8.533471e-06 -5.1514275e-05
-0.0032778517 3.8508937e-05 -0.0052433535 -2.2356298e-06 -0.0027242932 0.0161312 -0.019462412 -1.5560214e-06
-6.2315115e-07 -1.0227797e-05 -0.07405198 -3.5103644e-06 -0.018896407 2.5055401e-06 3.1346228e-06 -3.4314412e-06
-0.01007015 0.010385145 -1.1814268e-05 4.174475e-05 -0.014640435 3.6940444e-05 -0.033823233 3.6665383e-06

Operation_2_B f4 [10]
00000000: fee8 93bc 87e2 4836 a0d3 0d3d 8504 81b9
00000010: ad4f cabc a568 173e a0f4 7336 facf 1fbc
00000020: 6be9 c2ba 5336 b13a
-0.018055435 2.9934179e-06 0.03462565 -0.00024608165 -0.024696195 0.14786012 3.6352212e-06 -0.009754175
-0.0014870589 0.0013520218

linear_3_W f4 [1, 10]
00000000: c7e5 853d 46db 82b9 03d4 f43e 1ed6 743b
00000010: 4016 e83e a1a8 df3f 1205 94b9 9100 983d
00000020: 41ab 363d 5d15 f43c
0.06537967 -0.00024958904 0.47818002 0.003735907 0.45329475 1.7473336 -0.00028232537 0.07421983
0.044596914 0.029795343
