engine/nnmt/ONNX/2L_pollution_nets.onnx (onnx, 2294 bytes, 7 tensors)

input_AvgImg f4 [1, 1, 1, 24]
0	0x3f800000	1.0
1	0x3f800000	1.0
2	0x3f800000	1.0
3	0x3f800000	1.0
4	0x3f800000	1.0
5	0x3f800000	1.0
6	0x3f800000	1.0
7	0x3f800000	1.0
8	0x3f800000	1.0
9	0x3f800000	1.0
10	0x3f800000	1.0
11	0x3f800000	1.0
12	0x3f800000	1.0
13	0x3f800000	1.0
14	0x3f800000	1.0
15	0x3f800000	1.0
16	0x3f800000	1.0
17	0x3f800000	1.0
18	0x3f800000	1.0
19	0x3f800000	1.0
20	0x3f800000	1.0
21	0x3f800000	1.0
22	0x3f800000	1.0
23	0x3f800000	1.0

Operation_1_W f4 [8, 24]
0	0x3f490b6c	0.78533053
1	0xbf9bf796	-1.2184932
2	0xc07b1eb6	-3.9237494
3	0xbf117458	-0.5681815
4	0xbfcbc40e	-1.5919206
5	0x3f9e2596	1.235522
6	0xc02e3cfe	-2.7224727
7	0x3e862546	0.26200312
8	0xbfe86a35	-1.8157412
9	0xbe42f278	-0.19037807
10	0x40f13f0b	7.5389457
11	0x4045bb50	3.0895576
12	0x40618fd7	3.5244043
13	0xc02e63eb	-2.7248485
14	0xbee19dc2	-0.44065672
15	0xbf93728e	-1.1519334
16	0x3fa93df8	1.3222036
17	0xbc9faae7	-0.019490672
18	0xc03ff51c	-2.9993353
19	0xc093d3a4	-4.619585
20	0xbf3b2e90	-0.73117924
21	0x3da91db7	0.08257621
22	0x40b47284	5.638979
23	0x4003a27c	2.0567923
24	0xbe2cf1af	-0.1688907
25	0xbed4bc49	-0.415499
26	0x3e24810c	0.16064852
27	0xc1162fa1	-9.386628
28	0x40a5e265	5.183886
29	0xbf978c36	-1.1839664
30	0x40a9b202	5.3029795
31	0xbd8ad2de	-0.06778501
32	0xbe63b660	-0.2223754
33	0x3fb435a8	1.4078875
34	0x40a370ab	5.1075034
35	0x3f1f79a4	0.62294984
36	0x3e0f7aad	0.14011641
37	0x3fd32304	1.6495061
38	0x404ee8ee	3.232967
39	0xbff3092b	-1.8987173
40	0x3fce4080	1.6113434
41	0xbf474d6d	-0.7785252
42	0x40a67d4e	5.202796
43	0xc04ba38b	-3.1818569
44	0xbff06ce4	-1.8783231
45	0x401679ec	2.3511915
46	0xbf05aac8	-0.52213717
47	0xc05e329d	-3.4718392
48	0xbf4f31f1	-0.8093558
49	0x3ec304f5	0.3808972
50	0x3fb50ff1	1.414549
51	0x3f443ad8	0.7665229
52	0x3f88769a	1.0661194
53	0x3fb3ffe9	1.4062473
54	0xc098ad5b	-4.7711616
55	0x3f58cbbc	0.84685874
56	0xbdc09653	-0.09403672
57	0xbf542065	-0.8286193
58	0xc1038b3d	-8.221494
59	0xbf7f7cdf	-0.99799913
60	0x405250fe	3.2861934
61	0x3d88a18f	0.0667144
62	0xbf65538d	-0.89580613
63	0x3f028992	0.50991166
64	0x3eb57af4	0.35445368
65	0xbea3a0d3	-0.31958637
66	0xc123e230	-10.242722
67	0x401ab6a0	2.4173965
68	0x4052f5b6	3.296247
69	0xbf75fa02	-0.96084607
70	0x3fb83790	1.4391956
71	0x3ff9fa22	1.952946
72	0xbeca002f	-0.39453265
73	0x402c9dcd	2.6971314
74	0xc0798901	-3.898987
75	0x3ee24760	0.4419508
76	0xc083b2f2	-4.115594
77	0xbf309541	-0.68977743
78	0xc098eedd	-4.779158
79	0xc0363b04	-2.847352
80	0x400e3497	2.2219598
81	0xbfcecf6a	-1.6157048
82	0x408b4f16	4.353404
83	0xc0b49a67	-5.643848
84	0xbf99a257	-1.2002667
85	0xc0ac3ef1	-5.3826833
86	0xc00f1687	-2.23575
87	0xbf12e332	-0.5737792
88	0x3fff730e	1.9956987
89	0x40bf210d	5.9727845
90	0xbf89865c	-1.0744128
91	0x40b91990	5.7843704
92	0xc0463947	-3.097246
93	0xc02c86b2	-2.6957211
94	0xbfc1d9d2	-1.5144598
95	0x3f919c70	1.1375866
96	0x40ceb93d	6.460112
97	0x40b90546	5.7818937
98	0x41364e06	11.394049
99	0x4159c578	13.61071
100	0x3ec32dca	0.38120872
101	0x40a4f3f3	5.154779
102	0xc0eabd87	-7.3356357
103	0xc016fb0f	-2.3590734
104	0x3f136695	0.575784
105	0xc08c281e	-4.379897
106	0x40f45b00	7.6361084
107	0x40b8e212	5.7775965
108	0x408b5bcc	4.3549557
109	0xc00dc085	-2.2148755
110	0x3eec2c24	0.46127427
111	0xc0d6755a	-6.701825
112	0x3ee2c1f5	0.44288602
113	0xc096cd1d	-4.7125382
114	0xbf919fb3	-1.1376861
115	0x3f2a831a	0.66606295
116	0x3daf932b	0.08572992
117	0xc10eb3e1	-8.918916
118	0xc0761e25	-3.8455899
119	0x3f8923ef	1.0714091
120	0xbfdd6aa4	-1.7298169
121	0x3f8d9b5a	1.1063035
122	0xc0ad88e9	-5.4229627
123	0x402cdf13	2.7011154
124	0x405a1f3a	3.408156
125	0x4095fe05	4.6872582
126	0x3ef4aad0	0.4778657
127	0x4024a456	2.5725303
128	0xc1117ef8	-9.093498
129	0xbfc8688c	-1.5656905
130	0xc02c4b5e	-2.6921
131	0x40d7f2df	6.7483974
132	0x40a17f48	5.0467873
133	0x40910d53	4.5328765
134	0xc0227d34	-2.5388918
135	0xc08d0edb	-4.4080634
136	0x408d9ca8	4.425373
137	0x3f1e48bc	0.61829734
138	0x40df80f3	6.984491
139	0xbeaea1d1	-0.3410783
140	0xbf927a48	-1.1443567
141	0x3fa19180	1.2622528
142	0x3dfd7e33	0.12377586
143	0xbfd3e2c9	-1.6553584
144	0x407320cc	3.7988768
145	0x3f4c0981	0.79702
146	0x3f8ee8f1	1.1164838
147	0xc00266e7	-2.0375307
148	0x401c1bb0	2.43919
149	0xbdfa7fc9	-0.12231404
150	0xc0012e6e	-2.0184588
151	0x40178e38	2.3680553
152	0xc0070ec5	-2.1102765
153	0xbfb18641	-1.3869096
154	0x3e78bad7	0.24290024
155	0x3ed83fb1	0.42236093
156	0x405ca859	3.4477751
157	0xbf12cdd4	-0.5734532
158	0x4067feaf	3.6249197
159	0xbeb4be1c	-0.35301292
160	0xc021d997	-2.5289056
161	0xbfd305af	-1.648611
162	0x3fcd6f17	1.6049527
163	0x408b6e24	4.357195
164	0xc08bfd0c	-4.3746395
165	0x3e42d50a	0.1902658
166	0x40c1c307	6.055057
167	0xbfab2edc	-1.3373675
168	0xbf10e750	-0.56602955
169	0xbf266b5b	-0.6500756
170	0xc04e0eee	-3.2196612
171	0x3eef762e	0.4676985
172	0xbff8ed31	-1.9447385
173	0x3ea6fad6	0.32613248
174	0x4010f39e	2.2648692
175	0x3f00b74e	0.502797
176	0xbe456ad4	-0.19279033
177	0x3f6ecf9f	0.93285555
178	0xbfc45b0b	-1.5340284
179	0x4087761e	4.2331686
180	0xbeee133c	-0.4649905
181	0x3f99339b	1.1968874
182	0x406134f2	3.5188565
183	0xbf276f4b	-0.65404195
184	0xbf7976af	-0.9744672
185	0x3f669201	0.90066534
186	0x3f93704e	1.1518648
187	0xc13ffb76	-11.998892
188	0x410f1f4f	8.945144
189	0xc0bbc9a1	-5.868363
190	0x40741a35	3.8140996
191	0x3b896f0c	0.004194146

Operation_1_B f4 [8]
0	0xc1642c15	-14.260762
1	0xbf8790bc	-1.0591044
2	0xbf83d8f0	-1.0300579
3	0xbeea4aec	-0.45760286
4	0x3f84efd0	1.0385685
5	0xbd5df469	-0.054188166
6	0x41651097	14.31655
7	0x409c953f	4.8932185

Operation_2_W f4 [5, 8]
0	0xc042b210	-3.042118
1	0x3f82366d	1.017286
2	0x403371c3	2.8038185
3	0x3fd73468	1.6812868
4	0xc036126a	-2.844874
5	0xbf329d85	-0.69771606
6	0xc0087636	-2.132215
7	0x3f8545cf	1.0411929
8	0x3ff9e4bd	1.952293
9	0xbf55d5ea	-0.8352953
10	0xc01fe3f7	-2.4982889
11	0x409ccea7	4.900226
12	0xc0b774a6	-5.7329893
13	0x40114814	2.2700243
14	0xc0717647	-3.772844
15	0x3fb1f181	1.3901826
16	0xbf23ae92	-0.6393825
17	0xbd8c8874	-0.06861964
18	0xbf10a950	-0.5650835
19	0xbe40734d	-0.18793984
20	0xbecbdbd1	-0.39816144
21	0xbd8c0db8	-0.06838554
22	0xbf43248b	-0.76227635
23	0xbe9306c3	-0.28716096
24	0x400b08d6	2.1724143
25	0xbe8c79aa	-0.27436572
26	0xbf923dbb	-1.1425089
27	0x3b9b9443	0.004747899
28	0x400d0a87	2.2037675
29	0x3ea782d1	0.32716992
30	0xc0ad0dfc	-5.407957
31	0xbf3a41fe	-0.72756946
32	0x3f8c474a	1.0959256
33	0x408a6d9c	4.32588
34	0xbf6ddeea	-0.92918265
35	0xbf4ac246	-0.7920269
36	0x3fd62415	1.6729761
37	0x4009c584	2.1526804
38	0xbf08a1d7	-0.5337195
39	0x3f23f30b	0.6404273

Operation_2_B f4 [5]
0	0xc17fa0fa	-15.976801
1	0x40e11b4d	7.0345826
2	0xbee1db4a	-0.44112617
3	0xc0adbad0	-5.4290543
4	0xc09b546e	-4.8540564

linear_3_W f4 [3, 5]
0	0xbe0590f9	-0.13043584
1	0x3cf8735c	0.030328445
2	0xbf7a7225	-0.9783042
3	0xbe3e3cd5	-0.18577893
4	0xbc28bf91	-0.010299579
5	0xbc90d53b	-0.017679801
6	0x3b875033	0.0041294335
7	0xbe13195c	-0.14365143
8	0xbcc838fd	-0.024441237
9	0xbb10435a	-0.00220128
10	0xbdbf760c	-0.093486875
11	0x3cb67dd5	0.022276798
12	0xbf799484	-0.9749224
13	0xbde44f4b	-0.111479364
14	0xbc15ed71	-0.009150849

linear_3_B f4 [3]
0	0x4348cac0	200.79199
1	0x415313cc	13.192333
2	0x42e0ba7d	112.364235
