engine/nnmt/ONNX/2L_valve_nets.onnx (onnx, 1250 bytes, 6 tensors)

input_AvgImg f4 [1, 1, 1, 2]
000000 00 00 80 3f 00 00 80 3f
       1.0 1.0

Operation_1_W f4 [3, 2]
000000 ca 82 9d be ce c4 a0 be c7 89 4c ba 40 03 03 ba
       -0.30763847 -0.3140015 -0.0007802513 -0.00049977377
000010 35 87 8d 3c 6c b3 3f 3e
       0.017276386 0.18720788

Operation_1_B f4 [3]
000000 c5 08 e0 bb 75 27 93 b9 8b ee f8 40
       -0.006836983 -0.00028067423 7.779119

Operation_2_W f4 [3, 3]
000000 8f 72 04 3f c8 65 22 ba c8 4e ee 40 07 6c 16 bf
       0.517373 -0.0006194976 7.447117 -0.58758587
000010 dc f3 39 ba 20 9a b2 bf 68 cf a3 3a 1c 69 c9 b9
       -0.0007093528 -1.3953285 0.0012497725 -0.0003841602
000020 d9 b5 d6 3a
       0.0016381099

Operation_2_B f4 [3]
000000 6c 9a e8 3f 05 e6 01 bd b9 2d 77 39
       1.8172126 -0.031713504 0.00023572789

linear_3_W f4 [1, 3]
000000 d4 9b 01 41 20 a6 23 40 ba ab e6 3a
       8.100544 2.5570145 0.0017598786
