engine/nnmt/ONNX/3L_housing_nets.onnx (onnx, 3193 bytes, 8 tensors)

input_AvgImg f4 [1, 1, 1, 12]
0	0x3f800000	1.0
1	0x3f800000	1.0
2	0x3f800000	1.0
3	0x3f800000	1.0
4	0x3f800000	1.0
5	0x3f800000	1.0
6	0x3f800000	1.0
7	0x3f800000	1.0
8	0x3f800000	1.0
9	0x3f800000	1.0
10	0x3f800000	1.0
11	0x3f800000	1.0

Operation_1_W f4 [10, 12]
0	0xbdf8a4a2	-0.12140776
1	0x3e87bdbd	0.26511946
2	0x3e283127	0.16425
3	0xbf87a139	-1.0596076
4	0xbfde15cf	-1.7350405
5	0x3d6317bf	0.055442568
6	0xbf302a12	-0.68814194
7	0xbebe075b	-0.37114987
8	0xbcd93523	-0.026514595
9	0x3f98c5c6	1.1935356
10	0x3dcda36f	0.10040938
11	0xbf8fa769	-1.1222965
12	0xbf1c9f1d	-0.6118029
13	0xbec094b2	-0.37613446
14	0x3d6584b3	0.056034755
15	0xbf15dc72	-0.585395
16	0xbfbdab81	-1.4817964
17	0xbf048602	-0.5176698
18	0xbe832adf	-0.25618646
19	0xbf5eaa15	-0.86978275
20	0xbe0a3643	-0.13497262
21	0x3dab5c0f	0.08367168
22	0x3fb685b3	1.4259552
23	0x3ebe6c23	0.37191877
24	0x3f5b647b	0.85700196
25	0x3d5b3cad	0.05352466
26	0xbf80a2c6	-1.0049675
27	0x3ea93860	0.33050823
28	0x3be27444	0.0069108326
29	0xbdf22ef4	-0.11825362
30	0x3e59f286	0.21283922
31	0xbf062a40	-0.5240822
32	0xbe98fbca	-0.298796
33	0xbf790af4	-0.9728234
34	0x3e766cf1	0.24064995
35	0xbcba94ba	-0.022775996
36	0xbf7545a6	-0.958094
37	0x3ebe7f0b	0.372063
38	0x3f63ab29	0.88933045
39	0xbf1cc151	-0.6123248
40	0xbd8576ac	-0.065167755
41	0xbe9bc833	-0.30426177
42	0xbeaac5fc	-0.33354175
43	0xbf0bf143	-0.5466501
44	0xbf2f00db	-0.6836068
45	0x3f752729	0.9576288
46	0xbf2e14dd	-0.68000585
47	0xbf32a182	-0.6977769
48	0x3eaf83ff	0.34280393
49	0xbf3cc911	-0.73744303
50	0x3edfa62b	0.43681464
51	0xbd378b9d	-0.04481088
52	0xbe98d01d	-0.29846278
53	0x3dbb446d	0.091439106
54	0x3d9b10de	0.075715765
55	0x3f1bb247	0.60818905
56	0x3d151dc1	0.03640533
57	0xbe530614	-0.20607787
58	0xbf05de08	-0.5229192
59	0xbf3b6d79	-0.73213917
60	0xbea8bba4	-0.32955658
61	0xbe78978a	-0.24276558
62	0x3da1d501	0.079019554
63	0xbf057dea	-0.52145255
64	0xbf0889f4	-0.533355
65	0x3ea7ddd8	0.3278644
66	0x3f8d9346	1.1060569
67	0x3f36616f	0.7124242
68	0xbbdab3fa	-0.006674287
69	0xbf95c91c	-1.1701999
70	0x3ca18c7d	0.01972031
71	0xbeac9c3e	-0.33712953
72	0x3df09395	0.11746899
73	0x3dab5841	0.083664425
74	0xbe932353	-0.28737888
75	0x3f5ad1b1	0.85476214
76	0xbf03d14b	-0.5149123
77	0xbf42330b	-0.75859135
78	0xbf02071d	-0.50792104
79	0x3f167a73	0.5878059
80	0x3f8515cb	1.0397276
81	0xbf5fc996	-0.8741697
82	0xbdf4ee6e	-0.11959539
83	0x3e04f9e2	0.12985948
84	0x3f58ee80	0.8473892
85	0xbd79fd78	-0.061032742
86	0xbe487f45	-0.195798
87	0x3eef689e	0.46759504
88	0xbe4049c1	-0.18778135
89	0x3e8c66a1	0.2742205
90	0x3fbee494	1.4913507
91	0xbf0ae009	-0.542481
92	0x3f0e5a77	0.5560679
93	0xbf1785b9	-0.5918842
94	0xbd841ddb	-0.06451007
95	0xbf8e10cf	-1.109888
96	0x3bc0243c	0.0058636945
97	0xbef1e5c3	-0.47245607
98	0xbf1c3f77	-0.6103434
99	0xbe93c371	-0.28860047
100	0x3f18a4e6	0.59626615
101	0xbe0c0aec	-0.13676041
102	0xbf4264f7	-0.7593531
103	0xbd24d177	-0.040238824
104	0xbf4a1d53	-0.78950995
105	0x3f1c01d3	0.60940284
106	0xbf7ee73d	-0.9957159
107	0x3f3b81b8	0.7324481
108	0x3dc69185	0.096957244
109	0xbe18ac92	-0.1490958
110	0xbe06acef	-0.13151906
111	0xbfd54fbc	-1.6664958
112	0x3ffa46f4	1.9552903
113	0xbf0674f8	-0.5252223
114	0xbee5cf0c	-0.44884527
115	0xbe606ae0	-0.2191577
116	0x3eca78b1	0.39545205
117	0xbef83cdf	-0.4848394
118	0x3f224ba9	0.633967
119	0x3d5027ab	0.05081908

Operation_1_B f4 [10]
0	0x3f71ad3e	0.9440497
1	0xbe60f1cf	-0.21967243
2	0x3f768afb	0.9630582
3	0x3f086c73	0.5329048
4	0xbe15f1c4	-0.14643008
5	0xbeb6b409	-0.3568423
6	0x3f46a59e	0.7759646
7	0x3ee4c996	0.44685048
8	0x3f5ffbf3	0.8749382
9	0x3f2a6e2e	0.6657437

Operation_2_W f4 [13, 10]
0	0xbee96303	-0.45583352
1	0xbf206c63	-0.62665385
2	0xbf33c5ec	-0.7022388
3	0xbedf47f2	-0.43609577
4	0xbea3f8d9	-0.32025793
5	0x3e03a1e9	0.12854733
6	0x3f402e09	0.75070244
7	0x3e82b8e1	0.25531676
8	0xbe07a1f9	-0.13245381
9	0x3d37b073	0.04484601
10	0xbe0269df	-0.12735699
11	0x3e139d71	0.14415528
12	0xbe3aeadc	-0.18253654
13	0xbe8b8b09	-0.27254513
14	0x3f6f4c75	0.9347604
15	0xbf0cd54f	-0.55012983
16	0xbf3a7d8b	-0.72847813
17	0xbea542f5	-0.32277647
18	0xbf1f3855	-0.6219533
19	0x3f7fa74a	0.9986464
20	0x3f2bf85c	0.6717584
21	0x3f2ee129	0.6831232
22	0xbe707195	-0.23480828
23	0x3f332b55	0.69987994
24	0x3edfaae0	0.43685055
25	0xbed1117f	-0.4083366
26	0xbe67c24c	-0.22632712
27	0xbb8fba93	-0.004386255
28	0x3f655f09	0.8959814
29	0xbf2d8c37	-0.67792076
30	0xbedeef85	-0.43542114
31	0x3ec153da	0.37759286
32	0xbed68eb8	-0.4190576
33	0x3d2123b5	0.039340694
34	0xbf69672c	-0.9117305
35	0x3e99f393	0.30068645
36	0x3ea8f068	0.32995915
37	0x3f9b7599	1.2145263
38	0xbe73375a	-0.23751584
39	0xbefce018	-0.4938972
40	0xbe890711	-0.26763204
41	0xbf35cecf	-0.7101869
42	0xbf13f38e	-0.5779351
43	0xbf6d4857	-0.92688507
44	0xbd9d0509	-0.07666976
45	0x3ea0150f	0.31266066
46	0xbf3fb30e	-0.7488259
47	0xbca8c9e8	-0.020604089
48	0x3e7ae14c	0.24500006
49	0x3fb68f2b	1.4262441
50	0x3dff5ad9	0.124685
51	0x3f4fa6c5	0.81113845
52	0x3f74dc25	0.95648414
53	0xbf61d839	-0.88220555
54	0xbf6108ae	-0.8790387
55	0xbf1e4049	-0.6181684
56	0x3f575253	0.8410999
57	0xbf6971a7	-0.91189045
58	0x3ebe1487	0.37125036
59	0x3d8ddd10	0.0692693
60	0x3eb08f14	0.3448416
61	0x3ea4a028	0.3215344
62	0x3e0ed30b	0.13947694
63	0xbe2e23d1	-0.1700585
64	0x3f482daf	0.7819471
65	0x3f96987b	1.1765283
66	0x3eddcf24	0.43322098
67	0xbea6ee5b	-0.32603726
68	0x3e943601	0.28947452
69	0xbf2155d3	-0.6302158
70	0x3f47e576	0.78084505
71	0xbd5e5272	-0.054277845
72	0xbdbe6818	-0.09297198
73	0x3f5270f9	0.8220363
74	0xbf03c17b	-0.514671
75	0x3f0ae7a7	0.54259723
76	0xbf2a3679	-0.6648937
77	0x3fa76b01	1.307953
78	0xbf7e285e	-0.99280345
79	0xbe1ed5ba	-0.15511218
80	0x3e947ebd	0.29002944
81	0xbed7ca22	-0.42146403
82	0x3f450e8e	0.76975334
83	0x3f33e066	0.7026428
84	0x3f06051e	0.5235156
85	0x3f420630	0.7579069
86	0xbe1e26d1	-0.15444495
87	0x3eccc3bf	0.39993092
88	0xbf00fec1	-0.50388724
89	0x3f82f0fb	1.0229791
90	0x3f0fe692	0.562112
91	0xbf5abc8c	-0.8544395
92	0x3eb6439d	0.3559846
93	0xbedbd709	-0.42937496
94	0x3e98a746	0.2981512
95	0x3f6aa885	0.9166339
96	0xbf3f6431	-0.74762255
97	0xbe2fed6b	-0.17180412
98	0xbf76d343	-0.9641611
99	0x3e70e921	0.23526432
100	0xbf66d1e8	-0.9016404
101	0x3eb005a5	0.34379306
102	0xbec0b20f	-0.37635848
103	0x3f5b20ad	0.85596734
104	0x3e99e457	0.30057022
105	0xbf4dfc3a	-0.8046299
106	0x3e706061	0.23474266
107	0xbf17f41a	-0.59356844
108	0x3f24498a	0.6417471
109	0xbf51e3a8	-0.81988
110	0x3f2e8da4	0.68184876
111	0xbca5742f	-0.020197002
112	0xbf359220	-0.70926094
113	0x3ea40cb7	0.3204095
114	0x3f3ea435	0.7446931
115	0xbd7f47f1	-0.062324468
116	0x3f681263	0.90653056
117	0x3e71bb1e	0.23606536
118	0xbec956b7	-0.3932397
119	0xbf8357ff	-1.0261229
120	0xbf8c5849	-1.0964442
121	0x3cdc3b31	0.026883693
122	0xbe4918ad	-0.1963832
123	0x3f41f6a8	0.7576699
124	0x3ec8f935	0.3925263
125	0xbf4f9ad8	-0.8109565
126	0x3e66fd90	0.22557664
127	0x3ef36d1a	0.47544175
128	0x3e05a352	0.13050583
129	0xbdbc2499	-0.09186668

Operation_2_B f4 [13]
0	0xbf4354c1	-0.763012
1	0xbf43c9bb	-0.7647969
2	0xbf33a392	-0.70171463
3	0x3ecc3b7e	0.3988914
4	0x3e59c6b5	0.21267207
5	0xbe6abf1c	-0.22924465
6	0x3e866d67	0.26255342
7	0x3e36debd	0.17858405
8	0x3f3ec77b	0.74523133
9	0xbe5e9591	-0.21736743
10	0xbea2fa7d	-0.31831732
11	0x3f501184	0.81276727
12	0xbe2e99c6	-0.17050847

Operation_3_W f4 [10, 13]
0	0x3f5f31a2	0.8718511
1	0x3f275512	0.6536418
2	0x3e318625	0.17336328
3	0xbf0ec4f0	-0.5576925
4	0xbf22fe10	-0.6366892
5	0x3f3c6ed7	0.7360663
6	0x3ee5cbf9	0.4488218
7	0xbdaae4b4	-0.08344403
8	0xbe9e9211	-0.30970815
9	0x3f25a36d	0.6470249
10	0xbf075c60	-0.5287533
11	0xbeb7d841	-0.35907176
12	0xbf0896cc	-0.533551
13	0x3bbb1beb	0.005710115
14	0x3e9f0306	0.31056994
15	0xbeb3078f	-0.34966704
16	0xbe5b2602	-0.21401218
17	0xbf08a323	-0.53373927
18	0x3f365a3d	0.7123144
19	0x3e5eb10c	0.21747226
20	0x3f3a63e2	0.7280866
21	0x3e586695	0.21132882
22	0x3e524bd6	0.20536742
23	0x3f16cc7e	0.5890578
24	0x3ee97cf6	0.4560315
25	0x3e5b91d6	0.21442351
26	0x3f27fedf	0.6562328
27	0x3ebeca5e	0.3726377
28	0xbefa703f	-0.48913762
29	0x3f69291f	0.9107837
30	0x3f8262cf	1.0186404
31	0x3eaa83e0	0.33303738
32	0x3edbe165	0.429454
33	0xbf344fc1	-0.70434195
34	0x3ea0ed40	0.31431007
35	0x3f461c61	0.7738705
36	0x3e460bb7	0.19340406
37	0x3f1b9d9d	0.60787374
38	0x3f265ae4	0.6498244
39	0xbed9984d	-0.4249901
40	0xbee85fd2	-0.45385605
41	0x3f80a701	1.0050966
42	0x3e273622	0.16329244
43	0xbe9b67cc	-0.30352628
44	0x3ed08fa8	0.407346
45	0x3debde62	0.115170255
46	0x3f2771c8	0.6540799
47	0xbef0008a	-0.4687541
48	0x3d25817c	0.04040669
49	0xbd1da2c9	-0.038485322
50	0x3ec9810b	0.39356264
51	0xbe8f476e	-0.27984184
52	0x3f3b9a30	0.73282146
53	0xbf3ef7b5	-0.7459672
54	0x3e3a4e92	0.18194035
55	0x3eedc249	0.4643729
56	0xbe036665	-0.12832029
57	0xbf0f4b3a	-0.5597416
58	0x3f7247dc	0.946409
59	0xbeee039c	-0.4648713
60	0x3f43fc0b	0.7655646
61	0xbf19fbe7	-0.6015
62	0xbe4702cb	-0.19434659
63	0x3f6ffdfd	0.9374693
64	0x3e007bf5	0.12547286
65	0xbf320ce0	-0.69550896
66	0x3d080066	0.033203505
67	0xbf007ce3	-0.5019056
68	0x3f319568	0.693686
69	0x3f3fead1	0.74967676
70	0x3f09cf92	0.5383235
71	0xbeeb4795	-0.4595305
72	0xbc9d1208	-0.019173637
73	0xbe928500	-0.28617096
74	0x3f146f68	0.5798249
75	0xbdbc24aa	-0.091866806
76	0x3f211b54	0.62932324
77	0xbf2afcc0	-0.66791916
78	0xbef8c770	-0.4858966
79	0xbee44096	-0.44580525
80	0xbecbe4d0	-0.39823008
81	0xbe31ef8e	-0.17376539
82	0xbe3ce786	-0.18447694
83	0x3d77c518	0.060490698
84	0x3e754539	0.23952188
85	0x3f891828	1.0710497
86	0x3f00d7c6	0.50329244
87	0x3f7d9a7d	0.99063855
88	0x3edec421	0.4350901
89	0x3f853c13	1.0408958
90	0xbf07e96f	-0.53090566
91	0x3f36b50c	0.71370006
92	0x3f8bb47b	1.0914453
93	0xbccc1faf	-0.024917452
94	0xbe2c07d3	-0.1679986
95	0x3f374edf	0.7160472
96	0x3f2943da	0.6611916
97	0x3f12093b	0.57045335
98	0x3e63ebdd	0.22257943
99	0x3f3b379e	0.7313174
100	0x3ef1c619	0.4722145
101	0x3ec6d35f	0.38833138
102	0x3eb3ff82	0.35155874
103	0x3e1e3486	0.15449724
104	0xbea36ece	-0.31920475
105	0x3da5a720	0.08088517
106	0xbdc1ba39	-0.09459347
107	0x3f9421a0	1.1572762
108	0xbf02f371	-0.5115271
109	0xbe81eaee	-0.2537455
110	0x3f05fa88	0.52335405
111	0xbf0cfd04	-0.5507357
112	0xbf0fbb12	-0.5614482
113	0x3eb293aa	0.34878284
114	0x3f5fc87c	0.8741529
115	0xbdc1a884	-0.0945597
116	0xbf132ec3	-0.5749323
117	0xbf220993	-0.6329586
118	0x3e7b987e	0.2456989
119	0x3b60f75b	0.0034327123
120	0xbdc49724	-0.0959914
121	0x3f11d893	0.5697109
122	0xbec4d298	-0.3844192
123	0x3f7bfa99	0.98429257
124	0xbf25404f	-0.6455125
125	0x3f85900c	1.0434585
126	0xbd542bb8	-0.051799506
127	0x3ddafb6a	0.10692485
128	0xbf2a718c	-0.6657951
129	0xbf1bcd93	-0.60860556

Operation_3_B f4 [10]
0	0x3f0f1483	0.55890673
1	0x3ece4555	0.4028727
2	0xbee83ff1	-0.45361283
3	0x3eb85095	0.3599898
4	0x3cf2df36	0.02964745
5	0x3c54d6cc	0.012990665
6	0x3d344ece	0.044020467
7	0xbf18de5b	-0.5971429
8	0xbf39f93c	-0.72645926
9	0x3f49badd	0.78800756

linear_4_W f4 [1, 10]
0	0xbea86f41	-0.3289738
1	0xbeda2d68	-0.42612767
2	0xbed6c56d	-0.419475
3	0xbf43413d	-0.7627142
4	0x3d4945fa	0.049139
5	0x3eb54ba5	0.35409275
6	0x3ea42cbc	0.3206538
7	0x3f423b1c	0.75871444
8	0xbf1d5e40	-0.6147194
9	0x3e7ae84b	0.24502675
