engine/nnmt/ONNX/mnist_model_7Lw141.onnx (onnx, 82627 bytes, 12 tensors)

input_AvgImg f4 [1, 1, 1, 784]
00000000: 0000 803f 0000 803f 0000 803f 0000 803f
00000010: 0000 803f 0000 803f 0000 803f 0000 803f
00000020: 0000 803f 0000 803f 0000 803f 0000 803f
00000030: 0000 803f 0000 803f 0000 803f 0000 803f
00000040: 0000 803f 0000 803f 0000 803f 0000 803f
00000050: 0000 803f 0000 803f 0000 803f 0000 803f
00000060: 0000 803f 0000 803f 0000 803f 0000 803f
00000070: 0000 803f 0000 803f 0000 803f 0000 803f
00000080: 0000 803f 0000 803f 0000 803f 0000 803f
00000090: 0000 803f 0000 803f 0000 803f 0000 803f
000000a0: 0000 803f 0000 803f 0000 803f 0000 803f
000000b0: 0000 803f 0000 803f 0000 803f 0000 803f
000000c0: 0000 803f 0000 803f 0000 803f 0000 803f
000000d0: 0000 803f 0000 803f 0000 803f 0000 803f
000000e0: 0000 803f 0000 803f 0000 803f 0000 803f
000000f0: 0000 803f 0000 803f 0000 803f 0000 803f
00000100: 0000 803f 0000 803f 0000 803f 0000 803f
00000110: 0000 803f 0000 803f 0000 803f 0000 803f
00000120: 0000 803f 0000 803f 0000 803f 0000 803f
00000130: 0000 803f 0000 803f 0000 803f 0000 803f
00000140: 0000 803f 0000 803f 0000 803f 0000 803f
00000150: 0000 803f 0000 803f 0000 803f 0000 803f
00000160: 0000 803f 0000 803f 0000 803f 0000 803f
00000170: 0000 803f 0000 803f 0000 803f 0000 803f
00000180: 0000 803f 0000 803f 0000 803f 0000 803f
00000190: 0000 803f 0000 803f 0000 803f 0000 803f
000001a0: 0000 803f 0000 803f 0000 803f 0000 803f
000001b0: 0000 803f 0000 803f 0000 803f 0000 803f
000001c0: 0000 803f 0000 803f 0000 803f 0000 803f
000001d0: 0000 803f 0000 803f 0000 803f 0000 803f
000001e0: 0000 803f 0000 803f 0000 803f 0000 803f
000001f0: 0000 803f 0000 803f 0000 803f 0000 803f
00000200: 0000 803f 0000 803f 0000 803f 0000 803f
00000210: 0000 803f 0000 803f 0000 803f 0000 803f
00000220: 0000 803f 0000 803f 0000 803f 0000 803f
00000230: 0000 803f 0000 803f 0000 803f 0000 803f
00000240: 0000 803f 0000 803f 0000 803f 0000 803f
00000250: 0000 803f 0000 803f 0000 803f 0000 803f
00000260: 0000 803f 0000 803f 0000 803f 0000 803f
00000270: 0000 803f 0000 803f 0000 803f 0000 803f
00000280: 0000 803f 0000 803f 0000 803f 0000 803f
00000290: 0000 803f 0000 803f 0000 803f 0000 803f
000002a0: 0000 803f 0000 803f 0000 803f 0000 803f
000002b0: 0000 803f 0000 803f 0000 803f 0000 803f
000002c0: 0000 803f 0000 803f 0000 803f 0000 803f
000002d0: 0000 803f 0000 803f 0000 803f 0000 803f
000002e0: 0000 803f 0000 803f 0000 803f 0000 803f
000002f0: 0000 803f 0000 803f 0000 803f 0000 803f
00000300: 0000 803f 0000 803f 0000 803f 0000 803f
00000310: 0000 803f 0000 803f 0000 803f 0000 803f
00000320: 0000 803f 0000 803f 0000 803f 0000 803f
00000330: 0000 803f 0000 803f 0000 803f 0000 803f
00000340: 0000 803f 0000 803f 0000 803f 0000 803f
00000350: 0000 803f 0000 803f 0000 803f 0000 803f
00000360: 0000 803f 0000 803f 0000 803f 0000 803f
00000370: 0000 803f 0000 803f 0000 803f 0000 803f
00000380: 0000 803f 0000 803f 0000 803f 0000 803f
00000390: 0000 803f 0000 803f 0000 803f 0000 803f
000003a0: 0000 803f 0000 803f 0000 803f 0000 803f
000003b0: 0000 803f 0000 803f 0000 803f 0000 803f
000003c0: 0000 803f 0000 803f 0000 803f 0000 803f
000003d0: 0000 803f 0000 803f 0000 803f 0000 803f
000003e0: 0000 803f 0000 803f 0000 803f 0000 803f
000003f0: 0000 803f 0000 803f 0000 803f 0000 803f
1.0 1.0 1.0 1.0 1.0 1.0 1.0 1.0
1.0 1.0 1.0 1.0 1.0 1.0 1.0 1.0
1.0 1.0 1.0 1.0 1.0 1.0 1.0 1.0
1.0 1.0 1.0 1.0 1.0 1.0 1.0 1.0
1.0 1.0 1.0 1.0 1.0 1.0 1.0 1.0
1.0 1.0 1.0 1.0 1.0 1.0 1.0 1.0
1.0 1.0 1.0 1.0 1.0 1.0 1.0 1.0
1.0 1.0 1.0 1.0 1.0 1.0 1.0 1.0
1.0 1.0 1.0 1.0 1.0 1.0 1.0 1.0
1.0 1.0 1.0 1.0 1.0 1.0 1.0 1.0
1.0 1.0 1.0 1.0 1.0 1.0 1.0 1.0
1.0 1.0 1.0 1.0 1.0 1.0 1.0 1.0
1.0 1.0 1.0 1.0 1.0 1.0 1.0 1.0
1.0 1.0 1.0 1.0 1.0 1.0 1.0 1.0
1.0 1.0 1.0 1.0 1.0 1.0 1.0 1.0
1.0 1.0 1.0 1.0 1.0 1.0 1.0 1.0
1.0 1.0 1.0 1.0 1.0 1.0 1.0 1.0
1.0 1.0 1.0 1.0 1.0 1.0 1.0 1.0
1.0 1.0 1.0 1.0 1.0 1.0 1.0 1.0
1.0 1.0 1.0 1.0 1.0 1.0 1.0 1.0
1.0 1.0 1.0 1.0 1.0 1.0 1.0 1.0
1.0 1.0 1.0 1.0 1.0 1.0 1.0 1.0
1.0 1.0 1.0 1.0 1.0 1.0 1.0 1.0
1.0 1.0 1.0 1.0 1.0 1.0 1.0 1.0
1.0 1.0 1.0 1.0 1.0 1.0 1.0 1.0
1.0 1.0 1.0 1.0 1.0 1.0 1.0 1.0
1.0 1.0 1.0 1.0 1.0 1.0 1.0 1.0
1.0 1.0 1.0 1.0 1.0 1.0 1.0 1.0
1.0 1.0 1.0 1.0 1.0 1.0 1.0 1.0
1.0 1.0 1.0 1.0 1.0 1.0 1.0 1.0
1.0 1.0 1.0 1.0 1.0 1.0 1.0 1.0
1.0 1.0 1.0 1.0 1.0 1.0 1.0 1.0

Operation_1_W f4 [20, 784]
00000000: 80db 45ba c8d9 f43c 813f a3bd 3c6b 2abd
00000010: ace3 523d e85f 603c c0e8 dbbb fa92 973d
00000020: c00b dcba 27d1 b0bd 88ff 79bc 5ab8 9fbd
00000030: b2c9 ce3d b37f 0f3e 550d 513e 0b73 f33d
00000040: 2608 1ebd 0c14 933c acd4 793d 805b 7cba
00000050: 30f0 9f3d 92a3 69bd 8b77 47bd 986b 91bc
00000060: 2014 833d bcfc 2d3d e2ae 973d aeae 8f3d
00000070: 8048 67bc 7251 58bd 58d9 3a3c cc77 f13c
00000080: c722 4a3d b64d 0fbc a565 1b3c 676b f0bd
00000090: 5a55 4f3d 2ebc d3bc 8c9b 88bd dbf9 30be
000000a0: 9199 1d3d a072 573d a4be 453e 628d c73e
000000b0: 59a1 af3e 65a7 ac3e 1a3d c33d 3f60 2e3c
000000c0: 8ad1 c0bd 3998 1abe 0090 82be bf18 08be
000000d0: e019 54bb 18e1 403d 28e8 c5bc 9852 2d3d
000000e0: 6041 213d 5eb4 88bd 2fae 6bbe 6d1e 06bd
000000f0: 29c4 e23d 45c5 76be 1455 2bbe fa4f d3bd
00000100: 5bc6 b2bc 7cb6 4abe 69a1 51be 6531 a3be
00000110: 9931 08be b6a0 f0bd 202e 403d a710 733e
00000120: 24e9 833e bd55 f93e 7f85 c43e d986 123f
00000130: 76b7 d73e 67d7 ab3e 2a75 9d3d 6189 a4bd
00000140: bb17 81bc ba7f 00be b0ec 923b dfd8 17bd
00000150: 2457 97bd 9ca5 5f3d 7d68 babe b3cc 9ebe
00000160: 2da1 f9be d171 d4bd 5201 7bbd 812c 10bd
00000170: c5f2 3abe 3d27 c4be c02b 99be ba84 87be
00000180: 0214 efbe 521c f2be 37b4 adbe 3a15 6dbe
00000190: f2bd 393d efc3 733e a414 cf3b 8a8d 0ebd
000001a0: bbf5 323e 6234 b63e b818 523e 688d 5d3e
000001b0: 4118 493d 3507 313e d160 84be 30e9 9c3b
000001c0: 7e18 a33d cd01 a13d 6e1a a6be bfec 1cbf
000001d0: 4d71 023e 101e 5cbd 71e0 9cbe 04fd 90be
000001e0: 5f21 883e 7aee e13d 151b b7bd fd9c 4abe
000001f0: b00c 0b3e ccc4 33be 7ec4 9fbd 9a20 0d3e
00000200: 1d0a 733d 87ce 0e3e e6bb ce3d a810 72bd
00000210: 0ecd 2d3c a1dd 333e f988 123e 9051 afbc
00000220: 0d9c 3e3d d833 ce3e 1e28 bc3e 7752 20be
00000230: f8c1 783d 9514 96bd 949e adbd 1639 21bf
00000240: 60fc 4fbe f197 b3be 16eb 91be 2ea1 033e
00000250: 6609 b1bd 10c9 78bd 6e12 20be 2085 d43e
00000260: 538e 9b3e 1b16 903e d7cc 883e b597 b73e
00000270: f524 643e 7c0d 723e 37da 8abc 7a2f 583e
00000280: a812 743e 9187 983e f5d5 793e c980 80be
00000290: 8dae fe3b 39ae e23e 65f3 353e 4b39 b0bc
000002a0: 9842 e73c d699 143d 95a0 72bd 50b7 823e
000002b0: d79b cfbd 985f 00bf 2cea 4ebe 7a90 77be
000002c0: f906 dbbd 7d40 6c3b 3408 25be e327 663e
000002d0: cc66 1e3e c53e 8a3e 76cb 863e d053 653e
000002e0: e41b 683e 62a4 633e ef1f 423e a265 743e
000002f0: b9e0 353e e968 893e a540 353e f3ad b33d
00000300: 1c22 2a3e b3bb 0f3f d8eb 273e b39c 1ebe
00000310: 2808 7b3d a250 e83d dee3 d3bd 4946 f5bd
00000320: dca5 a6be c333 66bd 08d2 2fbe 02a9 f7bc
00000330: 5f17 f83d b4f9 863d 17db f2bb 0958 86bd
00000340: 9d87 563d 39c6 1c3e 8203 a5bd 5ad1 013e
00000350: af5c 6b3e 2fa0 483e b290 933e 2a76 0e3c
00000360: 2877 e53c 458e 273e a697 be3d 7694 963e
00000370: acee ff3d 4dcd 1c3e ab6d 00bd fc8e 503e
00000380: 39d5 cc3d 23ee e63b 78c2 c2be 0c58 3c3e
00000390: b081 19be 15d3 eb3c 98c4 8c3d 619c 09be
000003a0: 9cfb d93d a457 ecbc 68c9 293e 88ae 083e
000003b0: a782 ac3d b471 0c3e 203d 2ebc 0571 003d
000003c0: 8d03 493d a3f0 3c3e 3fcb 993e 4a6d b53e
000003d0: 0d4b f23d bad3 c73d bffc 173d a2d1 583e
000003e0: fbc1 7a3e 2d05 6abe bb7b 633d e44f f83e
000003f0: b630 113d f846 12be 2848 b6be 7ea7 aabd
-0.00075476617 0.029889002 -0.07971097 -0.041606173 0.051486656 0.013694741 -0.0067110956 0.074010804
-0.001678817 -0.08633643 -0.015258677 -0.07798834 0.10097064 0.14013557 0.20415242 0.11887177
-0.03858199 0.017953895 0.060993835 -0.00096266717 0.07809484 -0.05704076 -0.04869799 -0.0177515
0.06400323 0.042477354 0.07406403 0.070157394 -0.014116406 -0.052812047 0.011404358 0.029476069
0.049349573 -0.008746555 0.009484683 -0.11739235 0.050618507 -0.025846567 -0.06670293 -0.17282812
0.03847653 0.05259955 0.19311005 0.38975054 0.34302786 0.33721462 0.095331386 0.010643064
-0.094149664 -0.15097131 -0.25500488 -0.1329069 -0.0032364056 0.047089666 -0.024158552 0.042315096
0.039368987 -0.06675027 -0.23015665 -0.03274386 0.11072571 -0.2409869 -0.16731673 -0.10317989
-0.021823099 -0.19796175 -0.2047173 -0.31873623 -0.1330017 -0.11749403 0.04691899 0.23736821
0.2576381 0.48698226 0.383831 0.5723701 0.42132157 0.33562776 0.07688363 -0.080340154
-0.015758386 -0.12548724 0.0044837818 -0.03707206 -0.07389668 0.054601297 -0.36407843 -0.31015548
-0.4875578 -0.10373271 -0.061280556 -0.035198692 -0.18256672 -0.38311186 -0.2991619 -0.2646845
-0.46694952 -0.47287232 -0.33926556 -0.23152629 0.04534716 0.23805211 0.006319599 -0.03480295
0.17476551 0.3558684 0.20517242 0.21635973 0.049095396 0.17287906 -0.25855115 0.0047885403
0.07963656 0.078616716 -0.3244204 -0.61298746 0.12738533 -0.053739607 -0.30639985 -0.28318036
0.2658796 0.11031814 -0.08940712 -0.19786449 0.13579059 -0.17555541 -0.0780115 0.13781968
0.059335817 0.13945971 0.100944325 -0.059097916 0.010607971 0.17565013 0.14310063 -0.021401197
0.04653554 0.4027393 0.36749357 -0.15656458 0.060731858 -0.073281445 -0.08477512 -0.6297773
-0.20311117 -0.3507686 -0.2849967 0.12854454 -0.08644371 -0.060738623 -0.1563203 0.41507816
0.30382022 0.28141865 0.2671878 0.3585793 0.22279723 0.23637956 -0.016949756 0.21111861
0.23835242 0.2979093 0.24398024 -0.25098255 0.007772273 0.44273546 0.17768629 -0.021511694
0.028229997 0.036279522 -0.059235174 0.2553048 -0.10137146 -0.50145864 -0.20206517 -0.24176207
-0.10694689 0.003604918 -0.1611641 0.22476153 0.15468901 0.27001014 0.26327103 0.22395253
0.2266689 0.22230676 0.18957494 0.23866895 0.17761506 0.26837853 0.17700441 0.087734126
0.16614574 0.5614578 0.16398561 -0.15489464 0.061287075 0.113435045 -0.103461966 -0.119762965
-0.32548416 -0.056201708 -0.17169964 -0.030231956 0.12113833 0.06590596 -0.0074113715 -0.0655976
0.052375425 0.15309991 -0.0805731 0.12677518 0.22984575 0.19592355 0.2882133 0.008695165
0.02801092 0.16362865 0.093062684 0.29410142 0.12496695 0.15312691 -0.031354588 0.20367044
0.100016065 0.007047431 -0.38038993 0.18392962 -0.14990878 0.028787175 0.06873435 -0.1343856
0.10643694 -0.028850384 0.16580737 0.13347828 0.084233575 0.1371525 -0.0106346905 0.031357784
0.049075652 0.1845117 0.30037877 0.35434943 0.11830721 0.097571805 0.03710627 0.21173719
0.2448806 -0.22853537 0.05553792 0.48498452 0.035446845 -0.14284885 -0.35601926 -0.08332728

Operation_1_B f4 [20]
00000000: 35a9 80bd 1538 07bd 3066 9b3d 46dc b73d
00000010: 70d3 10be 736f ffbd bbd0 01bd 693e 8dbd
00000020: c64f 003e 31ec 343e 6c6d 5cbc f8d1 d33d
00000030: 29c5 b43c 0b95 303e 89b2 cf3e 42ee 1bbe
00000040: 3dd4 a73d 2bee 80be 27a8 cb3e 6e49 4abe
-0.06282274 -0.03301247 0.0758785 0.08977561 -0.14143157 -0.12472429 -0.0316932 -0.068966694
0.12530431 0.17668225 -0.013453823 0.10342783 0.02206667 0.17244355 0.405659 -0.15227607
0.08194778 -0.25181708 0.39776728 -0.19754574

Operation_2_W f4 [20, 20]
00000000: 6de1 363e ad1f a53e cb27 493e b087 bc3d
00000010: b292 8f3e 9b46 c8be 5c0d a1be f59c 893e
00000020: bc7d d2be 2afb a53e 70ea 98bd acda afbe
00000030: 9e86 ebbe 981e ae3e f324 a1be a34a babd
00000040: f013 423e e6c3 fd3e 54ad 8dbd 9d18 8b3e
00000050: 8784 c7be 1a08 a23d 0720 86bd 4eb9 8b3e
00000060: fd72 eabe 263d f2bc ee07 a53e 4d0b 863e
00000070: 7ec5 4ebe 6925 1b3f a632 72be 2e58 223e
00000080: f68e 28be 3189 903c 060c 00be b114 0fbe
00000090: ab27 9cbc f5c2 43be 8567 103e a1c1 0bbd
000000a0: da9e e83d cc5c 3d3e 28cc 843d 01ae c1be
000000b0: 3f1b 01be 5987 293e da52 9abd 5c5a a63e
000000c0: 76bb 68be a503 80be e360 b43d f6be cbbe
000000d0: f327 373f 77de 85be 8053 82bd c660 a7be
000000e0: cca7 193e 23ee 25be 38a8 0dbf cefb 7a3d
000000f0: 25e3 d8bd 9658 fb3d 892e 5d3c 4cd1 77be
00000100: 1fd4 16be 111f 403f a673 113f a08e 15bf
00000110: 37ce 1e3e b060 21bd 2c41 bc3e 7f92 adbe
00000120: 720c fabd 82ff 66be c6da 9c3e 9c66 633e
00000130: a524 b33e 64b7 4abf 1fea 6d3e b2a6 15be
00000140: 670f f63c 1855 9dbe e303 b03e a6fb 2e3d
00000150: 281c 8dbe 1192 78bd f623 af3d 10ac 88bd
00000160: e774 023f 0383 983e 3633 a5be 673a 513e
00000170: cce3 ad3e 645a aa3d 5920 853e 9b77 f7be
00000180: 23e7 913d c790 f5bd 53e2 b5be 8cbd 783e
00000190: cb9f 64bd f7f8 5fbe 7773 7ebe a7e1 52be
000001a0: 9968 a6be 62e4 a63e ff62 3dbe ef58 783b
000001b0: d737 ba3d 9046 5abc 1074 653e b395 08bf
000001c0: 67fc 873d ed55 b53e f021 53bf 65d3 39be
000001d0: 88c8 30be 57f6 233d f489 eb3e 35a6 913e
000001e0: 9a7b 1bbe c883 8a3d 3779 383c d16c fe3e
000001f0: 32f0 a0be 2187 bdbd 1962 1e3e 802a dbbe
00000200: 5ea7 b1bd d1e3 713e fc22 8fbe 5759 f6be
00000210: 47ac 1fbd 1b66 d4be a491 713c 15d7 bcbe
00000220: bbb9 6fbe a344 023e faee 38be b22d 4c3e
00000230: be9c 34be 2e43 933e 8f10 00bd add0 edbe
00000240: ea5f 9d3e f093 0a3e e679 c6be 3fde 943c
00000250: 4fb7 aa3e 2305 6b3c 18e8 71be 541e 16be
00000260: 1404 b03e c3d8 47be 2b6d cdbd 282a ba3e
00000270: 65d5 673e efd3 23be 54c4 67bd fdf7 873e
00000280: 3bef 073e d674 d23d 1dea 5f3e bd31 af3d
00000290: 9f62 29bc a248 28bd 623b a93e 5f36 02be
000002a0: b64d 47be dd75 afbd a42c 073e cedc 8f3e
000002b0: 36f7 debe 755d 4d3e 876b 013e f5d7 37bd
000002c0: dc07 20bd 587a 2f3e dfad bc3c 8585 00bf
000002d0: 80ca 633b ce39 b73e 7ca5 9a3d 0449 303e
000002e0: e77e 24be 4467 d83e d29b 1e3e e44c 03be
000002f0: a92c 0cba 6cb5 a53e d7e9 88bc 3448 a33e
00000300: dc18 56be c2e6 17be 6313 81be 270a 543d
00000310: 03e7 043e 2764 e73e cb56 353e 2f9e 95be
00000320: 1b4c 433e fd42 823d 734e 093e e8d1 94be
00000330: f791 673e be41 00be 2188 13be 0b98 c0be
00000340: 6797 e63e 35e9 073d 67f8 333e b629 debe
00000350: 02a3 ad3e da5d 3fbf e6a8 69be 6be8 5cbe
00000360: b823 7abd 7fc5 02bc d098 cebe fc67 ab3e
00000370: 607e c1be 407d 0b3e 689c 3a3e d223 2dbf
00000380: 6a07 a73d db30 2bbf b12b 49bd e1dd 84be
00000390: 9050 263d f337 013f b7c9 ba3e 6f37 9cbe
000003a0: fee0 543e 0e25 43bf 2ee4 fdbd 244a b3bd
000003b0: 7b93 9f3e f21f 17bf 30ac 3fbc 8ded 033e
000003c0: 704e 30bd 8897 23be d5e1 4cbd f1f6 ec3e
000003d0: bcd5 7f3e 8c25 09be 1743 c13d 856c fe3d
000003e0: 6543 6dbc 6d31 3cbd d74b 94be bcdd 063e
000003f0: 7a57 94be e322 263e 0757 033e da83 c2be
0.1785943 0.3225073 0.19644086 0.09205568 0.28041607 -0.39116368 -0.31455505 0.2687756
-0.41111553 0.32418185 -0.074665904 -0.3434652 -0.46001142 0.34007716 -0.31473503 -0.09096267
0.18952918 0.4956352 -0.06917825 0.27167216 -0.38968298 0.079117015 -0.065490775 0.27289814
-0.45790854 -0.029570173 0.32232612 0.26180497 -0.20192525 0.6060396 -0.23652133 0.1585395
-0.16460785 0.017643543 -0.12504587 -0.13972737 -0.019061884 -0.19117339 0.1410199 -0.034120206
0.113584235 0.1849243 0.06484252 -0.37828067 -0.1260805 0.16555537 -0.07535334 0.32490814
-0.2272776 -0.2500278 0.08807542 -0.3979413 0.7154533 -0.2614629 -0.063635826 -0.3269102
0.15005416 -0.16204123 -0.55334806 0.061275296 -0.105901994 0.12272756 0.013499864 -0.24200934
-0.14729355 0.75047404 0.5681709 -0.58420753 0.15508352 -0.03939885 0.36768472 -0.3390083
-0.12209405 -0.22558406 0.3063566 0.22207111 0.34988895 -0.7918608 0.23233841 -0.1461437
0.030036641 -0.30728984 0.34377965 0.04272046 -0.27560544 -0.060686175 0.08551781 -0.06673443
0.5095963 0.29787454 -0.32265633 0.20432435 0.33962858 0.08318022 0.26001242 -0.4833344
0.07124164 -0.11990505 -0.35524234 0.24291056 -0.055816453 -0.21872316 -0.24848734 -0.20593892
-0.32501677 0.32596117 -0.18494795 0.0037894805 0.09092682 -0.0133224875 0.22407556 -0.5335342
0.06639939 0.3541712 -0.8247366 -0.18147047 -0.17263997 0.04002985 0.46003687 0.28447118
-0.15183869 0.067634165 0.011259369 0.49692395 -0.31433254 -0.092542894 0.15467109 -0.42805862
-0.08674501 0.23622061 -0.27956378 -0.48115036 -0.038982656 -0.4148415 0.014744196 -0.36882845
-0.23410694 0.12721495 -0.18059912 0.19939306 -0.17637917 0.28762192 -0.03126579 -0.4644827
0.3073724 0.13532996 -0.38764876 0.018172381 0.33342978 0.014344486 -0.23623693 -0.14660007
0.3437811 -0.19516282 -0.10030588 0.36360288 0.22639997 -0.15998815 -0.056583717 0.26556388
0.13274853 0.10276191 0.21866651 0.08554409 -0.0103384545 -0.041084893 0.33053118 -0.12716053
-0.19463238 -0.085674025 0.13200623 0.28098148 -0.43547982 0.20055182 0.12638675 -0.044883687
-0.039069995 0.17136514 0.023032127 -0.50203735 0.003475815 0.3578629 0.07551095 0.17215353
-0.16064034 0.42266285 0.15489128 -0.128223 -0.0005347231 0.32364976 -0.016713066 0.31891024
-0.2090792 -0.14834121 -0.25210103 0.051767495 0.12978749 0.45193598 0.1770889 -0.29222247
0.19072 0.06360433 0.13408832 -0.29066396 0.22614275 -0.12525079 -0.14407398 -0.37616
0.45037386 0.033181388 0.17575227 -0.43391198 0.33913428 -0.7475258 -0.22818336 -0.21573035
-0.06106922 -0.007981657 -0.40350962 0.3347777 -0.3779173 0.13621998 0.18223727 -0.6763278
0.08155711 -0.6687142 -0.049113933 -0.2595053 0.040604174 0.50475997 0.3648202 -0.30511042
0.20788953 -0.76228416 -0.123970374 -0.087543756 0.31167206 -0.5903312 -0.011698768 0.12883587
-0.043043554 -0.15975773 -0.050020058 0.4628215 0.24983877 -0.13393229 0.094366245 0.12423042
-0.0144814 -0.045945574 -0.2896411 0.13170522 -0.2897299 0.16224246 0.12826167 -0.3799122

Operation_2_B f4 [20]
00000000: e37a 163d ef27 b03d 0af4 ea3c 6a4d 993e
00000010: e595 03bd e964 603e 96e7 023e 85ea e3bd
00000020: 4ff0 933a f65f 193d 28dc 26be 3427 343e
00000030: 2625 6fbe 5992 ab3d eb8d 6abd 0904 1e3e
00000040: 14b6 113e 484f 303e 07af 6d3d 732d 8cbd
0.036738288 0.08601367 0.02868082 0.29941875 -0.032125372 0.21913494 0.12783656 -0.111287154
0.0011286828 0.03744503 -0.1629492 0.1759308 -0.23354015 0.08377523 -0.05726425 0.15431227
0.14229614 0.17217743 0.058028247 -0.06844606

Operation_3_W f4 [50, 20]
00000000: 1722 09bf de8d ec3d 1109 113e 6c7c bcbe
00000010: 4be4 473c 527e 8e3d 1163 c4bd a29c c63e
00000020: 970b 28be 04a2 4a3e 048e ccbd 585d f1bd
00000030: f26e 7a3e f5bd 7a3d ba03 89bd 6f56 ffbe
00000040: 773f 193e 45f7 42bd 8365 f5bd 23a8 fdbe
00000050: 65ee 4dbd 44d9 5b3d 68d7 403e a1a3 e93d
00000060: 1d32 8bbc 2744 0d3e 5e61 35be 6727 73be
00000070: 8920 dabe add2 93be 5c38 96be 9acc bfbd
00000080: 4850 07be c6b8 cebc 9798 acbe 1eea 32be
00000090: c2b2 94be 4b0f c03d dbee 023e a1ee a6be
000000a0: 88f6 743c cbff b03c 438b b23e cc90 193e
000000b0: c418 ecbd 553a 17bf 413a 0fbd bd54 1dbe
000000c0: 162c 8fbc d703 7d3e 761e 1c3e fe81 afbe
000000d0: 9912 d9bd c631 3c3e 4cae febc b999 50bd
000000e0: ed7c 113e cfed 0d3e 6377 d4be 120c 2cbf
000000f0: cf4f b03e 65e2 78bd 2328 a4bd 3c2b b4be
00000100: c46c 9f3e 3d49 1d3e 74a1 8fbe e109 ac3d
00000110: 0d00 d8bd 4a46 84be 0fb9 46be 6b0c 90be
00000120: 1cad b2be 67ff c9bd afbf 66be 7041 0ebf
00000130: ff3d 9ebe 6e96 043d 06d2 76be de5b a73e
00000140: fec0 493d ab1b 033f 568a c53e 186a 98be
00000150: f783 17bc 853b 16bf b781 503e 8ac9 c4be
00000160: a1a0 233e d9c4 ffbd 244e 6abd 1fd8 4d3d
00000170: 8b93 c33e a655 0e3e db75 b5bd 287b 2e3e
00000180: 6907 803e 3358 39be 8f06 023e fca6 03be
00000190: 3efc 05be fc16 18be ebbc 2cbe ef62 a73e
000001a0: b4c8 683e 2a44 db3d cfd9 f53c 734a 153e
000001b0: 4474 85be 7e5b ed3c 9409 f7be d50a a6bc
000001c0: bc22 f03d 89dd 8e3d 1cc4 273e 6cfd cdbd
000001d0: f87f 80be 8b67 1ebe de03 c63d 8e54 203d
000001e0: 69fc ea3d 9572 973d e862 1bbf b1cf 2cbe
000001f0: fde9 a2be 1584 0dbf 0664 003e 2e06 063e
00000200: c35d c7bc 9fe7 8a3e 12f9 b83d 0a99 10bf
00000210: 442a 9ebe bb3c 62be c5fe bcbe 54bf a03e
00000220: 9283 a73e bf2a 16be c4a8 8ebe 6b8c 0f3d
00000230: 7eec 7f3e 0dae a33d 8b20 bcbd f893 5abe
00000240: 289f d3be da1b 48bf 4806 0c3e a5b0 10bd
00000250: b53a c43d e13a e6bd 33c2 b43d 0c18 3bbe
00000260: 269a 4cbe 1393 70bd 884b 5bbe 70be 6b3e
00000270: 07d8 3c3d f08d 213e 338f 89be 3f9c f33d
00000280: 343c 32be 1ace 483e 8d3c bf3e f836 283e
00000290: 97e8 b63c c019 9cbe 037f c9bd 7e5b b1bd
000002a0: df1f 9bbd 7d40 9abc 5b7a 473d b96a f93e
000002b0: f9c0 51be a543 cb3e 1892 9ebe 7d61 933d
000002c0: 0850 fc3d 8f8e 4abd e55a a0be 229b 76be
000002d0: 713a 07be 731c 5dbd a5ce c63e f691 8d3e
000002e0: b56f 9f3d 9043 d7be 8f2f 87bb bbb0 cb3d
000002f0: b049 153e 7e81 1a3e 53ec 90be 24a0 613e
00000300: 019c 1c3e 29b0 4fbd 2f85 a03d 18a7 19be
00000310: 4871 2f3e 4656 3c3e c03d c4bd af26 65be
00000320: b3b3 953d 8a8f bebd 4ab8 75be b304 17bf
00000330: 07b9 3b3e 0387 b6be 463e d9bd c6ce 94be
00000340: 9f03 6fbf 4218 aa3e 7916 103e c5c4 2c3c
00000350: 0322 b53d 3020 403e b6a5 64be 3337 98be
00000360: 1bb8 2dbe 373c 06bf f72d 2cbd 6e48 e93e
00000370: 1ae7 28bf 1f6d 0bbf 057b 613e 186b 583d
00000380: 2c50 82bc 8e0f 693e e967 223f 1621 b8be
00000390: ead8 dbbd 7786 e8be a5e6 b6bc 11b2 a5be
000003a0: f863 84bd 745b 00bf 51fe 793e 9920 4b3e
000003b0: cb4a ac3d 0b3a f3be 2f39 13bf 8c23 4fbe
000003c0: b8d2 683e a12f 5c3e d4e1 e3bd 71d8 ee3d
000003d0: 2858 db3c 98fd 7dbe 3440 29be 3823 84be
000003e0: b6af d7bd 4802 a13c 2c35 82be 5bd9 083e
000003f0: 0c82 21be 8a53 f83d e51f 88be 0c0b ee3d
-0.5356764 0.115504965 0.14163615 -0.36813676 0.012200425 0.069576874 -0.09589208 0.38791376
-0.16410671 0.19788367 -0.09988025 -0.11785382 0.24456385 0.061216313 -0.06690164 -0.4987063
0.14965616 -0.047599096 -0.119822524 -0.4954234 -0.05027618 0.053673998 0.18832171 0.11408163
-0.01699167 0.1379553 -0.17712924 -0.237455 -0.42602947 -0.2887167 -0.29339874 -0.093651965
-0.13214219 -0.025234591 -0.33710167 -0.17472121 -0.2904263 0.09377917 0.12786429 -0.32603934
0.014951356 0.021606347 0.34871873 0.14996642 -0.11528161 -0.5907338 -0.034967665 -0.15364356
-0.017477077 0.24708496 0.15245995 -0.34278864 -0.1059925 0.18378362 -0.03108897 -0.05092785
0.14207812 0.13860248 -0.41497335 -0.6720592 0.3443589 -0.06076278 -0.08015468 -0.35189235
0.3113767 0.1535997 -0.28052866 0.08400322 -0.10546885 -0.25834876 -0.19406532 -0.28134474
-0.34897697 -0.09863167 -0.22534059 -0.555686 -0.30906674 0.032370023 -0.24103555 0.32687277
0.049256317 0.5121409 0.38582104 -0.29768443 -0.009247771 -0.5868457 0.20361982 -0.38435012
0.15979244 -0.124887176 -0.057203427 0.050254937 0.38198504 0.1389986 -0.0886037 0.17039168
0.25005654 -0.18100052 0.12697814 -0.12856668 -0.13084504 -0.14852518 -0.16868941 0.32692668
0.22732812 0.10706361 0.030011086 0.14579181 -0.26065266 0.028974291 -0.48249495 -0.020268837
0.11725375 0.06975848 0.16383404 -0.10058102 -0.25097632 -0.15469186 0.09668706 0.039143138
0.11473925 0.07394902 -0.60697794 -0.16876103 -0.31819144 -0.55279666 0.12538156 0.13088295
-0.024336701 0.27129838 0.090318814 -0.5648352 -0.3089162 -0.2209348 -0.36913124 0.31395972
0.32717568 -0.14664744 -0.27863133 0.035046022 0.24992558 0.07992182 -0.091858946 -0.21345508
-0.41332364 -0.781675 0.13674271 -0.03532471 0.0958151 -0.11241699 0.08826103 -0.18270892
-0.19980678 -0.05873401 -0.21415532 0.23021865 0.046104457 0.15776801 -0.26867065 0.11895036
-0.17405778 0.19609872 0.37350884 0.16427219 0.022327704 -0.30488396 -0.09838679 -0.08660029
-0.07574438 -0.018829579 0.04870067 0.48714235 -0.2048377 0.39700046 -0.30970836 0.07196329
0.12319952 -0.04945236 -0.31319347 -0.24082616 -0.13205887 -0.05398221 0.38829532 0.27650422
0.07784978 -0.42043734 -0.0041255425 0.09945818 0.14578891 0.1508846 -0.283053 0.22033745
0.15293886 -0.05070511 0.07837903 -0.15005147 0.17133057 0.18392286 -0.095820904 -0.22378038
0.073096655 -0.09304722 -0.23996082 -0.58991545 0.18332301 -0.3564988 -0.10607581 -0.29064006
-0.933649 0.33221632 0.14071073 0.01054496 0.08844378 0.18762279 -0.22328839 -0.29729614
-0.16964762 -0.5243563 -0.042036023 0.45563072 -0.65977633 -0.5446338 0.22019584 0.052836508
-0.01590737 0.2275984 0.63439804 -0.35962743 -0.107347324 -0.4541509 -0.022326777 -0.32362416
-0.0646438 -0.50139546 0.2441342 0.19836654 0.08412703 -0.4750522 -0.5750913 -0.20228404
0.22736633 0.21502544 -0.11127058 0.11662377 0.026775435 -0.2480377 -0.16528398 -0.2580812
-0.10531561 0.019654408 -0.25431192 0.13364165 -0.15772265 0.12125309 -0.26586834 0.11623201

Operation_3_B f4 [50]
00000000: c746 943e 1860 00be e3e0 ee3d 6628 6ebb
00000010: 260c ae3d 8015 1d3e fb23 fabd 63c4 e43e
00000020: 0681 dd3e 069d f43e 9606 26bc 328c ca3e
00000030: 0550 033f adf0 813e 2f26 aebe d351 ad3e
00000040: 8f39 f13e 8838 6f3d c8b8 283f 3376 20bf
00000050: 2aa2 cd3e 852c bd3e 7ee2 a03e 1465 14bf
00000060: d519 ee3d ac7a 373e 4d4a 1d3f d0e4 a93e
00000070: e2ac 233e 0e3f acbe ea62 a13d 200d 5fbf
00000080: 120a c23d df13 883e 0ba1 933c f0a2 713d
00000090: b92b 8a3e 9e44 553e e338 343f da0f 233e
000000a0: 13ad a6be 0b7d 94be ce23 d43e 7358 b7be
000000b0: 81a2 893e 9491 e1be 3edc 7c3c 2ed2 843c
000000c0: 380a 393d 21a7 973a
0.2896025 -0.12536657 0.116639875 -0.0036339997 0.08498411 0.15340233 -0.12213894 0.4468108
0.432625 0.4777605 -0.010133406 0.39560086 0.51293975 0.25378934 -0.34013507 0.3385149
0.47114226 0.05840352 0.65906954 -0.6268036 0.40162784 0.36948028 0.314228 -0.5796673
0.11626021 0.1791789 0.614415 0.33182383 0.15983918 -0.33641857 0.078801945 -0.871294
0.09474577 0.2657766 0.018021127 0.05899328 0.26986483 0.20826957 0.703993 0.15924016
-0.3255392 -0.2900165 0.41433567 -0.3580967 0.26881793 -0.4405638 0.015433369 0.016213503
0.04517576 0.0011570194

Operation_4_W f4 [30, 50]
00000000: 2f3c 2cbb 4353 3abe 736a 663d f8d2 85be
00000010: 0457 8fbd 45cb fcbe 36cc 8abe 2b6a 05be
00000020: 6638 c73d a9d1 a8be bb74 30be a45d 2cbe
00000030: f0ee 65be 9108 b23d 530d 15bf 2bbe 843d
00000040: 9a90 563d 6bc5 30be d00f 1b3e 00eb a6be
00000050: c22a 3abe bf19 99bd fb80 c1bd 78b2 54be
00000060: 593a c5bd 6e43 3dbe 243f 1dbe 5662 35be
00000070: 05bf 2ebd 0127 aa3c 97b4 4bbe 35bb bbbd
00000080: 23f3 1cbe 5751 febd 0774 1fbe dde9 a7bd
00000090: 4eb7 e13d 09db 0e3e 1ab1 a8bd adf2 9d3d
000000a0: cca4 eabe d901 ccbd 5253 833e a447 adbe
000000b0: 305f 90be 17f6 79be 5db7 32be a2cd fabd
000000c0: 9306 17be 3178 33be 4903 b4be 1f25 75be
000000d0: 7e94 28bd 1eb0 a43e b2d6 ffbe ed26 90be
000000e0: 39bb 493e 7330 1abd 217b a1be dafa 09be
000000f0: 6c06 873d 93f1 89bd 806e 47be 9d27 93bd
00000100: 4e34 be3e 12c3 5cbe 6780 e23d 7444 d03c
00000110: 0334 ba3e d2ad 3c3e 3eb7 2b3e debe 583e
00000120: 54bd 1cbf 4daa 1ebf 7e19 68be 1d62 c03d
00000130: a9a0 a53e 6808 87bd a805 68be 1c13 ee3e
00000140: 0106 36bf c80d cabe cbf3 39bd 8133 dcbe
00000150: 43e1 b73e 5a97 913e 234e b13c 4ee7 0abf
00000160: fcda 623e d96d 90bd 54ad 5ebe 8228 e0be
00000170: 5890 73bd 2056 c63a 87e2 ab3d 3a74 d63e
00000180: 5b10 3c3d 744b 0cbe a677 853d f7e6 803e
00000190: 1e98 ae3e 539b 1abe dfaa de3d 2d0e 2dbe
000001a0: a315 233e 62b2 a2be 1f7f 1cbf 8443 1dbf
000001b0: 8a4c b8bd c942 863e 62c0 12bf 3523 553f
000001c0: be72 423b 4a09 18be 1497 c4bd a9f7 81bc
000001d0: cbf9 c03e 8647 83be d27c 523e f36b 50be
000001e0: 7a74 79be 8654 113e d65e d2bc 4bc9 b1be
000001f0: 507b 983c b93c 16be 93fb f0be bf3e 893e
00000200: 46b8 a8bd 56de 28be e64c 99bd c933 d8bc
00000210: 18fd 8c3e fafd d93e 590b e8be fc83 3bbe
00000220: 01e3 85be f65d a0be da7b f23d 534e 4c3e
00000230: e581 bb3e a4bf 7abf 776d 97be 84a9 6ebe
00000240: fb6e 333e 05de f4bd e441 1a3e 3aeb 09bf
00000250: 7cba 973e 47ab c33d 7d08 ccbe ecd2 b7bd
00000260: b359 f2bd 7455 bb3e 7c7e 09bf d926 d63d
00000270: 9a11 473e d23b 9d3d c86b 1cbf 494b 48be
00000280: e6c6 853e 6af5 fd3d 9436 d43d b825 8dbe
00000290: 3c96 8cbd 3355 98be 58f7 233e 95d7 9b3e
000002a0: 76ef 983d 3ed5 95bd 9e94 b43e 8789 183e
000002b0: 5b11 f0bd 9727 cbbe 6f71 20bf b0fb c9bd
000002c0: 44e6 903e 1806 373d 35a2 79be a629 933e
000002d0: eeab 32bf 958e 5ebe bb14 2abe 50af b2be
000002e0: a0f6 963b e753 8a3e e96c 4e3d f844 34bf
000002f0: 1132 9a3e 2993 12be 74c8 9b3a da63 83be
00000300: 1cbb 4b3e 613f 64be af1c c03d a63f f2bc
00000310: 80c8 87be 84f4 ef3d 8e92 eb3d 7af8 393e
00000320: 7e0f a3bd 1da4 b8bc 7abf 8e3e 0ae5 313e
00000330: c2fd 5a3c 8933 69be b38a 25bf 1ff5 87be
00000340: f0a2 1bbe e9b9 ae3e ca96 19bf 55be 0b3f
00000350: e86b 82be 36cb 28be d913 fbbd dc1f ddbe
00000360: 6226 c53b ea84 8f3d edb3 7a3d 2c10 10be
00000370: 3254 a1be d5ab 093d 0411 41bf 3af2 03bd
00000380: 2797 97be f363 eabe 427d 933e e3db 443e
00000390: 464c edbc 21ba 05be 6f3d eebe 6c98 8abe
000003a0: 8027 a73c ac42 643e 6486 b83e 8bf6 013f
000003b0: 5ee7 b03e ecce 4abe d8b3 5d3d 738e a33e
000003c0: 6230 cdbe 484d 7f3d 934c 6a3e 052e d3be
000003d0: 9883 b7bd f727 32be e12d c2bd bcbf 8cbd
000003e0: 17d8 843d 8471 113e 7950 a03e 8994 5fbe
000003f0: 3ef1 dfbd 2f0c 1abf 24d9 d6bd 0f5e b6be
-0.002628099 -0.18195824 0.05625386 -0.2613752 -0.06999019 -0.49373832 -0.27108926 -0.13028781
0.09727554 -0.32972458 -0.17232029 -0.16832596 -0.22454429 0.0869304 -0.58223456 0.06481584
0.052383997 -0.17262809 0.1514275 -0.32601166 -0.18180373 -0.07475614 -0.09448429 -0.20771205
-0.096302696 -0.18482754 -0.15356117 -0.17713293 -0.04266264 0.020770552 -0.19893108 -0.09166566
-0.15327124 -0.12417858 -0.15571605 -0.08198903 0.11021291 0.13950743 -0.082369044 0.07712302
-0.45828855 -0.0996129 0.25649506 -0.3384372 -0.28197622 -0.24410282 -0.1745276 -0.122462526
-0.14748602 -0.17526318 -0.35158756 -0.23939942 -0.04115724 0.32165617 -0.49968487 -0.28154698
0.19700326 -0.03764386 -0.31539252 -0.13474599 0.06593022 -0.0673553 -0.19475746 -0.0718529
0.3714928 -0.21558788 0.11059647 0.025423266 0.36367807 0.18425682 0.1676912 0.2116656
-0.6122639 -0.6197861 -0.22665974 0.093937136 0.32349136 -0.065934 -0.22658408 0.46498954
-0.7110291 -0.3946364 -0.045398515 -0.43008044 0.3591405 0.28435785 0.021643704 -0.5425919
0.22153848 -0.07052202 -0.21745807 -0.43780905 -0.05946383 0.0015131868 0.08392816 0.4188555
0.045914035 -0.13700658 0.06516962 0.25176212 0.3410043 -0.15098314 0.10872435 -0.16899939
0.15926223 -0.3177672 -0.6113147 -0.61431146 -0.08998974 0.26222828 -0.573248 0.83256847
0.0029670442 -0.14847293 -0.09599128 -0.015865164 0.37690577 -0.25640506 0.20555428 -0.2035368
-0.24360839 0.141924 -0.025679987 -0.34723887 0.018613487 -0.14671601 -0.47066936 0.26805684
-0.08238272 -0.16491064 -0.0748537 -0.02639188 0.27536845 0.4257658 -0.45321158 -0.18312067
-0.26149753 -0.31321687 0.11840029 0.19951753 0.3662254 -0.9794867 -0.29575703 -0.23306853
0.17522804 -0.11956409 0.15064198 -0.5387455 0.29634464 0.09554153 -0.39850226 -0.08975777
-0.11833515 0.36588633 -0.53708625 0.10456628 0.19440308 0.076774254 -0.6110196 -0.19559969
0.2612831 0.12400325 0.103619725 -0.2756784 -0.068645924 -0.29752502 0.16012323 0.30437914
0.074675485 -0.07316063 0.35269636 0.14896213 -0.1172206 -0.39678642 -0.62673086 -0.09862459
0.2830068 0.044683546 -0.24378283 0.28742713 -0.69793594 -0.21734078 -0.1660947 -0.34899378
0.0046070367 0.27017137 0.050396834 -0.7041774 0.30116323 -0.1431395 0.0011885301 -0.25662118
0.19895595 -0.22289802 0.09380471 -0.029571366 -0.26520157 0.117165595 0.115025625 0.18161193
-0.07961939 -0.022539193 0.2788046 0.17372528 0.013366165 -0.22773565 -0.64664763 -0.265542
-0.15198874 0.34126213 -0.5999571 0.545873 -0.2547295 -0.16483769 -0.12259645 -0.4318837
0.0060165385 0.07007773 0.061206747 -0.14068669 -0.31509548 0.033611137 -0.7541659 -0.032213427
-0.29607508 -0.4577938 0.28806502 0.19224505 -0.028967034 -0.13059284 -0.46531245 -0.27069414
0.020404577 0.22291058 0.36040032 0.5076682 0.3455152 -0.19805497 0.05412659 0.31944618
-0.40075976 0.06232956 0.22880773 -0.41246048 -0.089606464 -0.17398058 -0.09481407 -0.06872508
0.06486528 0.14203459 0.31311396 -0.21834005 -0.10934685 -0.6017484 -0.10490635 -0.35618636

Operation_4_B f4 [30]
00000000: 8f5b afbd 82e5 da3d a2c5 b5bd 45b5 3b3e
00000010: e80c c43d 673d e13e 8593 2b3f db5d 223f
00000020: 647a fd3d 6494 203f 919a 343e eb11 2ebf
00000030: 07b3 8d3e 1247 983b 4815 703e 90fe 1cbe
00000040: 8050 2cbe 3bc4 2bbc 51ad d93e 12a1 ca3c
00000050: a628 ed3e d840 053f 1850 d03e 0c91 00be
00000060: c55d 673e c0e6 df3e ed4a 52bf 3eb6 c23e
00000070: 2e33 193f 8e5d 32bf
-0.08562385 0.106883064 -0.08875586 0.18330868 0.09572774 0.4399216 0.6702197 0.6342446
0.1237686 0.62726426 0.17637087 -0.6799609 0.2767565 0.004647144 0.23445618 -0.15331483
-0.16827583 -0.010483797 0.42515042 0.024735007 0.46320075 0.5205207 0.40686107 -0.12555331
0.22594364 0.43730736 -0.8214558 0.38029665 0.5984372 -0.69674003

Operation_5_W f4 [20, 30]
00000000: bd16 cc3d bc85 d63e 82e6 38bf a09b 293e
00000010: 31e6 de3e f507 d5bd 2268 783e 7c99 513e
00000020: e9e0 2cbf 70f7 97be 0109 843e 216d 9f3d
00000030: 7cf8 d23e 33b2 e43e b52e c93e 8431 e2bd
00000040: 4e41 39bf 4b04 19bf 06e5 58be 6932 31bf
00000050: 81e9 623e c7d2 cabd dff9 0fbf 6f8c 31bf
00000060: e90c 423d 65af 69bb 34fe 2a3e e315 11be
00000070: 2cc5 bb3e 4692 72be 4866 f53d e809 48be
00000080: 8674 743d 03fb 70bd b88f 8b3e 2fcf 043e
00000090: 0180 993e 7262 31bd 8067 41be 2528 843b
000000a0: 4933 16bd 3fbf 6abd ae3c c4be 2d0a 31be
000000b0: 6d17 c9be 2f7f a4be 209c 9b3e 51a4 bd3e
000000c0: 4351 1abe 8261 e93d 71b5 e8bd e66e 213e
000000d0: 34db e23d a4e0 333e 48bc 063e 7f21 e5bd
000000e0: 5988 74be 60e2 e5bd 19d4 58bd cd17 5bbe
000000f0: 7185 143e 30be dbbe f4ad 7d3e 8ba5 a7bd
00000100: 722a dd3e ff03 c83e 5b99 5c3e 55fa c53d
00000110: d320 6f3e 4fbf 923e 11d5 a8be c1ad 05be
00000120: cd59 d83d 2bd0 0f3e 52d4 f83d d1ca 14be
00000130: e2d0 68bd 0b63 153f 2a3b 2c3d 253a 9e3d
00000140: 030a 02bd 1379 82bd 76cf 7d3e 41f9 88be
00000150: d731 f1bd 6fad db3e 4e67 403d 4754 243e
00000160: 275e 863e a7cf 03be 264f 07be 1b6a 783e
00000170: c626 7f3c 3c82 a33e 6362 893d 1e45 abbd
00000180: 4a3c 9e3e e51b b93e 9f31 90bf a0b2 a43e
00000190: 6064 583e 8348 febd 95ea 8c3e 43d6 623e
000001a0: 680d 1abe 2ba3 4dbe 9e35 28be 0192 23be
000001b0: 5200 f6bd a266 76be 5ffc 0e3d bd0e 06be
000001c0: 8f9d 54bf 6a88 55be 515e 173d fc44 2d3e
000001d0: 6e6a 08be 0c30 c4bc 0ee6 97bc a824 a6be
000001e0: e617 1fbe dd43 a9bd cbe5 53be ce53 8e3e
000001f0: 012a dcbe 5b5a 85bd 3e25 45be 3627 f8bd
00000200: b024 133e 241b ef3c 6121 dabe 82bb 643e
00000210: 3ece d2bc 00b9 8a3d bcf2 c23d 5a40 0fbf
00000220: 23f9 03be 8d66 0f3e 82e0 80ba 1088 afbe
00000230: 0586 54be c8cf b2bd ef39 c2be 9bd7 c8be
00000240: ba4b aebe 607c 5c3d 35de 7bbe 8a21 273c
00000250: 00ed f3bd 8bdf 373e 6988 edbd 2872 93be
00000260: 645d 18be 179f c23c 0fa7 a83e a7fa cfbe
00000270: d364 0dbd 156b 623e 4e10 b23e 9938 2a3e
00000280: 662a 60be 7799 30be e1ca 8d3e d88e da3e
00000290: ea16 d33c 4904 e43c 927a df3c 21f8 c33c
000002a0: f88d 4dbe c412 febc ed13 c6be 7442 8abe
000002b0: bcd9 9cbd e7ec e1bd 918e a1be db76 3abe
000002c0: 7789 b3be e8be d1be bb7a bd3d 8134 033e
000002d0: 4f36 b6bd aa0b 5bbf 68ed 4abf e3f0 b7be
000002e0: 2fc5 86be 3f46 243e 7238 c93e 6199 4a3e
000002f0: 0bdd 52bd 690b 273d 5221 63bf a82a e4be
00000300: 518a 23bd 7af8 a63c 03dd 43bf d33d a7be
00000310: f040 7abf 58fa 27bf f4ae c63d f08f 3fbf
00000320: 9eed 1ebe 559a 503e b65e 21be f144 87bf
00000330: 4386 bcbe c094 da3e c0aa 6ebe 6b96 a1be
00000340: 3348 353e e894 563e b5d5 39be 20ef 823d
00000350: 273c e9ba 6209 3d3e ba32 bc3e 6fe5 4cbd
00000360: 6772 dcbe 6efa d6be 7a0a 7c3c c678 aabd
00000370: 4eb4 1ebe d8c4 cb3b a31a 62be 5306 b63e
00000380: 0f7e ab3e 333a 74bd 545a 9a3d 129c 40be
00000390: e734 b8be 6f7d e4bd 3b27 f2be 5060 1cbe
000003a0: b58a 7d3e 8825 0fbe b393 36be b168 89be
000003b0: a212 a53d 4bb8 aabe 6a7f 83be 1b53 61bc
000003c0: 7098 833e b76e 37be 1a88 be3d ce80 9bbe
000003d0: baba ef3e 699f bb3e cb81 7eba 4029 3abe
000003e0: 4828 2bbd 6817 5b3e 3b1c 56bf 572c c0be
000003f0: ce01 d0bd 0283 7a3c 4120 b03b 1c5c 413d
0.099652745 0.41898906 -0.72226727 0.16563272 0.43534997 -0.10401908 0.24258474 0.20468706
-0.67530686 -0.29680967 0.2578812 0.077844866 0.41205204 0.44667205 0.39293447 -0.110446006
-0.7236527 -0.59772176 -0.21181116 -0.69217545 0.22159387 -0.09903484 -0.5624065 -0.6935491
0.047375593 -0.0035657522 0.16698533 -0.14168505 0.36673868 -0.23688611 0.11982399 -0.19535029
0.059681438 -0.058833133 0.27258086 0.1296966 0.29980472 -0.043306775 -0.18887138 0.004033106
-0.036670003 -0.057311293 -0.38327545 -0.17289038 -0.39275685 -0.32128283 0.3039255 0.37039426
-0.15070061 0.11395551 -0.11362732 0.1576496 0.11076966 0.17566162 0.13157761 -0.111880295
-0.23880138 -0.11224818 -0.052936647 -0.21395798 0.14504029 -0.4291854 0.24773389 -0.08185872
0.43196446 0.3906555 0.21542875 0.09666888 0.23352365 0.28661582 -0.32975057 -0.13054563
0.10564003 0.14044254 0.12149872 -0.14530493 -0.05683983 0.5835425 0.04204861 0.07725934
-0.03174783 -0.06370749 0.24786171 -0.26752666 -0.11777084 0.42905757 0.04697352 0.16047774
0.26243708 -0.12872182 -0.13213786 0.24259226 0.015573209 0.31935298 0.06708219 -0.083627924
0.30905372 0.36154094 -1.1265143 0.3216753 0.2113204 -0.12416174 0.27522722 0.22152047
-0.15044177 -0.20081775 -0.16426703 -0.15973665 -0.1201178 -0.24062589 0.03490865 -0.1309156
-0.83052915 -0.20852819 0.03695518 0.16920847 -0.1332185 -0.023948692 -0.018542316 -0.32449841
-0.1553646 -0.08264897 -0.20693128 0.27798313 -0.43000796 -0.065113746 -0.19252488 -0.12116854
0.14369464 0.029187746 -0.4260359 0.22337154 -0.02573311 0.06773567 0.09518954 -0.5595757
-0.12888007 0.14003964 -0.0009832534 -0.34283495 -0.2075425 -0.087310374 -0.37934825 -0.39226994
-0.3404215 0.05382955 -0.24596484 0.010200867 -0.119104385 0.17956369 -0.11598284 -0.28798032
-0.14879376 0.0237575 0.32939956 -0.4062092 -0.03451998 0.22111161 0.34778064 0.16623153
-0.21891174 -0.17246042 0.27693847 0.42687106 0.025767762 0.027834075 0.027280126 0.023922028
-0.20073688 -0.031014808 -0.38687077 -0.27003825 -0.07658717 -0.11031514 -0.31554082 -0.18209402
-0.35065815 -0.40965962 0.092519246 0.12812997 -0.08897077 -0.8556467 -0.79268503 -0.3592597
-0.26322314 0.16042422 0.39300877 0.19785072 -0.051480334 0.040782366 -0.8872272 -0.44563794
-0.03992683 0.020382155 -0.7650911 -0.32664356 -0.97755337 -0.6561637 0.097013384 -0.74829006
-0.15520331 0.20371373 -0.15758786 -1.0567914 -0.36821184 0.42691612 -0.23307323 -0.31560072
0.17703323 0.2095524 -0.18147929 0.06393266 -0.0017794416 0.1846061 0.3675745 -0.050023492
-0.43056032 -0.41987938 0.015383357 -0.08323817 -0.15498468 0.006218534 -0.22080474 0.355517
0.33494613 -0.059625816 0.0753676 -0.18809536 -0.3597786 -0.11156737 -0.47295555 -0.15271115
0.24759944 -0.13979161 -0.1782978 -0.26837686 0.080601946 -0.3334373 -0.25683147 -0.013752724
0.25702238 -0.17913328 0.09303303 -0.30371708 0.4682215 0.36645058 -0.0009708672 -0.18179798
-0.041786462 0.21395648 -0.83636826 -0.3753383 -0.10156594 0.015290024 0.0053749387 0.047206983

Operation_5_B f4 [20]
00000000: a153 193e c420 1d3f 37dc 2d3f c0b2 6c3a
00000010: fa2d 60be a5a6 1fbd 162e 0e3f 5a0a 16be
00000020: 6db4 263f db9c 063f 22d8 01bd ce97 2f3f
00000030: f8df ff3e ae34 2b3f 8b94 c8be 0000 0000
00000040: 6b08 19bf 4f2d 353f 39b2 2f3f 3132 60bc
0.14973308 0.6137812 0.67914146 0.00090293214 -0.21892539 -0.038977284 0.5553907 -0.14652386
0.6511906 0.5258309 -0.03170026 0.6859101 0.49975562 0.6687726 -0.3917583 0.0
-0.5977847 0.7077226 0.6863132 -0.013683842

Operation_6_W f4 [1, 20]
00000000: b063 12bf 512a 773d 2ef4 f73e 3cfb f3be
00000010: 0c7c 44be 1686 05be 7e28 de3e 89ce cebe
00000020: 70e5 263e 49f0 833e e49d a8bd 65c1 963e
00000030: 6ca6 173f 3996 8f3e d622 03be 1299 46be
00000040: ef9b b4bd 9136 903e f9fa 913e fcf0 d9be
-0.5718336 0.06034309 0.48428482 -0.47652614 -0.19187945 -0.13039431 0.43390268 -0.4039195
0.16298461 0.2576926 -0.0823324 0.29444423 0.59238315 0.28044298 -0.12806258 -0.19394329
-0.088188045 0.2816663 0.2851179 -0.4256667
