engine/nnmt/ONNX/mnist_model5x50.onnx (onnx, 203276 bytes, 12 tensors)

input_AvgImg f4 [1, 1, 1, 784]
1.0 1.0 1.0 1.0 1.0 1.0 1.0 1.0
1.0 1.0 1.0 1.0 1.0 1.0 1.0 1.0
1.0 1.0 1.0 1.0 1.0 1.0 1.0 1.0
1.0 1.0 1.0 1.0 1.0 1.0 1.0 1.0
1.0 1.0 1.0 1.0 1.0 1.0 1.0 1.0
1.0 1.0 1.0 1.0 1.0 1.0 1.0 1.0
1.0 1.0 1.0 1.0 1.0 1.0 1.0 1.0
1.0 1.0 1.0 1.0 1.0 1.0 1.0 1.0
1.0 1.0 1.0 1.0 1.0 1.0 1.0 1.0
1.0 1.0 1.0 1.0 1.0 1.0 1.0 1.0
1.0 1.0 1.0 1.0 1.0 1.0 1.0 1.0
1.0 1.0 1.0 1.0 1.0 1.0 1.0 1.0
1.0 1.0 1.0 1.0 1.0 1.0 1.0 1.0
1.0 1.0 1.0 1.0 1.0 1.0 1.0 1.0
1.0 1.0 1.0 1.0 1.0 1.0 1.0 1.0
1.0 1.0 1.0 1.0 1.0 1.0 1.0 1.0
1.0 1.0 1.0 1.0 1.0 1.0 1.0 1.0
1.0 1.0 1.0 1.0 1.0 1.0 1.0 1.0
1.0 1.0 1.0 1.0 1.0 1.0 1.0 1.0
1.0 1.0 1.0 1.0 1.0 1.0 1.0 1.0
1.0 1.0 1.0 1.0 1.0 1.0 1.0 1.0
1.0 1.0 1.0 1.0 1.0 1.0 1.0 1.0
1.0 1.0 1.0 1.0 1.0 1.0 1.0 1.0
1.0 1.0 1.0 1.0 1.0 1.0 1.0 1.0
1.0 1.0 1.0 1.0 1.0 1.0 1.0 1.0
1.0 1.0 1.0 1.0 1.0 1.0 1.0 1.0
1.0 1.0 1.0 1.0 1.0 1.0 1.0 1.0
1.0 1.0 1.0 1.0 1.0 1.0 1.0 1.0
1.0 1.0 1.0 1.0 1.0 1.0 1.0 1.0
1.0 1.0 1.0 1.0 1.0 1.0 1.0 1.0
1.0 1.0 1.0 1.0 1.0 1.0 1.0 1.0
1.0 1.0 1.0 1.0 1.0 1.0 1.0 1.0
00000000: 0000 803f 0000 803f 0000 803f 0000 803f
00000010: 0000 803f 0000 803f 0000 803f 0000 803f
00000020: 0000 803f 0000 803f 0000 803f 0000 803f
00000030: 0000 803f 0000 803f 0000 803f 0000 803f
00000040: 0000 803f 0000 803f 0000 803f 0000 803f
00000050: 0000 803f 0000 803f 0000 803f 0000 803f
00000060: 0000 803f 0000 803f 0000 803f 0000 803f
00000070: 0000 803f 0000 803f 0000 803f 0000 803f
00000080: 0000 803f 0000 803f 0000 803f 0000 803f
00000090: 0000 803f 0000 803f 0000 803f 0000 803f
000000a0: 0000 803f 0000 803f 0000 803f 0000 803f
000000b0: 0000 803f 0000 803f 0000 803f 0000 803f
000000c0: 0000 803f 0000 803f 0000 803f 0000 803f
000000d0: 0000 803f 0000 803f 0000 803f 0000 803f
000000e0: 0000 803f 0000 803f 0000 803f 0000 803f
000000f0: 0000 803f 0000 803f 0000 803f 0000 803f
00000100: 0000 803f 0000 803f 0000 803f 0000 803f
00000110: 0000 803f 0000 803f 0000 803f 0000 803f
00000120: 0000 803f 0000 803f 0000 803f 0000 803f
00000130: 0000 803f 0000 803f 0000 803f 0000 803f
00000140: 0000 803f 0000 803f 0000 803f 0000 803f
00000150: 0000 803f 0000 803f 0000 803f 0000 803f
00000160: 0000 803f 0000 803f 0000 803f 0000 803f
00000170: 0000 803f 0000 803f 0000 803f 0000 803f
00000180: 0000 803f 0000 803f 0000 803f 0000 803f
00000190: 0000 803f 0000 803f 0000 803f 0000 803f
000001a0: 0000 803f 0000 803f 0000 803f 0000 803f
000001b0: 0000 803f 0000 803f 0000 803f 0000 803f
000001c0: 0000 803f 0000 803f 0000 803f 0000 803f
000001d0: 0000 803f 0000 803f 0000 803f 0000 803f
000001e0: 0000 803f 0000 803f 0000 803f 0000 803f
000001f0: 0000 803f 0000 803f 0000 803f 0000 803f
00000200: 0000 803f 0000 803f 0000 803f 0000 803f
00000210: 0000 803f 0000 803f 0000 803f 0000 803f
00000220: 0000 803f 0000 803f 0000 803f 0000 803f
00000230: 0000 803f 0000 803f 0000 803f 0000 803f
00000240: 0000 803f 0000 803f 0000 803f 0000 803f
00000250: 0000 803f 0000 803f 0000 803f 0000 803f
00000260: 0000 803f 0000 803f 0000 803f 0000 803f
00000270: 0000 803f 0000 803f 0000 803f 0000 803f
00000280: 0000 803f 0000 803f 0000 803f 0000 803f
00000290: 0000 803f 0000 803f 0000 803f 0000 803f
000002a0: 0000 803f 0000 803f 0000 803f 0000 803f
000002b0: 0000 803f 0000 803f 0000 803f 0000 803f
000002c0: 0000 803f 0000 803f 0000 803f 0000 803f
000002d0: 0000 803f 0000 803f 0000 803f 0000 803f
000002e0: 0000 803f 0000 803f 0000 803f 0000 803f
000002f0: 0000 803f 0000 803f 0000 803f 0000 803f
00000300: 0000 803f 0000 803f 0000 803f 0000 803f
00000310: 0000 803f 0000 803f 0000 803f 0000 803f
00000320: 0000 803f 0000 803f 0000 803f 0000 803f
00000330: 0000 803f 0000 803f 0000 803f 0000 803f
00000340: 0000 803f 0000 803f 0000 803f 0000 803f
00000350: 0000 803f 0000 803f 0000 803f 0000 803f
00000360: 0000 803f 0000 803f 0000 803f 0000 803f
00000370: 0000 803f 0000 803f 0000 803f 0000 803f
00000380: 0000 803f 0000 803f 0000 803f 0000 803f
00000390: 0000 803f 0000 803f 0000 803f 0000 803f
000003a0: 0000 803f 0000 803f 0000 803f 0000 803f
000003b0: 0000 803f 0000 803f 0000 803f 0000 803f
000003c0: 0000 803f 0000 803f 0000 803f 0000 803f
000003d0: 0000 803f 0000 803f 0000 803f 0000 803f
000003e0: 0000 803f 0000 803f 0000 803f 0000 803f
000003f0: 0000 803f 0000 803f 0000 803f 0000 803f

Operation_1_W f4 [50, 784]
0.0044961497 0.06814987 -0.026518319 -0.00020772219 -0.010107927 -0.035123195 0.028898075 0.05431383
0.03433854 0.025744654 0.039345264 0.026606932 0.00047848374 0.073404096 0.033746026 -0.05876322
-0.0354585 -0.068706006 0.08454595 -0.03410431 -0.035195105 0.028812714 0.02070614 0.06288462
-0.065595925 -0.07513412 -0.004815541 -0.045113727 -9.1932714e-05 0.067718856 -0.08143827 -0.015268922
0.0037643984 0.027457148 -0.0031597316 0.028617024 0.08302703 -0.07265445 0.06287498 -0.046797708
0.05887658 0.04929424 0.04547549 0.049544804 0.037698537 0.042244755 -0.032423485 -0.07886667
0.02855441 0.06560146 -0.030418593 -0.0140686035 -0.011894152 0.035692982 0.07244114 -0.063471235
-0.008422568 0.025543116 -0.05404465 -0.017494239 -0.019919127 0.022905104 0.02832564 -0.07652916
-0.027627904 0.036644705 -0.07721056 0.006174445 0.030936897 0.07771177 0.016446173 0.0722573
0.06202299 0.02622538 -0.0083748475 -0.061613567 -0.056891374 0.010867357 0.018304445 0.0072569475
0.026926123 -0.07278452 -0.0025908947 0.08301548 0.057979234 -0.07911446 -0.032608297 -0.07616823
0.01244729 0.05161076 -0.052985903 -0.080488466 -0.07975053 0.0007631704 -0.08075688 0.07224024
-0.08215083 -0.017075285 -0.043415714 0.037417382 -0.064857274 -0.048318055 -0.0052649667 -0.01415727
0.024439171 -0.06610124 0.07092299 -0.052828006 -0.05977905 0.005557418 -0.02035793 0.02845817
-0.023196287 -0.06362717 0.019808732 0.062711455 -0.06121112 0.07846495 -0.037653726 0.01761432
-0.032057382 -0.034016073 0.017333716 -0.021277014 -0.08544734 -0.023743706 -0.09646353 -0.034230992
0.028728846 0.042962167 0.03204215 0.043730173 -0.028222213 -0.042392086 0.04523278 0.047602072
0.038109757 -0.0143636465 0.028112233 0.03561779 0.0035320073 0.051520504 0.043292336 0.012126505
-0.07626415 0.0076123998 0.030134793 -0.08677289 0.058172174 -0.09513047 -0.08986991 -0.0060977275
-0.001674735 -0.10617479 0.010630043 0.049507942 -0.08994314 -0.0018115052 0.049244624 -0.0817792
0.02102845 0.038750067 -0.08837399 -0.062179264 0.004115633 -0.08191659 -0.07976321 -0.041792948
0.014035396 0.006918773 -0.047564216 0.045411907 -0.07632539 -0.047901005 0.056868255 0.015769996
0.0031330194 0.044887055 -0.08196498 -0.078013025 0.018068057 -0.02952045 -0.06571001 -0.07091625
-0.03974134 -0.01605886 0.018602705 0.01884599 -0.086192794 -0.086498834 -0.012578944 -0.0028718167
-0.03645033 -0.038258597 0.037454672 0.029084906 0.06814665 0.0629785 -0.013529412 0.021355525
0.0075560296 0.05572908 0.06565449 -0.031786893 -0.048328567 -0.029665785 -0.032513756 0.001992346
0.04179012 -0.03759852 0.008456638 -0.05534911 -0.07788109 0.02255115 -0.012883666 0.0100264335
-0.06838657 -0.07374105 -0.04131725 0.05229073 0.01083409 -0.04503686 0.038672067 -0.06964459
0.025999174 -0.020045169 -0.013563342 0.06963195 -0.052408505 0.0012420731 0.04600194 -0.022943433
-0.033636708 -0.011807619 0.06438946 -0.058188755 -0.024950959 -0.0680513 0.05462957 0.059908018
0.007967569 -0.020611616 -0.092553444 -0.03657452 -0.05559488 0.001359426 -0.026290143 -0.009332113
-0.026780382 -0.030754205 -0.0015304685 -0.035470292 0.017795995 0.035985194 -0.04542843 -0.0020345561
00000000: 7054 933b 2992 8b3d f23c d9bc 00d0 59b9
00000010: b89b 25bc 57dd 0fbd a8bb ec3c 2e78 5e3d
00000020: 92a6 0c3d 74e6 d23c 8028 213d c8f6 d93c
00000030: 00dd fa39 e354 963d 4639 0a3d b4b1 70bd
00000040: ef3c 11bd bcb5 8cbd 6d26 ad3d f6b0 0bbd
00000050: be28 10bd a408 ec3c ec9f a93c a7c9 803d
00000060: 2857 86bd ebdf 99bd b0cb 9dbb 2cc9 38bd
00000070: 00cc c0b8 2fb0 8a3d 1cc9 a6bd 802a 7abc
00000080: 20b4 763b d0ed e03c 8013 4fbb 406e ea3c
00000090: 130a aa3d dbcb 94bd 99c4 803d f4ae 3fbd
000000a0: 9228 713d c2e8 493d 8244 3a3d 7eef 4a3d
000000b0: c869 1a3d d608 2d3d 7dce 04bd d984 a1bd
000000c0: f0ea e93c 0f5a 863d 6a30 f9bc 0080 66bc
000000d0: b0df 42bc ce32 123d 055c 943d 35fd 81bd
000000e0: d0fe 09bc cc3f d13c ec5d 5dbd 1450 8fbc
000000f0: 702d a3bc 7ca3 bb3c 2c0b e83c 52bb 9cbd
00000100: ea53 e2bc c218 163d 9220 9ebd 0053 ca3b
00000110: 606f fd3c 5927 9f3d 20ba 863c a3fb 933d
00000120: d20b 7e3d 9cd6 d63c a836 09bc 825e 7cbd
00000130: ee06 69bd 000d 323c 34f3 953c b0cb ed3b
00000140: 2c94 dc3c 0d10 95bd 00cc 29bb 0504 aa3d
00000150: a27b 6d3d c306 a2bd 4790 05bd 17fe 9bbd
00000160: b8ef 4b3c ce65 533d bf07 59bd 23d7 a4bd
00000170: 3f54 a3bd 800f 483a dd63 a5bd b1f2 933d
00000180: b23e a8bd 78e1 8bbc add4 31bd f842 193d
00000190: e4d3 84bd 27e9 45bd be85 acbb e5f3 67bc
000001a0: a834 c83c 1660 87bd 1340 913d 2e62 58bd
000001b0: e1da 74bd 001b b63b acc5 a6bc 1c21 e93c
000001c0: 2406 bebc f64e 82bd ec45 a23c dd6e 803d
000001d0: 83b8 7abd 3bb2 a03d cb3a 1abd e84b 903c
000001e0: 9a4e 03bd 7054 0bbd 70ff 8d3c 224d aebc
000001f0: 04ff aebd 2982 c2bc ac8e c5bd cc35 0cbd
00000200: c258 eb3c 19f9 2f3d a13e 033d 691e 333d
00000210: 4532 e7bc 53a3 2dbd 0246 393d 64fa 423d
00000220: fa18 1c3d 8055 6bbc a04b e63c f6e3 113d
00000230: 4079 673b 2a07 533d 4e53 313d 40ae 463c
00000240: 6130 9cbd 7071 f93b 3edd f63c fcb5 b1bd
00000250: f245 6e3d c4d3 c2bd b70d b8bd 72cf c7bb
00000260: c882 dbba 2b72 d9bd a229 2e3c d7c8 4a3d
00000270: 1c34 b8bd 0770 edba bbb4 493d da7b a7bd
00000280: db43 ac3c 64b8 1e3d 6cfd b4bd afaf 7ebd
00000290: 6fdc 863b e3c3 a7bd e55a a3bd 152f 2bbd
000002a0: b8f4 653c e0b6 e23b b2d2 42bd d601 3a3d
000002b0: 7c50 9cbd d833 44bd b0ee 683d 1430 813c
000002c0: 5853 4d3b 7ddb 373d 41dd a7bd 4bc5 9fbd
000002d0: 7603 943c dfd4 f1bc f892 86bd 8a3c 91bd
000002e0: d1c7 22bd df8d 83bc b364 983c e862 9a3c
000002f0: d985 b0bd 4d26 b1bd ea17 4ebc 1735 3cbb
00000300: f14c 15bd 0cb5 1cbd 126a 193d 7843 ee3c
00000310: 7990 8b3d dffa 803d 78aa 5dbc c8f1 ae3c
00000320: 9298 f73b 2d44 643d dc75 863d f932 02bd
00000330: 2df4 45bd a905 f3bc 252d 05bd 0592 023b
00000340: 1e2c 2b3d e800 1abd b68d 0a3c c0b5 62bd
00000350: 1f80 9fbd 30bd b83c 0316 53bc e945 243c
00000360: 420e 8cbd 8c05 97bd 473c 29bd ce2e 563d
00000370: 7881 313c 9278 38bd 9a66 1e3d d3a1 8ebd
00000380: 38fc d43c c435 a4bc c838 5ebc 329b 8e3d
00000390: 4daa 56bd 0fcd a23a 886c 3c3d def3 bbbc
000003a0: a5c6 09bd be74 41bc 9fde 833d 5557 6ebd
000003b0: f465 ccbc 7b5e 8bbd 42c3 5f3d 1c62 753d
000003c0: 688a 023c b1d9 a8bc a98c bdbd 2acf 15bd
000003d0: 75b7 63bd c42e b23a 6d5e d7bc b8e5 18bc
000003e0: 8862 dbbc 3ef0 fbbc 009a c8ba 4c49 11bd
000003f0: e8c8 913c 3665 133d 2913 3abd 3056 05bb

Operation_1_B f4 [50]
-0.03560508 -0.023208942 0.21855271 0.10412465 0.10867523 -0.114919394 0.22766174 -0.2013143
-0.095947765 0.036904242 0.007742938 -0.14830762 -0.013127206 -0.04976701 0.05746485 0.057179753
0.11069384 -0.18879941 -0.05782653 0.08829451 0.18585855 0.20953558 -0.040067736 0.061775465
-0.27834573 0.56764376 -0.102183945 -0.04719703 -0.050614133 -0.21930847 -0.25999883 0.27741435
0.09455269 0.28193638 0.16547342 -0.11970018 0.213683 0.061967418 -0.12021789 -0.11570239
-0.21955836 0.37339544 -0.017234955 -0.08258224 0.071625955 0.003050199 -0.018086191 0.02736188
-0.26724342 -0.058213744
00000000: a2d6 11bd ae20 bebc 48cc 5f3e 4e3f d53d
00000010: 1e91 de3d dc5a ebbd 2920 693e 5625 4ebe
00000020: 4380 c4bd e728 173d 79b8 fd3b f4dd 17be
00000030: 7e13 57bc 7ed8 4bbd 4360 6b3d 5135 6a3d
00000040: 74b3 e23d a254 41be 83db 6cbd c1d3 b43d
00000050: b451 3e3e 7f90 563e 111e 24bd 4508 7d3d
00000060: 5583 8ebe 1a51 113f d145 d1bd ac51 41bd
00000070: c450 4fbd 6692 60be 911e 85be 4109 8e3e
00000080: d7a4 c13d f759 903e dd71 293e 5e25 f5bd
00000090: b7cf 5a3e 8cd1 7d3d cc34 f6bd 60f5 ecbd
000000a0: e8d3 60be b02d bf3e 5230 8dbc e120 a9bd
000000b0: a1b0 923d d9e5 473b 7e29 94bc 0526 e03c
000000c0: 21d4 88be 8971 6ebd

Operation_2_W f4 [50, 50]
0.09716252 -0.18782006 0.056897413 0.12147379 -0.35932642 -0.5586813 0.037053652 0.2130887
0.45760363 -0.061271034 -0.28626928 -0.050602354 -0.3302166 -0.23404907 0.3165677 0.24825864
0.09704973 -0.25477755 0.29996037 -0.08794859 0.0112158535 -0.043651678 0.24496478 0.08111257
0.15357003 -0.24516115 -0.091689475 0.07351547 -0.12103315 0.31690195 0.19164577 0.102571785
-0.12221141 0.25327224 -0.22103012 -0.23588368 -0.28600585 -0.08102927 0.08001488 0.07373133
-0.22488457 -0.20397781 -0.39343667 0.016966108 -0.15628383 -0.29475817 -0.15582408 0.20652618
0.15227695 -0.10918557 0.06629984 -0.24147028 -0.117795154 -0.11708736 -0.5357184 -0.6088266
-0.2414291 0.22744286 -0.010152453 -0.2602656 0.090107806 -0.5714481 -0.5405791 0.07034247
-0.0523955 -0.2368711 0.17330293 -0.32565102 0.25344658 -0.1729802 -0.18939956 0.04012844
-0.091898546 0.73761386 0.213854 0.07297537 0.09364532 0.16298553 0.36702332 -0.4381352
-0.118158944 -0.03701341 0.038738243 -0.19594748 -0.44127563 -0.0005098977 -0.35388473 -0.009172529
-0.14980718 -0.1608586 -0.25382313 0.13870716 -0.009168897 -0.39057556 -0.03148694 0.21362484
-0.09023737 -0.3405132 -0.1161121 0.05407447 0.11485116 0.037513558 -0.2887493 0.16281739
0.13288064 0.23294748 -0.00807383 0.529053 -0.21910414 -0.27394497 -0.38192353 0.2566116
-0.126047 -0.11199858 -0.08444271 -0.0065041026 -0.21940623 0.07547491 0.12416187 0.29452226
0.062626354 -0.14701211 0.27302784 0.32145238 0.17623283 -0.4838387 0.2554641 -0.24686237
-0.15279578 0.37915286 0.37243342 -0.412939 0.0588617 0.18604699 -0.4055577 0.056666955
-0.23072392 -0.0906515 -0.009714646 0.13322943 0.040060468 0.22857495 0.14304556 0.19929709
-0.03416768 -0.119745106 -0.14536789 0.2978123 0.31718665 -0.21995972 -0.19355813 0.15349217
-0.004339601 -0.14010584 0.30910608 0.07773263 -0.23913805 -0.28516185 0.34316134 0.27980793
-0.17543428 -0.08490509 0.3362624 0.085706085 -0.054583937 -0.018664462 -0.34740382 -0.1167464
-0.16669923 -0.04205785 0.23431267 -0.0008038978 0.09524149 0.31032702 0.13938518 -0.27359217
-0.107831754 0.03619169 -0.31622267 0.13494387 -0.14838898 0.07663484 -0.3494082 -0.53157973
-0.19810136 -0.14320464 0.032421596 0.2623442 -0.09285999 0.004261658 -0.040187374 0.08802074
-0.05332018 -0.36744183 0.12254427 -0.01665383 -0.05795655 -0.06726422 0.042921335 -0.10608654
-0.17115487 -0.38279977 -0.11571231 -0.11613831 0.10177419 -0.4221693 -0.33402795 -0.3867794
-0.34220156 -0.043876383 0.05167627 -0.45456433 -0.059638534 -0.54475737 0.18989483 -0.2076343
0.23002182 0.10491178 -0.49989432 -0.024466228 0.08571629 0.34174287 -0.044889137 0.06948416
0.070268236 -0.05900537 -0.51988524 0.08183165 0.17736605 0.19935477 -0.5615071 0.30425927
-0.1635848 -0.23587044 -0.425496 0.16839285 0.5086942 0.35995853 -0.31292483 0.24450949
-0.27630782 0.11112912 -0.15675765 0.1398722 0.34267792 -0.15301147 0.1942936 -0.01885068
-0.2578689 -0.1572932 -0.22866225 0.039962083 -0.1670745 -0.3477131 0.33800834 0.034795024
00000000: 25fd c63d e753 40be 430d 693d 40c7 f83d
00000010: a2f9 b7be bd05 0fbf 92c5 173d ed33 5a3e
00000020: 064b ea3e 56f7 7abd e391 92be 6a44 4fbd
00000030: 2612 a9be 8faa 6fbe 2915 a23e 8337 7e3e
00000040: 02c2 c63d 3472 82be 6894 993e 641e b4bd
00000050: b3c2 373c 1acc 32bd 0cd8 7a3e 591e a63d
00000060: 7641 1d3e 860b 7bbe b1c7 bbbd 478f 963d
00000070: 3ae0 f7bd f940 a23e ca3e 443e 2811 d23d
00000080: fa49 fabd e6ac 813e b855 62be 7e8b 71be
00000090: 5c6f 92be adf2 a5bd d7de a33d 7400 973d
000000a0: 2448 66be 8fdf 50be 8870 c9be 82fc 8a3c
000000b0: de08 20be 8bea 96be 5990 1fbe 997b 533e
000000c0: 7dee 1b3e af9c dfbd 36c8 873d fc43 77be
000000d0: 963e f1bd 7fcb efbd d724 09bf 0fdc 1bbf
000000e0: 3139 77be c8e6 683e 7956 26bc 8841 85be
000000f0: 718a b83d 6c4a 12bf 6463 0abf b70f 903d
00000100: aa9c 56bd 568e 72be 5376 313e bbbb a6be
00000110: c0c3 813e b921 31be f5f1 41be b85d 243d
00000120: 4e35 bcbd 43d4 3c3f 8bfc 5a3e 1c74 953d
00000130: 1ec9 bf3d aee5 263e 7bea bb3e 4253 e0be
00000140: 51fd f1bd 609b 17bd feab 1e3d 75a6 48be
00000150: e1ee e1be a8aa 05ba 6130 b5be 6048 16bc
00000160: 0e67 19be 1eb8 24be 1bf5 81be 4009 0e3e
00000170: 2439 16bc 85f9 c7be 73f8 00bd 78c0 5a3e
00000180: 5fce b8bd bf57 aebe 2ecc edbd 317d 5d3d
00000190: 1637 eb3d d1a7 193d f3d6 93be 9ab9 263e
000001a0: dd11 083e c989 6e3e 1948 04bc 0470 073f
000001b0: d65c 60be 8442 8cbe 7b8b c3be 9862 833e
000001c0: 7712 01be 835f e5bd 4df0 acbd 5e20 d5bb
000001d0: 07ac 60be 9792 9a3d 9448 fe3d 9fcb 963e
000001e0: 3f42 803d 588a 16be 4eca 8b3e 6895 a43e
000001f0: 6176 343e b5b9 f7be 31cc 823e 7dc9 7cbe
00000200: 7f76 1cbe 5320 c23e 98af be3e be6c d3be
00000210: f718 713d 1a83 3e3e 42a5 cfbe 9c1b 683d
00000220: e442 6cbe 7ea7 b9bd 2e2a 1fbc 4c6d 083e
00000230: 7216 243d 8d0f 6a3e 897a 123e 8914 4c3e
00000240: 69f3 0bbd ec3c f5bd 52db 14be db7a 983e
00000250: 4a66 a23e 1f3d 61be 1a34 46be 0d2d 1d3e
00000260: 3633 8ebb e877 0fbe 2743 9e3e 4932 9f3d
00000270: 9be0 74be bc00 92be d8b2 af3e fc42 8f3e
00000280: 0ba5 33be b8e2 adbd 962a ac3e ac86 af3d
00000290: 6893 5fbd 37e6 98bc eade b1be bd18 efbd
000002a0: 34b3 2abe da44 2cbd a9ef 6f3e abbc 52ba
000002b0: f80d c33d 2fe3 9e3e fdba 0e3e 4614 8cbe
000002c0: e5d6 dcbd bd3d 143d f0e7 a1be ba2e 0a3e
000002d0: 48f3 17be baf2 9c3d a2e5 b2be 9c15 08bf
000002e0: 15db 4abe 3da4 12be 82cc 043d fb51 863e
000002f0: 612d bebd 61a5 8b3b 849b 24bd 3844 b43d
00000300: 4366 5abd 5621 bcbe 7df8 fa3d 9d6d 88bc
00000310: d963 6dbd d3c1 89bd 48ce 2f3d e643 d9bd
00000320: 3943 2fbe 55fe c3be 93fa ecbd ecd9 edbd
00000330: fd6e d03d 9326 d8be b605 abbe f307 c6be
00000340: 0b35 afbe b9b7 33bd 7faa 533d a8bc e8be
00000350: 8947 74bd 3875 0bbf ca73 423e 169e 54be
00000360: d78a 6b3e fddb d63d 26f2 ffbe 666d c8bc
00000370: 068c af3d ecf8 ae3e acdd 37bd b64d 8e3d
00000380: cbe8 8f3d 9daf 71bd 3317 05bf 5a97 a73d
00000390: 729f 353e a823 4c3e eebe 0fbf dfc7 9b3e
000003a0: c682 27be 0588 71be 9dda d9be 2d6f 2c3e
000003b0: c839 023f 7c4c b83e af37 a0be b260 7a3e
000003c0: 3878 8dbe aa97 e33d 1485 20be a83a 0f3e
000003d0: 7b73 af3e 0aaf 1cbe e7f4 463e be6c 9abc
000003e0: 6407 84be 7811 21be 7026 6abe 48af 233d
000003f0: 9415 2bbe 7407 b2be 6e0f ad3e 3a85 0e3d

Operation_2_B f4 [50]
-0.063078284 -0.12766325 -0.38625157 -0.045379836 -0.05736202 -0.05971632 0.012192325 0.047225635
0.117553085 0.21836866 0.10604351 0.041125126 -0.0916689 0.07472312 -0.16044082 0.08559193
0.11779382 -0.27466482 0.17764442 -0.19935966 0.06992765 0.043714426 0.10526768 -0.14971282
0.123513356 -0.10429298 0.10766667 0.059840206 0.011180627 -0.2198242 0.19262901 0.024341293
0.17704983 0.11930304 0.032607205 -0.03255116 -0.08452175 0.08009871 -0.13033108 -0.54762655
0.344682 0.039915644 -0.06301437 -0.00064099807 0.04836892 0.10468574 0.13840063 -0.09293541
0.085607596 0.15923412
00000000: 302f 81bd 28ba 02be c4c2 c5be 35e0 39bd
00000010: 70f4 6abd 1a99 74bd 51c2 473c ab6f 413d
00000020: acbf f03d 099c 5f3e 572d d93d d272 283d
00000030: e7bc bbbd 6f08 993d 994a 24be d24a af3d
00000040: e33d f13d dea0 8cbe 6be8 353e f024 4cbe
00000050: 3a36 8f3d e60d 333d 9596 d73d 514e 19be
00000060: 92f4 fc3d 8f97 d5bd 5880 dc3d 011b 753d
00000070: f32e 373c 9819 61be 8a40 453e 6467 c73c
00000080: 8d4c 353e 2755 f43d 228f 053d 5d54 05bd
00000090: bd19 adbd cb0a a43d 8375 05be 4131 0cbf
000000a0: 297a b03e 967e 233d ae0d 81bd a708 28ba
000000b0: 7d1e 463d 7a65 d63d e5b8 0d3e ec54 bebd
000000c0: 0953 af3d 450e 233e

Operation_3_W f4 [50, 50]
-0.19891201 -0.21620242 -0.2758907 -0.06927528 0.15255505 -0.15996249 -0.1731773 -0.25901774
-0.17294492 0.054039516 0.21310148 -0.42071685 0.16118714 -0.05997124 -0.010468563 -0.030300422
-0.12460124 -0.30712324 0.22145015 -0.34118775 -0.39718127 -0.04118376 -0.20706722 -0.24658367
0.31968597 -0.03717009 -0.02954189 -0.005950325 -0.16326159 -0.3965451 0.042556956 -0.2258131
-0.19694342 0.082521155 0.1675868 -0.28030273 -0.09058773 -0.14848354 -0.13400106 -0.052687496
-0.4188046 0.017603857 -0.26661333 -0.34389558 -0.008116484 0.02594027 -0.19884107 0.047205523
-0.44426575 -0.07090095 0.2659443 0.106298305 -0.06634775 0.19496208 -0.4495276 -0.31652197
-0.2073009 -0.14709161 0.23379411 -0.1274663 -0.62418383 -0.069823205 0.25579056 -0.024264434
0.11520918 -0.3689738 0.004299132 -0.11422637 -0.12903047 -0.0072162035 -0.19176643 0.28819057
-0.33060715 -0.12792908 0.049387705 -0.4944929 0.5890526 -0.3668064 -0.63421553 0.37138253
-0.12798996 -0.13769731 -0.035086907 0.15833998 -0.29993597 0.08314977 -0.084293865 0.22113077
0.062102396 -0.031834386 0.21061748 -0.004519353 -0.38695583 -0.07114811 -0.46078 -0.2771141
-0.061731532 -0.063845016 -0.20321779 -0.3231216 -0.088029474 0.05871051 0.2747183 -0.3069179
-0.3739991 -0.32332745 -0.0046621496 -0.011830331 -0.21478224 0.07941212 0.1052336 0.2742153
0.10373075 -0.03630319 0.034548778 -0.004637043 -0.02903792 0.16027468 0.08270582 -0.30219144
0.11594645 -0.271182 0.35951018 -0.15050416 -0.2815679 -0.05043959 -0.0041764905 -0.25236836
-0.19682233 0.11268015 -0.12886776 -0.26312825 0.019347537 -0.0907251 0.33508736 -0.31587026
-0.12574066 0.23957501 -0.26004612 -0.07608453 -0.08933238 0.100038104 0.2965834 -0.1881133
0.3437668 -0.06267879 -0.6315007 0.002503403 -0.34177548 -0.17221516 -0.05544595 0.037204616
0.23095585 -0.008318578 -0.5865849 -0.1919078 -0.1961251 0.14328393 -0.009859412 -0.664856
-0.148695 0.036044333 -0.21095422 0.014225654 -0.15009852 -0.32309827 -0.015222355 0.48104593
-0.1823094 0.08774175 -0.10503326 -0.39896724 0.102905124 0.13341947 -0.35292774 0.07810746
0.45143232 -0.110927545 0.12749621 0.2735097 0.121210456 -0.28262487 -0.04643899 0.17369382
-0.47135118 0.1950794 -0.33969423 0.17234655 0.08007298 -0.025150813 0.12703443 -0.025292188
-0.053909466 -0.09329153 -0.43755433 0.03684889 0.26669115 -0.23337016 -0.21169363 -0.293884
-0.0011658492 -0.18114983 0.054891344 -0.11885632 0.03159473 -0.19828662 -0.2525006 0.14713816
-0.16681059 -0.13863988 -0.060319416 0.021763371 -0.028009096 0.15480298 0.06156503 -0.1296415
-0.2866623 0.022886042 -0.09406745 -0.01768725 -0.093480974 -0.21959658 -0.24767657 -0.26279417
-0.0027295358 0.09490993 0.070354775 0.05167495 -0.13712357 -0.118752025 -0.20340672 -0.11189642
-0.20517427 0.0047313217 -0.086721644 0.07343835 -0.19207393 -0.26063925 -0.09957565 0.033053186
-0.087989815 -0.20232114 -0.043727905 -0.1791812 -0.0088240765 -0.16804981 -0.17666002 -0.28984383
-0.3834791 -0.04140547 -0.072656006 -0.35959888 -0.4308796 0.18254548 -0.056900375 0.14989054
00000000: 97af 4bbe 2b64 5dbe 8c41 8dbe 33e0 8dbd
00000010: 6437 1c3e 35cd 23be 6455 31be f99d 84be
00000020: 7918 31be 8a58 5d3d 4637 5a3e 3368 d7be
00000030: 3e0e 253e 67a4 75bd 5684 2bbc 9738 f8bc
00000040: ef2e ffbd 423f 9dbe d4c3 623e 29b0 aebe
00000050: 585b cbbe 4db0 28bd 6e09 54be 6e80 7cbe
00000060: e1ad a33e aa3f 18bd d501 f2bc f2fa c2bb
00000070: 0c2e 27be f607 cbbe 3450 2e3d 8d3b 67be
00000080: 89ab 49be da00 a93d e09b 2b3e d783 8fbe
00000090: 0f86 b9bd 120c 18be 9337 09be d8ce 57bd
000000a0: 8e6d d6be f735 903c 8b81 88be 1513 b0be
000000b0: 00fb 04bc b080 d43c fe9c 4bbe 945a 413d
000000c0: cd76 e3be 8434 91bd da29 883e edb2 d93d
000000d0: 54e1 87bd 24a4 473e 7b28 e6be 2b0f a2be
000000e0: b046 54be 2f9f 16be b967 6f3e 8786 02be
000000f0: 83ca 1fbf 78ff 8ebd fbf6 823e 35c6 c6bc
00000100: caf2 eb3d 22ea bcbe bcdf 8c3b 84ef e9bd
00000110: 9020 04be e775 ecbb 6b5e 44be b78d 933e
00000120: 5745 a9be d7ff 02be c34a 4a3d 2c2e fdbe
00000130: 27cc 163f 0cce bbbe f35b 22bf da25 be3e
00000140: cd0f 03be 8600 0dbe 4ab7 0fbd e023 223e
00000150: 3591 99be 6d4a aa3d 43a2 acbd 1b70 623e
00000160: 155f 7e3d c664 02bd 1cac 573e 1517 94bb
00000170: 131f c6be 1ab6 91bd 5beb ebbe e6e1 8dbe
00000180: 34da 7cbd 2dc1 82bd 5318 50be 3270 a5be
00000190: cc48 b4bd 6f7a 703d e1a7 8c3e 5824 9dbe
000001a0: cf7c bfbe 2d8b a5be f2c4 98bb 01d4 41bc
000001b0: e0ef 5bbe d2a2 a23d b784 d73d f365 8c3e
000001c0: ca70 d43d a7b2 14bd 0583 0d3d 56f2 97bb
000001d0: efe0 edbc 0c1f 243e ab61 a93d d6b8 9abe
000001e0: 5575 ed3d 5ed8 8abe b811 b83e c31d 1abe
000001f0: ab29 90be be99 4ebd f1da 88bb 6d36 81be
00000200: cb8b 49be dac4 e63d e9f5 03be bfb8 86be
00000210: ba7e 9e3c 15ce b9bd 9290 ab3e bfb9 a1be
00000220: 29c2 00be 2753 753e c424 85be 35d2 9bbd
00000230: e5f3 b6bd c7e0 cc3d c8d9 973e c6a0 40be
00000240: 3402 b03e bd5d 80bd 08aa 21bf 2210 243b
00000250: 32fd aebe 2c59 30be 4b1b 63bd de63 183d
00000260: b17f 6c3e a54a 08bc 6e2a 16bf 7a83 44be
00000270: 05d5 48be 06b9 123e 5f89 21bc 0134 2abf
00000280: 8143 18be 39a3 133d 6204 58be b812 693c
00000290: 6db3 19be 236d a5be 2f67 79bc a74b f63e
000002a0: 51af 3abe f2b1 b33d ae1b d7bd 6f45 ccbe
000002b0: ecbf d23d 1d9f 083e f2b2 b4be cef6 9f3d
000002c0: 2322 e73e fb2d e3bd 5e8e 023e 7709 8c3e
000002d0: 303d f83d 35b4 90be cf36 3ebd cbdc 313e
000002e0: f154 f1be e5c2 473e 67ec adbe 9d7b 303e
000002f0: 4dfd a33d 1409 cebc 5015 023e 9031 cfbc
00000300: 2cd0 5cbd a10f bfbd 1f07 e0be ddee 163d
00000310: be8b 883e 96f8 6ebe 37c6 58be f777 96be
00000320: 68cf 98ba 577f 39be bfd5 603d f16a f3bd
00000330: 7a69 013d a60b 4bbe c247 81be 63ab 163e
00000340: 65d0 2abe 9df7 0dbe 7e11 77bd 1949 b23c
00000350: 5573 e5bc ac84 1e3e 9d2b 7c3d bec0 04be
00000360: 67c5 92be 827b bb3c 6fa6 c0bd dae4 90bc
00000370: f472 bfbd eddd 60be ed9e 7dbe f58c 86be
00000380: 03e2 32bb 2360 c23d 2a16 903d 1da9 533d
00000390: 1f6a 0cbe 4334 f3bd da49 50be f329 e5bd
000003a0: 3419 52be 3409 9b3b 1e9b b1bd d866 963d
000003b0: 07af 44be 8272 85be 52ee cbbd c762 073d
000003c0: 0134 b4bd 462d 4fbe 081c 33bd 477b 37be
000003d0: dc92 10bc 4015 2cbe 5de6 34be 6966 94be
000003e0: 5f57 c4be c898 29bd accc 94bd 581d b8be
000003f0: 409c dcbe 34ed 3a3e 5e10 69bd e87c 193e

Operation_3_B f4 [50]
-0.02138853 0.09911116 0.14292322 -0.16876619 -0.035163894 0.09296509 0.030298023 0.10517619
0.2775026 -0.14387035 0.19192278 0.17500427 0.022363268 0.17156102 -0.114730105 -0.21181943
0.024003694 0.26125097 0.14229791 -0.0956048 -0.14939632 -0.03587772 -0.030762888 0.23757845
-0.5611186 -0.055760756 0.25004047 -0.11429296 -0.19429137 0.0558092 0.041025333 0.12980346
0.29105943 0.02522764 0.16587038 -0.2507471 0.17199169 0.15852956 0.3799346 -0.108064376
0.23327641 0.120667115 0.005790392 0.052270412 -0.035166964 -0.15987444 0.12127381 0.1249349
-0.17054097 0.23949558
00000000: 0037 afbc cbfa ca3d 775a 123e 0bd1 2cbe
00000010: 0408 10bd 7b64 be3d 8f33 f83c 9d66 d73d
00000020: d214 8e3e c052 13be 6887 443e 5234 333e
00000030: 2c33 b73c b1ad 2f3e 9ef7 eabd 31e7 58be
00000040: 65a3 c43c b0c2 853e 8bb6 113e 73cc c3bd
00000050: 59fb 18be 84f4 12bd 7402 fcbc c447 733e
00000060: 78a5 0fbf 6465 64bd 4e05 803e 6d12 eabd
00000070: 51f4 46be 3098 643d 2e0a 283d 33eb 043e
00000080: be05 953e 32aa ce3c edd9 293e ed61 80be
00000090: 971e 303e 9355 223e ca86 c23e db50 ddbd
000000a0: 03e0 6e3e 5220 f73d 54bd bd3b 8019 563d
000000b0: 3c0b 10bd 20b6 23be 675e f83d dedd ff3d
000000c0: 4ba2 2ebe 543e 753e

Operation_4_W f4 [50, 50]
-0.26938948 -0.032105036 0.02564297 0.048091777 0.06699733 -0.050283194 -0.10692977 0.09535837
0.12102351 0.22269556 -0.08515947 -0.12960781 0.1284723 -0.12949523 0.1734944 0.22130054
-0.12722468 -0.12228244 -0.22946893 -0.11722895 -0.03515094 0.10604228 -0.14106661 -0.18320973
-0.2787567 0.13237037 -0.91560405 -0.08854563 -0.0035783462 -0.16550338 0.31303015 0.04258248
0.16933002 -0.43695667 -0.30742916 -0.14267735 -0.030265855 -0.056080945 -0.1400486 -0.16801642
-0.22492106 -0.170711 0.074272364 -0.19048025 -0.088511854 -0.24159615 0.03256303 -0.2739487
-0.0034032755 0.10442254 -0.34155643 -0.1927365 -0.15548483 -0.53735006 0.15867446 -0.11987399
-0.06911052 -0.1116764 -0.06703453 -0.21003334 -0.00830342 -0.0076358877 -0.08097087 -0.1857392
0.15970056 0.012441114 -0.065114126 0.12734425 0.057241496 -0.21294294 0.0065093 -0.19560201
0.064275995 -0.087853186 -0.28976306 -0.17534252 -0.06902441 -0.04912386 -0.018418692 -0.08966854
0.06255836 0.15999945 0.09143978 -0.44271383 -0.36023664 0.102844484 0.16141997 -0.2934885
0.18877201 -0.05985999 -0.22342673 -0.37092605 0.025938405 -0.28627533 -0.30916527 -0.24250558
-0.2758258 0.24038115 0.089154676 0.09251819 -0.2102732 0.01929335 -0.25638515 0.0084359655
-0.16281441 -0.19162337 -0.05844548 0.103504695 0.14249398 -0.34275588 -0.00041500194 -0.18798375
-0.0012838879 0.121416815 -0.109635435 -0.18261686 0.0447232 0.112309985 0.011430125 -0.4602583
-0.03098074 0.047416106 0.020852875 0.034963295 0.054494794 -0.36838117 0.26172972 0.054606795
0.0013121745 -0.02784633 0.09170553 -0.1124702 0.07112473 -0.087025 -0.040740326 0.0501064
-0.0021471186 -0.1445336 -0.10268585 -0.15660569 -0.37307337 -0.369807 0.17386812 -0.10295162
-0.0720383 -0.2069332 0.07830456 -0.009965143 -0.14955443 0.040290546 -0.024784908 0.015120624
0.09309428 -0.1502743 -0.1462477 -0.09685476 -0.07932526 0.23945676 0.016410684 -0.15287042
0.011359128 -0.21802776 -0.09871887 -0.061947364 0.025348734 0.22275575 0.025602093 -0.0017086176
0.021133455 -0.17756255 0.15428056 0.16125645 0.049872868 0.05679631 0.07497959 -0.21215439
0.010840262 0.1156078 0.2816057 0.04636973 -0.051919587 -0.09244595 0.09960501 -0.40757927
0.05251668 -0.08891352 0.07033586 0.5068479 0.1490122 -0.24074584 -0.025603216 -0.37975755
-0.035318274 0.26104754 0.3613515 -0.45474115 0.2042656 -0.15688553 -0.0018459557 -0.23025456
-0.16943505 -0.04225979 -0.0957683 0.19684201 0.089252256 -0.14300187 -0.1214154 -0.038161676
0.07436477 -0.06152026 0.11773982 -0.14502725 0.09287423 0.39755216 0.04891458 0.046502464
-0.31850585 0.06834286 -0.11796995 -0.074075945 -0.3758201 -0.19474751 -0.07219091 0.05152896
-0.09810489 -0.046516463 0.23992902 0.21080129 0.14563109 0.06859302 0.055695307 0.15350877
0.08902118 -0.15766577 -0.10306317 -0.05370171 -0.05202043 0.22648954 -0.21100092 -0.12791106
-0.15123047 -0.16210705 0.019824104 0.1898933 0.04103988 -0.2877032 -0.05017656 0.09437539
-0.05733232 -0.2727349 -0.22095609 -0.24094605 -0.4477514 -0.53056616 0.023573136 0.062338635
00000000: 6bed 89be 9280 03bd 3511 d23c e2fb 443d
00000010: e535 893d c0f5 4dbd fffd dabd 404b c33d
00000020: 2ddb f73d 4e0a 643e 1768 aebd e9b7 04be
00000030: 3e8e 033e 669a 04be 84a8 313e 9c9c 623e
00000040: 3047 02be 376f fabd e7f9 6abe bb15 f0bd
00000050: 6ffa 0fbd b22c d93d c473 10be 559b 3bbe
00000060: 33b9 8ebe 198c 073e 0765 6abf 6957 b5bd
00000070: b082 6abb b879 29be 7d45 a03e f76a 2e3d
00000080: d964 2d3e c9b8 dfbe 5b67 9dbe 031a 12be
00000090: 19f0 f7bc 22b5 65bd e668 0fbe 7f0c 2cbe
000000a0: b551 66be ddce 2ebe 1c1c 983d 410d 43be
000000b0: b445 b5bd fb64 77be d060 053d 0143 8cbe
000000c0: 7d09 5fbb 7cdb d53d 7ce0 aebe b85c 45be
000000d0: 6a37 1fbe c68f 09bf 8f7b 223e 7f80 f5bd
000000e0: d189 8dbd 99b6 e4bd 6649 89bd fb12 57be
000000f0: 110b 08bc 7836 fabb 0ed4 a5bd 6b32 3ebe
00000100: 8b88 233e d0d5 4b3c 8e5a 85bd 8866 023e
00000110: 0f76 6a3d b70d 5abe f74b d53b e54b 48be
00000120: 22a3 833d 5fec b3bd d35b 94be fd8c 33be
00000130: ab5c 8dbd 1a36 49bd cce2 96bc 24a4 b7bd
00000140: 991e 803d e5d6 233e c844 bb3d 63ab e2be
00000150: f070 b8be 21a0 d23d 474b 253e 2044 96be
00000160: 734d 413e c02f 75bd fac9 64be 05ea bdbe
00000170: c77c d43c ae92 92be e94a 9ebe 6253 78be
00000180: 0a39 8dbe 7a26 763e ba96 b63d 2d7a bd3d
00000190: dc51 57be 160d 9e3c ea44 83be 0137 0a3c
000001a0: d2b8 26be eb38 44be 8764 6fbd 45fa d33d
000001b0: f1e9 113e b37d afbe 9e94 d9b9 d07e 40be
000001c0: 2148 a8ba 61a9 f83d 8b88 e0bd eaff 3abe
000001d0: ad2f 373d c702 e63d 6b45 3b3c faa6 ebbe
000001e0: 52cb fdbc 6437 423d a6d3 aa3c ac35 0f3d
000001f0: ef35 5f3d 759c bcbe 7001 863e 60ab 5f3d
00000200: 45fd ab3a fd1d e4bc 1cd0 bb3d c756 e6bd
00000210: d8a9 913d 2a3a b2bd 54df 26bd 5e3c 4d3d
00000220: acb6 0cbb 9e00 14be f54c d2bd 3e5d 20be
00000230: 7903 bfbe 5857 bdbe 7c0a 323e 4dd8 d2bd
00000240: d188 93bd 4ce6 53be 245e a03d d744 23bc
00000250: cc24 19be b307 253d b809 cbbc 7ebc 773c
00000260: 37a8 be3d 82e1 19be f5c1 15be ca5b c6bd
00000270: 4875 a2bd 2734 753e b36f 863c 108a 1cbe
00000280: a31b 3a3c ab42 5fbe 1e2d cabd 85bc 7dbd
00000290: 26a8 cf3c 151a 643e 7bbb d13c b1f3 dfba
000002a0: 1120 ad3c f5d2 35be b9fb 1d3e 6920 253e
000002b0: 7e47 4c3d 3fa3 683d e68e 993d 003f 59be
000002c0: 5b9b 313c c8c3 ec3d 9f2e 903e 30ee 3d3d
000002d0: a2a9 54bd 4d54 bdbd b6fd cb3d 3bae d0be
000002e0: bb1b 573d 4b18 b6bd 3f0c 903d c9c0 013f
000002f0: a796 183e 1486 76be d6bd d1bc 956f c2be
00000300: e5a9 10bd 06a8 853e 1003 b93e d5d3 e8be
00000310: 002b 513e 9aa6 20be fff3 f1ba dac7 6bbe
00000320: 6280 2dbe 9a18 2dbd 2c22 c4bd f490 493e
00000330: e3c9 b63d 156f 12be a3a8 f8bd 6b4f 1cbd
00000340: 8e4c 983d abfc 7bbd 9321 f13d 0682 14be
00000350: d834 be3d f58b cb3e a85a 483d 5e79 3e3d
00000360: 3313 a3be 57f7 8b3d 3b9a f1bd 21b5 97bd
00000370: 7e6b c0be e46b 47be d4d8 93bd 0810 533d
00000380: 37eb c8bd 0c88 3ebd f4af 753e 4bdc 573e
00000390: 5120 153e 7f7a 8c3d c320 643d 6731 1d3e
000003a0: bd50 b63d 2373 21be c912 d3bd 53f6 5bbd
000003b0: 6013 55bd e0ec 673e a010 58be 1efb 02be
000003c0: 29dc 1abe 64ff 25be 2966 a23c 6473 423e
000003d0: 6f19 283d d54d 93be f085 4dbd e247 c13d
000003e0: 4bd5 6abd e9a3 8bbe 5042 62be 90ba 76be
000003f0: ac3f e5be 2fd3 07bf 731c c13c cc56 7f3d

Operation_4_B f4 [50]
0.19343922 0.3497393 0.37373847 0.4239121 0.40845698 -0.54234546 0.37260917 0.21136445
-0.50857615 0.4356587 0.28954038 0.49499068 0.32905337 -0.48635283 -0.19512822 -0.04969629
-0.44925764 0.005305638 0.43746808 -0.39011595 0.34512043 -0.19979465 0.1667429 0.48042762
0.13967681 0.043519013 0.3843785 0.33972996 0.5012176 0.047981735 -0.22506168 0.04098177
-0.09198142 0.43166167 0.10864828 -0.016607106 0.28847343 -0.051399007 -0.35722244 -0.34337872
0.05062367 -0.2381537 -0.07931745 -0.008863707 0.31585625 0.2160992 0.3720343 -0.30270714
0.3385152 -0.18052624
00000000: ee14 463e 0811 b33e a65a bf3e 020b d93e
00000010: 4621 d13e 27d7 0abf a1c6 be3e ec6f 583e
00000020: 0c32 02bf a80e df3e a33e 943e 6b6f fd3e
00000030: af79 a83e 3d03 f9be b1cf 47be 568e 4bbd
00000040: 1905 e6be ebda ad3b d1fb df3e 47bd c7be
00000050: a0b3 b03e f896 4cbe a7be 2a3e 9cfa f53e
00000060: 7007 0f3e fe40 323d 42cd c43e 16f1 ad3e
00000070: cc4f 003f 7f88 443d 9276 66be 80dc 273d
00000080: c160 bcbd c202 dd3e fd82 de3d a00b 88bc
00000090: cab2 933e c487 52bd dce5 b6be 56cf afbe
000000a0: c45a 4f3d 90de 73be 3071 a2bd 1539 11bc
000000b0: e9b7 a13e 1c49 5d3e 487b be3e 6efc 9abe
000000c0: dd51 ad3e dfdb 38be

Operation_5_W f4 [50, 50]
-0.12303182 -0.17089057 -0.1215214 0.24423267 0.10557635 -0.30261993 -0.030248066 0.20351604
-0.19005637 -0.032388788 0.17904717 0.2746964 0.025960686 0.071734644 -0.0072005987 0.05072372
0.012408208 -0.46448624 0.078273274 0.0651401 0.27832207 0.16785577 -0.13299122 0.048981044
-0.16882855 0.1808277 0.0776114 0.1765512 0.095100716 -0.07883358 0.018709673 -0.15636842
-0.010486564 -0.10739919 0.06613894 0.32850218 -0.018114224 0.055622406 -0.1240419 -0.104784116
-0.22571845 -0.1952646 -0.010363493 -0.085406855 0.19102459 -0.12345691 0.10045304 0.20556125
-0.12059572 0.069947556 0.19143887 0.016433727 0.15765554 -0.07429583 0.20572007 -0.209469
-0.006766088 -0.07750031 -0.092764795 -0.07996691 0.022005005 0.31025717 0.06016206 0.1417465
0.20127273 0.123678416 -0.036931243 -0.1392871 0.11845469 0.0639288 -0.019575477 -0.0030099745
-0.14328387 -0.07216356 -0.13520521 -0.12646125 0.06771764 -0.07219431 0.21734656 0.105675384
-0.13294137 -0.020742752 0.014436686 -0.17157777 -0.27281666 0.020250563 0.10518303 0.10657901
0.14855829 0.2121329 -0.09092736 -0.17810903 -0.2740827 -0.009948088 0.18274178 -0.044235837
0.095706984 -0.20949951 0.15885836 -0.17094134 0.08064995 0.1450337 -0.060287546 0.1668775
0.20789926 -0.021904284 0.18363306 0.2066221 -0.110220596 0.058270138 0.14125387 0.15469866
-0.032090783 0.010356893 0.14064656 -0.08646438 -0.03533856 -0.13150364 0.055411603 -0.2023318
0.24484496 0.09320364 0.0740562 0.26592392 -0.10055419 -0.31696674 0.19212838 -0.054444175
0.08115342 -0.12944524 0.27474347 0.122531354 0.13855192 -0.043631833 0.11547338 -0.013778492
0.1766288 -0.040706817 -0.08396013 -0.1874266 -0.11759463 -0.3039114 -0.027583994 0.107544884
0.22851963 -0.08124289 -0.0185406 -0.21010445 -0.07779778 -0.05741726 0.31567764 -0.10507756
-0.17700347 0.15435253 -0.13947372 -0.17006889 -0.0021199859 -0.12255844 -0.17878155 0.3351903
-0.28865123 -0.63905334 -0.18344595 -0.34550092 -0.18214025 0.23945454 0.281747 -0.06227782
0.30365068 0.23695303 0.040448695 0.21465622 -0.4171152 -0.34934762 0.20286718 0.3445664
0.12624791 -0.04819672 0.089009665 -0.15644327 -0.3109456 -0.37778234 0.10104974 0.19629073
0.22138204 -0.02186484 -0.054074273 -0.10632882 -0.2900407 -0.0740958 0.091310956 0.3314659
0.446106 -0.5703937 0.19756074 0.03149059 0.029995505 0.16609311 -0.20621198 0.029078262
0.05497517 -0.079183176 0.11034173 0.07611405 0.22417475 -0.2077566 -0.09451688 -0.09074511
-0.29268557 -0.0435347 -0.13400638 0.26889804 -0.040618148 -0.08286768 -0.067351855 -0.07464788
-0.2504785 -0.5564309 -0.15021734 0.12105844 0.07810201 -0.133128 -0.011808431 0.08884587
-0.21452019 0.099478744 -0.03823432 -0.14902884 0.1262432 0.1720581 -0.059845723 -0.039243307
-0.32360262 0.23845138 -0.0031973524 -0.28047904 -0.010743558 -0.32235134 -0.005248304 -0.09592289
-0.06379293 0.025607655 0.14294365 0.027583826 0.11827263 0.08084673 -0.17459953 0.11471729
0.32515442 -0.13613719 0.28808618 0.18075408 0.078983575 -0.09834134 -0.07128331 -0.18247306
00000000: 1bf8 fbbd f0fd 2ebe 36e0 f8bd 2118 7a3e
00000010: 6a38 d83d 00f1 9abe cbca f7bc 8266 503e
00000020: 239e 42be 1baa 04bd 2458 373e 02a5 8c3e
00000030: 81ab d43c 9de9 923d 00f3 ebbb adc3 4f3d
00000040: cc4b 4b3c 24d1 edbe bd4d a03d 2c68 853d
00000050: 3b80 8e3e 62e2 2b3e da2e 08be 59a0 483d
00000060: 64e1 2cbe e62a 393e baf2 9e3d d6c9 343e
00000070: 2ac4 c23d 8073 a1bd 0745 993c 0b1f 20be
00000080: d6cf 2bbc 1bf4 dbbd da73 873d 7031 a83e
00000090: 4864 94bc 52d4 633d ae09 febd 0e99 d6bd
000000a0: bd22 67be 71f3 47be a4cb 29bc cae9 aebd
000000b0: f39b 433e fad6 fcbd 53ba cd3d a67e 523e
000000c0: e4fa f6bd aa40 8f3d 8d08 443e 06a0 863c
000000d0: 7470 213e 6a28 98bd 48a8 523e 0b7f 56be
000000e0: 0fb6 ddbb 7cb8 9ebd 78fb bdbd b1c5 a3bd
000000f0: d743 b43c 07da 9e3e 7e6c 763d ff25 113e
00000100: 701a 4e3e 1c4b fd3d 3745 17bd 47a1 0ebe
00000110: 5f98 f23d 1aed 823d c05c a0bc fe42 45bb
00000120: 02b9 12be 7dca 93bd 3c73 0abe 0f7f 01be
00000130: 8caf 8a3d 9cda 93bd 1990 5e3e 566c d83d
00000140: c821 08be b4ec a9bc da87 6c3c 15b2 2fbe
00000150: a0ae 8bbe 82e4 a53c 336a d73d 1946 da3d
00000160: aa1f 183e 5e39 593e 2038 babd 3762 36be
00000170: 9154 8cbe 4efd 22bc a920 3b3e a330 35bd
00000180: 0602 c43d 0a87 56be c4ab 223e 3f0b 2fbe
00000190: cd2b a53d b783 143e 13f0 76bd efe1 2a3e
000001a0: 8be3 543e 9d70 b3bc 4e0a 3c3e be94 533e
000001b0: 56bb e1bd abac 6e3d dba4 103e 5369 1e3e
000001c0: a071 03bd f5af 293c a705 103e 3d14 b1bd
000001d0: 2abf 10bd e4a8 06be 47f7 623d 1130 4fbe
000001e0: a3b8 7a3e 8de1 be3d c7aa 973d 2e27 883e
000001f0: 5bef cdbd 7749 a2be 4dbd 443e db00 5fbd
00000200: c433 a63d 4b8d 04be 2dab 8c3e b8f1 fa3d
00000210: 8ee0 0d3e 4bb7 32bd 4f7d ec3d 2fbf 61bc
00000220: 2ede 343e 31bc 26bd 4af3 abbd c2ec 3fbe
00000230: 74d5 f0bd 469a 9bbe d4f7 e1bc 7e40 dc3d
00000240: 0d01 6a3e ac62 a6bd 75e2 97bc 9f25 57be
00000250: 7154 9fbd 5c2e 6bbd 80a0 a13e e732 d7bd
00000260: 6640 35be 970e 1e3e 33d2 0ebe 8a26 2ebe
00000270: 76ef 0abb ebff fabd 8312 37be 109e ab3e
00000280: 18ca 93be 0099 23bf 41d9 3bbe 7fe5 b0be
00000290: f982 3abe 9233 753e 2541 903e 0717 7fbd
000002a0: 1a78 9b3e d1a3 723e 88ad 253d d7ce 5b3e
000002b0: 2090 d5be b1dd b2be 6abc 4f3e 026b b03e
000002c0: 2247 013e ed69 45bd b34a b63d aa32 20be
000002d0: 4334 9fbe b06c c1be 2bf3 ce3d 7000 493e
000002e0: f9b1 623e e51d b3bc fc7c 5dbd edc2 d9bd
000002f0: 3780 94be 8abf 97bd 3d01 bb3d e6b5 a93e
00000300: 0168 e43e 5205 12bf 5d4d 4a3e 47fc 003d
00000310: 22b9 f53c 5014 2a3e 3c29 53be 8935 ee3c
00000320: a52d 613d ca2a a2bd d8fa e13d afe1 9b3d
00000330: 118e 653e 25be 54be 1192 c1bd 92d8 b9bd
00000340: e2da 95be 7151 32bd f838 09be 01ad 893e
00000350: 375f 26bd 88b6 a9bd c5ef 89bd fde0 98bd
00000360: b83e 80be 4172 0ebf 93d2 19be 7ded f73d
00000370: f2f3 9f3d b552 08be 2678 41bc d3f4 b53d
00000380: 2eab 5bbe 83bb cb3d 979b 1cbd 049b 18be
00000390: e645 013e 0030 303e ca20 75bd 97bd 20bd
000003a0: 3eaf a5be 992c 743e ac8a 51bb f39a 8fbe
000003b0: c005 30bc 3c0b a5be f7f9 abbb 3873 c4bd
000003c0: dea5 82bd 25c7 d13c d25f 123e 7af7 e13c
000003d0: ec38 f23d f892 a53d 38ca 32be e6f0 ea3d
000003e0: a47a a63e 8c67 0bbe 0880 933e 9917 393e
000003f0: 24c2 a13d 2f67 c9bd fcfc 91bd 38da 3abe

Operation_5_B f4 [50]
0.48790616 0.48145962 0.52239776 -0.35529014 0.5453426 0.4736457 0.47651055 -0.5721666
-0.17787288 -0.15858524 -0.041983757 -0.34985933 0.5408809 0.51402456 0.5120117 -0.13704652
0.4955363 0.41699493 -0.38174823 0.15636086 0.49859938 -0.20756188 -0.5592232 0.5220657
-0.115637414 -0.07095727 0.44685858 0.17392282 0.49752674 -0.24783865 0.45679802 -0.60253155
0.515923 -0.204494 -0.03409114 -0.15162145 -0.4220443 0.51183903 -0.22230355 -0.2570853
0.5181788 -0.08082966 0.49765298 -0.28951955 -0.12014417 -0.53807884 0.08941391 0.18666191
0.50113755 -0.6185767
00000000: d6ce f93e e081 f63e dcbb 053f 97e8 b5be
00000010: 939b 0b3f b081 f23e 31f9 f33e 8379 12bf
00000020: 4f24 36be 2b64 22be 29f7 2bbd c320 b3be
00000030: 2c77 0a3f 1d97 033f 3313 033f ec55 0cbe
00000040: efb6 fd3e 5c80 d53e 8174 c3be 101d 203e
00000050: 6b48 ff3e 1a8b 54be 4029 0fbf 19a6 053f
00000060: 4fd3 ecbd 0c52 91bd a6ca e43e d318 323e
00000070: d3bb fe3e 6ac9 7dbe 6ee1 e93e 823f 1abf
00000080: 8813 043f e066 51be 27a3 0bbd a742 1bbe
00000090: 3116 d8be e207 033f 8ba3 63be afa0 83be
000000a0: 5ea7 043f 058a a5bd 5fcc fe3e e83b 94be
000000b0: 260e f6bd 89bf 09bf a41e b73d 4d24 3f3e
000000c0: 8d4a 003f 0b5b 1ebf

Operation_6_W f4 [1, 50]
0.12366647 0.20220749 0.26298577 -0.15167767 0.16121377 0.26970935 0.12432297 -0.34121576
0.012900575 -0.026429407 0.01558571 -0.30517694 0.3577321 0.13301635 0.32900444 -0.18204585
0.32425752 0.22644374 -0.045026723 -0.029565752 0.33898613 -0.43129206 -0.30190673 0.20650655
-0.10505606 -0.025923012 0.31369227 0.1029834 0.31664288 -0.057547003 0.11432641 -0.5093843
0.14971982 -0.15492116 0.2717021 -0.14413475 -0.28450298 0.24510695 -0.04847956 -0.10961272
0.28547135 -0.12433176 0.2636178 -0.26845214 0.007562428 -0.3093248 0.15829301 -0.3502937
0.11540114 -0.43610787
00000000: d944 fd3d 7b0f 4f3e 12a6 863e 6451 1bbe
00000010: 3915 253e 5817 8a3e 0b9d fe3d d5b3 aebe
00000020: ef5c 533c 7c82 d8bc 355b 7f3c 2740 9cbe
00000030: a928 b73e 7035 083e 4573 a83e 3a6a 3abe
00000040: 1505 a63e dee0 673e f16d 38bd e033 f2bc
00000050: 978f ad3e 50d2 dcbe 8593 9abe 7476 533e
00000060: a227 d7bd 7f5c d4bc 469c a03e f6e8 d23d
00000070: 041f a23e 68b6 6bbd f723 ea3d 0267 02bf
00000080: 2750 193e a7a3 1ebe 8a1c 8b3e 0f98 13be
00000090: 60aa 91be 51fd 7a3e 8192 46bd a27c e0bd
000000a0: 4d29 923e a6a1 febd eaf8 863e 8f72 89be
000000b0: 3ece f73b d25f 9ebe 9017 223e b259 b3be
000000c0: 6f57 ec3d 8849 dfbe
