engine/nnmt/ONNX/SingleCarPlant.onnx (onnx, 26485 bytes, 13 tensors)

input_AvgImg f4 [1, 1, 1, 7]
1.0 1.0 1.0 1.0 1.0 1.0 1.0
00000000: 0000 803f 0000 803f 0000 803f 0000 803f
00000010: 0000 803f 0000 803f 0000 803f

Operation_1_W f4 [30, 7]
-0.37226284 0.1422018 -0.03927874 -1.0331137 -1.4184413 0.24590196 0.70849377 1.741739
0.011510338 -0.07476355 -1.1361982 -0.198678 -0.14614935 0.8682124 -0.016859377 -0.47397238
-0.11138156 0.5176079 -0.5275223 -0.45815578 -0.19663954 0.59629697 0.39830717 -0.44405007
0.12130651 1.3835897 -0.24184948 0.62944627 -0.395525 -0.76059026 0.13298257 -0.07218
1.9174128 -0.8879923 1.716619 -0.3494726 0.7478758 0.56508726 0.5236621 -0.19069633
0.32046214 0.31600705 0.3418541 0.941418 -0.3920825 -0.96443635 -0.5990242 -1.6821078
0.44833004 0.93618685 -0.1979195 0.6923937 -0.35656264 0.5905429 0.6752567 0.44663295
-1.7676082 0.15735312 -0.9361085 -0.09579042 1.5674433 -0.67540884 0.017284015 0.18694907
0.12422271 0.12015521 -0.27666962 -2.1616747 0.7114167 0.98036796 0.79007685 -1.6416024
0.21836486 0.24895376 1.265441 -0.069878854 0.5232003 -0.06890507 -2.8105328 -0.49398214
-0.19620128 0.06540182 -0.68392336 -0.2680195 -1.4323442 0.7658142 -1.1539047 -0.04735225
0.6888032 -0.965889 0.23616205 0.07676227 -0.33271694 -0.17032672 0.6301862 2.5960827
-0.6968095 0.6820865 0.4114506 0.36829087 0.048484743 -1.4400496 -0.29596874 -2.731835
0.33262467 0.4295024 -0.024452876 -0.5852889 0.10355235 -0.37672704 -2.7365324 1.3127545
-1.0352725 0.0070276204 0.19555026 0.7638384 -0.93945813 0.6627131 -0.5205919 -0.19042434
-0.02819485 -2.0206354 0.040094413 -0.11421879 -1.577913 -0.18484734 -7.367592 0.18151277
0.013506328 0.058533918 -0.060378425 0.06948926 -0.7030158 -0.67772216 -0.3882983 0.8139025
0.8301866 0.12444945 -3.1292124 -0.34744152 -0.23036921 0.31603855 1.1140401 0.27177137
0.28134552 -2.4815671 0.7651807 0.044740885 0.3808198 -0.24798733 -0.49639872 0.4836742
0.8202295 0.90569764 0.0002628436 -0.20651037 0.6496126 0.026524452 0.74384874 0.46975076
1.0150319 -0.3858158 -0.6996048 0.11572209 -0.793834 -0.045759697 0.9618151 0.8744421
-0.13670595 0.1832255 -0.5894921 0.88859373 0.57751936 -1.1992458 -0.24510072 0.59567344
-0.6363494 1.0058217 0.7753509 -0.64808244 -1.1550534 0.3485134 0.9201137 0.19378737
0.2931413 -0.66786826 -0.9391881 0.92372566 0.7788744 1.5976853 -0.16776136 -0.14004214
-1.1577562 0.104201004 -0.26188186 0.16340756 -3.306165 -1.1803316 0.3683863 -0.0008528335
1.0239233 -0.36578274 0.22642668 -1.150803 0.24639729 -1.4472806 0.26358384 -0.58393085
-0.53963345 0.37379736
00000000: 3c99 bebe 599d 113e bee2 20bd 123d 84bf
00000010: 7c8f b5bf b9cd 7b3e d95f 353f 4ef1 de3f
00000020: db95 3c3c a21d 99bd f16e 91bf 3f72 4bbe
00000030: 2da8 15be 2b43 5e3f ad1c 8abc 82ac f2be
00000040: 041c e4bd f481 043f b40b 07bf 6593 eabe
00000050: e05b 49be eba6 183f ebee cb3e 885a e3be
00000060: 8c6f f83d 7819 b13f 64a7 77be 6423 213f
00000070: 4182 cabe 0bb6 42bf 952c 083e 1cd3 93bd
00000080: c86d f53f 7753 63bf 2cba db3f 13ee b2be
00000090: ca74 3f3f 8fa9 103f b80e 063f e645 43be
000000a0: 9d13 a43e adcb a13e 8007 af3e c500 713f
000000b0: 0abf c8be 4de5 76bf a659 19bf 4f4f d7bf
000000c0: 848b e53e f1a9 6f3f 69ab 4abe b740 313f
000000d0: 618f b6be d22d 173f a0dd 2c3f 13ad e43e
000000e0: fc40 e2bf 2d21 213e cfa4 6fbf c52d c4bd
000000f0: fba1 c83f 98e7 2cbf 3597 8d3c 946f 3f3e
00000100: 7a68 fe3d ef13 f63d a4a7 8dbe e158 0ac0
00000110: 681f 363f 65f9 7a3f 7a42 4a3f 0720 d2bf
00000120: 0a9b 5f3e bced 7e3e f8f9 a13f a51c 8fbd
00000130: 74f0 053f 1a1e 8dbd c5df 33c0 3aeb fcbe
00000140: fde8 48be 64f1 853d 9a15 2fbf da39 89be
00000150: 0e57 b7bf 660c 443f 26b3 93bf 6ff4 41bd
00000160: 6855 303f 8044 77bf 77d4 713e 8935 9d3d
00000170: e059 aabe 216a 2ebe e253 213f 3826 2640
00000180: 1b62 32bf 399d 2e3f a7a9 d23e 9f90 bc3e
00000190: f097 463d 8c53 b8bf 3789 97be 62d6 2ec0
000001a0: c84d aa3e bde7 db3e 6651 c8bc 7ed5 15bf
000001b0: 4113 d43d 5ee2 c0be 5923 2fc0 5708 a83f
000001c0: cf83 84bf f447 e63b 543e 483e ea8a 433f
000001d0: 5480 70bf 91a7 293f 8345 05bf 99fe 42be
000001e0: e3f8 e6bc 1752 01c0 0a3a 243d 8aeb e9bd
000001f0: 0ef9 c9bf 9f48 3dbe 50c3 ebc0 7cde 393e
00000200: a549 5d3c 43c1 6f3d 5e4f 77bd 6350 8e3d
00000210: d8f8 33bf 337f 2dbf 09cf c6be ea5b 503f
00000220: 1c87 543f 5adf fe3d 0445 48c0 dbe3 b1be
00000230: e8e5 6bbe cecf a13e de98 8e3f 9e25 8b3e
00000240: 850c 903e ffd1 1ec0 e2e2 433f 3842 373d
00000250: d0fa c23e 64f0 7dbe f927 febe 25a4 f73e
00000260: 8ffa 513f cddb 673f 45ce 8939 7477 53be
00000270: 034d 263f cf49 d93c df6c 3e3f 2c83 f03e
00000280: 91ec 813f a689 c5be 4d19 33bf b4ff ec3d
00000290: b438 4bbf 856e 3bbd 8439 763f 70db 5f3f
000002a0: a5fc 0bbe 779f 3b3e f4e8 16bf e17a 633f
000002b0: 4fd8 133f e380 99bf affb 7abe 0e7e 183f
000002c0: cbe7 22bf c4be 803f 667d 463f bbe8 25bf
000002d0: cad8 93bf 5970 b23e 928c 6b3f 3270 463e
000002e0: 9e16 963e 6af9 2abf a26e 70bf 4979 6c3f
000002f0: 5064 473f f480 cc3f a2c9 2bbe 3567 0fbe
00000300: 5b31 94bf 5667 d53d 6115 86be 5054 273e
00000310: 3598 53c0 1b15 97bf 219d bc3e b090 5fba
00000320: eb0f 833f e047 bbbe 65dc 673e 834d 93bf
00000330: 924f 7c3e 7e40 b9bf 76f4 863e 7e7c 15bf
00000340: 6b25 0abf 5e62 bf3e

Operation_1_B f4 [30]
-0.80046755 -0.5357532 -0.1117428 -0.43669403 -1.1079335 -0.24028552 -0.5054046 -0.3837309
0.070715174 -0.9785884 -0.35564646 -0.08847495 -0.45245102 -0.6622121 -0.20013538 -1.0324428
0.11708491 0.35690138 0.40838647 -0.002901454 -0.20331667 -0.82020247 -1.3530228 -0.8132673
0.13574032 -0.06273202 -1.0481967 -0.33664513 -0.2590941 -0.27154425
00000000: 71eb 4cbf 1f27 09bf 69d9 e4bd 5c96 dfbe
00000010: c4d0 8dbf 680d 76be 3262 01bf 6078 c4be
00000020: 1ed3 903d c584 7abf 4b17 b6be 5b32 b5bd
00000030: a9a7 e7be bb86 29bf 4af0 4cbe 1627 84bf
00000040: 37ca ef3d c7bb b63e 0818 d13e 5226 3ebb
00000050: 3f32 50be caf8 51bf da2f adbf 4932 50bf
00000060: 83ff 0a3e a579 80bd 4f2b 86bf c05c acbe
00000070: fba7 84be d907 8bbe

Operation_2_W f4 [40, 30]
-0.7836915 1.9411643 -0.6762904 0.06179955 0.29436994 -0.054875396 -2.5025349 0.50979203
-0.15287426 0.60938 0.10137178 -1.2663437 -2.3442404 0.5695335 -0.8517088 -0.09908258
-0.2262938 -0.45199767 -4.553048 0.38148364 -0.000819533 -0.10748545 0.32558236 -1.2113359
-1.0215758 -0.42343405 0.8767508 1.4826025 -0.41498238 0.96212703 -0.21935932 -0.5946709
0.3443518 -0.0042052516 1.4711665 -1.6519468 0.8016164 0.2531658 -1.0634022 -0.21344432
0.29913682 -1.0511404 -1.9653938 -0.32793158 0.076303504 0.78769225 -1.6856475 -2.2463667
-4.3865876 0.36639434 1.2298741 -1.2452879 0.40212697 -0.030119784 -0.06928138 0.5450981
-2.842183 0.44169205 -0.4927582 -0.29236305 -0.9750752 -1.2945071 0.10061981 0.2365385
-0.75059235 -2.7795396 -2.2885196 -0.6931385 -2.4264553 -0.46753135 0.10737018 -0.21254873
-0.054310124 -0.454872 -2.9169536 0.32772854 -1.0800419 0.8670334 -0.41163 0.43919417
0.14427878 -0.052586094 -0.6800059 -1.0924062 0.68864936 0.4924941 -1.5723913 -0.7003929
2.0285637 -0.025748912 -0.3958863 -0.28063652 -1.3462558 0.20058535 -0.19785336 -1.6146455
0.44856423 -1.0010462 -0.09628166 0.3068818 -0.009783908 -0.89920264 -0.04827063 1.1437212
0.49430168 0.38719037 -3.8913038 0.4786603 0.11754231 -0.15390912 0.37735352 0.26097572
0.31022024 0.34931198 0.43139583 -0.19903828 -0.099418394 0.4749994 0.11107998 -1.4533191
-2.0231955 -0.73830146 -2.3334599 -0.88545465 0.04110487 -3.7678697 -0.21088775 0.709829
0.898854 -0.34641722 1.142989 -1.1541244 1.3362918 -0.55407536 -0.16259368 -0.65081644
-1.8412625 -1.539372 -0.038157605 0.61632 1.1974305 0.058060937 0.83025664 -0.3097042
1.3834093 -1.7465261 0.4316255 -0.7410127 0.7277435 -1.4658848 0.8756064 1.0821815
-1.0037802 -0.47251728 1.0476754 0.94181645 0.17290886 0.61865234 0.25667867 -0.28122473
-0.9040093 0.8137565 -4.477545 0.6842042 0.7329507 -0.16016269 -0.02647798 -1.3169318
-6.52732 -0.6078892 0.07028851 -1.1826208 -1.0135552 0.5520362 0.14955921 0.20560993
0.7804162 0.17710444 -0.6022059 -1.5522296 -0.15484731 0.76492757 -2.928361 0.016236786
0.34471896 -1.3112531 -1.1792393 -0.11794181 0.96125036 -3.3707318 -0.756445 -1.519428
-0.6061446 0.35458717 -1.7235335 -0.12885663 0.44592494 -0.84859693 0.21426407 -0.39517838
-2.5165823 -1.2082886 -1.7094738 0.7604429 -1.3055972 0.20336188 0.36302617 -0.41091025
0.20972818 -3.3068593 -2.9004767 0.48207462 -1.273051 0.61992383 -2.05213 -0.8434657
0.117919765 0.21657264 -1.2772006 -0.33196104 0.491118 -0.6758276 -0.8277056 0.7540791
-0.3584814 0.15344022 -1.7563875 0.15244548 0.20554695 1.4690461 0.4715329 0.4345155
-0.21193433 -0.57342243 -0.012502038 -0.59910065 -0.13654453 0.9186496 -0.70477813 0.27217063
-1.815167 -0.99727553 0.2477414 -0.24156392 1.3497928 0.72614735 -0.8161099 -0.7876951
-2.844439 -1.1260799 -0.78576803 0.61945206 -0.6016561 -3.8094745 0.2741595 0.39510325
00000000: 02a0 48bf 1278 f83f 5e21 2dbf 8621 7d3d
00000010: a8b7 963e 06c5 60bd 8829 20c0 bb81 023f
00000020: 128b 1cbe 5400 1c3f 029c cf3d 8d17 a2bf
00000030: 0908 16c0 f3cc 113f 9709 5abf cfeb cabd
00000040: 90b9 67be 3d6c e7be 92b2 91c0 d351 c33e
00000050: eed5 56ba 5521 dcbd bbb2 a63e 0e0d 9bbf
00000060: ffc2 82bf 59cc d8be be72 603f ebc5 bd3f
00000070: 9278 d4be f54d 763f bb9f 60be 5a3c 18bf
00000080: e14e b03e 35cc 89bb 2f4f bc3f fe72 d3bf
00000090: bb36 4d3f f39e 813e 901d 88bf 2691 5abe
000000a0: 7628 993e c58b 86bf 0692 fbbf a6e6 a7be
000000b0: 0345 9c3d 33a6 493f 4cc3 d7bf 79c4 0fc0
000000c0: ed5e 8cc0 0a98 bb3e 846c 9d3f 9865 9fbf
000000d0: 96e3 cd3e c4bd f6bc 65e3 8dbd 8d8b 0b3f
000000e0: 54e6 35c0 7625 e23e ce4a fcbe 9cb0 95be
000000f0: 879e 79bf 69b2 a5bf c211 ce3d 2637 723e
00000100: d226 40bf fae3 31c0 1b77 12c0 8671 31bf
00000110: 0b4b 1bc0 4560 efbe e6e4 db3d 60a6 59be
00000120: 4b74 5ebd fce4 e8be 5eaf 3ac0 09cc a73e
00000130: d03e 8abf e7f5 5d3f 2bc1 d2be 0fde e03e
00000140: d1bd 133e 8464 57bd de14 2ebf f7d3 8bbf
00000150: 534b 303f 3028 fc3e 1e44 c9bf f34c 33bf
00000160: fdd3 0140 62ef d2bc 9cb1 cabe 97af 8fbe
00000170: 1c52 acbf 3f66 4d3e 129a 4abe b4ac cebf
00000180: 36aa e53e 4822 80bf 522f c5bd 9c1f 9d3e
00000190: af4c 20bc 2532 66bf 6db7 45bd 7565 923f
000001a0: 1c15 fd3e d13d c63e 1f0b 79c0 f612 f53e
000001b0: 06ba f03d 5a9a 1dbe 7b34 c13e 9c9e 853e
000001c0: 30d5 9e3e 05d9 b23e eadf dc3e b1d0 4bbe
000001d0: df9b cbbd 1f33 f33e e77d e33d 5c06 babf
000001e0: 097c 01c0 5301 3dbf 6857 15c0 28ad 62bf
000001f0: 955d 283d c724 71c0 f5f2 57be 5ab7 353f
00000200: 4c1b 663f 995d b1be 774d 923f 59ba 93bf
00000210: 9c0b ab3f e2d7 0dbf f57e 26be e89b 26bf
00000220: 7dae ebbf 240a c5bf 264b 1cbd 26c7 1d3f
00000230: 6745 993f 4ed1 6d3d b38b 543f 8d91 9ebe
00000240: 8e13 b13f 2b8e dfbf 04fe dc3e 02b3 3dbf
00000250: 664d 3a3f 1da2 bbbf be27 603f ec84 8a3f
00000260: df7b 80bf c9ed f1be 3a1a 863f e21a 713f
00000270: 050f 313e 0060 1e3f 636b 833e b0fc 8fbe
00000280: 276d 67bf 5952 503f 0c48 8fc0 0228 2f3f
00000290: a8a2 3b3f b001 24be 59e8 d8bc 3991 a8bf
000002a0: cedf d0c0 a09e 1bbf 6cf3 8f3d 1e60 97bf
000002b0: 2dbc 81bf 3f52 0d3f 0d26 193e 698b 523e
000002c0: 5bc9 473f de5a 353e 2a2a 1abf 76af c6bf
000002d0: 4b90 1ebe 4bd2 433f 446a 3bc0 0203 853c
000002e0: 017f b03e 24d7 a7bf 50f1 96bf 7a8b f1bd
000002f0: 8114 763f 12ba 57c0 61a6 41bf 9e7c c2bf
00000300: 4b2c 1bbf 738c b53e bf9c dcbf fef2 03be
00000310: 4650 e43e a63d 59bf 0a68 5b3e d254 cabe
00000320: af0f 21c0 33a9 9abf 0ad0 dabf 63ac 423f
00000330: cf1d a7bf 193e 503e 91de b93e d462 d2be
00000340: fcc2 563e 95a3 53c0 69a1 39c0 7cd2 f63e
00000350: 56f3 a2bf 54b3 1e3f 1956 03c0 5eed 57bf
00000360: eb7f f13d 38c5 5d3e 4f7b a3bf ccf6 a9be
00000370: d273 fb3e 0a03 2dbf 84e4 53bf 540b 413f
00000380: e08a b7be 6f1f 1d3e 4ed1 e0bf ab1a 1c3e
00000390: e67a 523e b409 bc3f c36c f13e d178 de3e
000003a0: 5005 59be d0cb 12bf 59d5 4cbc a95e 19bf
000003b0: 54d2 0bbe 9f2c 6b3f 576c 34bf f359 8b3e
000003c0: 6457 e8bf 734d 7fbf ecaf 7d3e 885c 77be
000003d0: 03c6 ac3f cbe4 393f 94ec 50bf 63a6 49bf
000003e0: 4a0b 36c0 6323 90bf 1828 49bf 6994 1e3f
000003f0: 2206 1abf 6ece 73c0 a25e 8c3e f94a ca3e

Operation_2_B f4 [40]
-0.79937947 -0.051541924 -0.10732894 -0.15578936 -0.32406923 -0.54905087 0.25810587 -0.17881277
0.8439928 -0.6559019 0.43191427 -0.023264622 -1.4876093 0.47529635 -0.34138128 -0.38086548
-0.027335508 0.11666844 0.5861086 0.7168256 0.6652543 0.7728935 -0.75551486 -0.07610185
-0.11671955 0.31322843 -0.22463477 -1.2511812 0.7988315 -0.6525171 1.0858072 0.50967395
0.36627054 0.1899307 -0.7683557 0.023531454 0.005380241 0.7615971 0.037697658 0.64731485
00000000: 22a4 4cbf a01d 53bd 46cf dbbd 3f87 1fbe
00000010: 67ec a5be 998e 0cbf 7426 843e b21a 37be
00000020: ea0f 583f 30e9 27bf de23 dd3e 7395 bebc
00000030: fb69 bebf 0b5a f33e 87c9 aebe cd00 c3be
00000040: b7ee dfbc ddef ee3d 370b 163f e281 373f
00000050: 1b4e 2a3f 59dc 453f 6c69 41bf 49db 9bbd
00000060: a90a efbd 7a5f a03e a806 66be b526 a0bf
00000070: 3980 4c3f 5c0b 27bf bbfb 8a3f fe79 023f
00000080: d087 bb3e 327d 423e f6b2 44bf 09c5 c03c
00000090: bc4c b03b 07f8 423f dc68 1a3d 6db6 253f

Operation_3_W f4 [40, 40]
-0.53108156 -0.65870655 -0.875943 0.7594426 -0.23826464 -1.631752 -1.338892 0.3011568
-0.41595525 0.9764008 -1.5401195 -1.1940092 0.8557746 -1.3736641 0.51693434 0.2355936
-0.48636994 0.3189674 -0.20491125 1.1004866 0.59748024 -0.92450356 0.10874262 0.116607115
0.24487683 -2.4555428 0.48219568 -1.7555203 0.35914353 0.99434775 -1.7563024 -0.49536672
0.24512355 0.4033724 -0.37442526 -2.9155695 -3.2321932 0.09285825 -0.19489369 -0.6192302
0.6359507 0.14061229 0.22501318 -0.98840564 -0.30217695 -0.34357598 -0.04316254 -0.24573207
-0.5250633 0.3041053 -0.16461188 -0.48770976 -4.921289 0.14312722 -2.3030329 -0.40052578
0.57619774 -0.53460294 0.2420942 -2.2664042 -0.78560656 0.21698694 0.2622119 0.16650163
-0.13459215 0.5725306 0.44309112 -2.14927 -3.1440053 -0.19533099 -0.4563655 0.098433286
0.82263976 -0.2537689 0.26110396 -2.2226646 0.43144584 0.536292 -0.9638732 -0.39998502
0.86903685 -1.6032327 -0.17653921 0.71811676 0.36662546 0.26384592 0.5534283 -0.34544742
-0.28100324 -0.0028759658 -1.8852057 -0.061802287 -1.251351 -2.5381439 -0.04272387 -2.2832294
-0.22706312 -0.18206611 -0.6553205 -0.4817751 -0.60869735 -0.62753874 -1.3025934 -0.07148826
-2.3005302 0.91773105 0.25409737 -0.53867626 -0.10481606 -1.8718653 -0.33172676 -0.5778073
-0.82074994 -1.0920258 -1.227245 -1.1457965 -0.7089675 -0.29941517 0.17119595 -0.9340397
-0.30753213 0.29366428 -0.8243186 -2.319121 -0.039775778 -1.2432088 0.2130573 0.3709554
0.58740455 -2.3829691 -1.8832316 -0.6161688 -0.58905137 0.10230728 -0.015946489 -0.8382365
-0.048248667 -0.27311623 0.5636104 0.01579868 -0.22106637 -2.4943187 -1.4620867 0.18665475
-2.111093 -0.16751637 -0.3414287 -0.6671643 -0.647479 -0.95576626 0.25964946 -0.6679071
-1.0561682 -0.8197734 -0.6911064 -1.1547414 -1.5398562 -0.94774884 0.80420667 -1.340675
-0.04898263 0.9201404 0.09643852 0.01310735 0.48412648 0.86846477 0.3630069 0.80850255
-0.72068775 -0.8892429 0.6377523 1.0957172 -0.9625 -0.34924656 0.112310775 -2.827535
0.7814092 -0.17841664 0.4974422 -1.3905532 -0.5422882 0.34532857 0.47766334 0.107968606
0.70812714 0.31348264 -0.010212306 0.10366082 -0.22310041 -0.094302274 -2.8032353 -0.07684686
-2.1883192 0.15123491 0.92404836 -0.40079555 0.6195005 -0.3151439 -1.8911036 -1.322418
-0.0727089 -0.79883087 -0.6351613 0.8828932 -0.3115383 -1.1199708 -0.03961018 0.047664516
0.3998773 -2.8952272 -0.1829669 0.80443 -1.3314954 -2.7217646 -0.21291402 -1.1991792
-1.5565511 0.694718 0.023924379 -2.888211 0.29386196 -0.2599379 0.5093432 0.08490701
-0.14653198 0.36999762 0.040847264 -1.7067634 0.66901183 -0.3196218 -0.14302202 -0.017190719
-0.929023 -0.14536548 0.56681824 1.0789273 -0.014232353 -1.0873592 -0.1760927 -0.17183432
0.08146005 -1.6839857 1.5872711 -0.4803726 -0.6237179 -0.8353496 -0.2058576 0.25967655
-0.41496003 0.93497896 -0.528473 0.87206995 -0.37354738 -0.2519817 -0.84653157 0.36595175
00000000: f6f4 07bf fea0 28bf cd3d 60bf d56a 423f
00000010: a5fb 73be 40dd d0bf d060 abbf 3931 9a3e
00000020: 16f8 d4be 67f5 793f a322 c5bf 4bd5 98bf
00000030: 0b14 5b3f 3ad4 afbf cf55 043f 733f 713e
00000040: 7b05 f9be b24f a33e 41d4 51be bfdc 8c3f
00000050: 77f4 183f 44ac 6cbf 73b4 de3d b6cf ee3d
00000060: fec0 7a3e 9d27 1dc0 5ae2 f63e e4b4 e0bf
00000070: a9e1 b73e 938d 7e3f 84ce e0bf b5a0 fdbe
00000080: ab01 7b3e d486 ce3e abb4 bfbe b198 3ac0
00000090: 41dc 4ec0 772c be3d 3692 47be df85 1ebf
000000a0: aacd 223f abfc 0f3e db69 663e 2708 7dbf
000000b0: f0b6 9abe 31e9 afbe 34cb 30bd 30a1 7bbe
000000c0: 8c6a 06bf b1b3 9b3e 0490 28be 18b5 f9be
000000d0: 337b 9dc0 f18f 123e e464 13c0 b711 cdbe
000000e0: b281 133f bddb 08bf 8be7 773e c40c 11c0
000000f0: 831d 49bf d331 5e3e a340 863e 677f 2a3e
00000100: 86d2 09be 5e91 123f d7dc e23e a48d 09c0
00000110: 6237 49c0 d904 48be bda8 e9be 6497 c93d
00000120: 8598 523f ffed 81be 6baf 853e 2340 0ec0
00000130: 78e6 dc3e 6f4a 093f 65c0 76bf d6ca ccbe
00000140: 3379 5e3f bb36 cdbf b2c6 34be 80d6 373f
00000150: 55b6 bb3e d016 873e 7aad 0d3f 7cde b0be
00000160: a8df 8fbe b37a 3cbb 6c4e f1bf 6524 7dbd
00000170: 452c a0bf f370 22c0 3aff 2ebd 6e20 12c0
00000180: 3c83 68be 8a6f 3abe 16c3 27bf 3aab f6be
00000190: 97d3 1bbf 61a6 20bf 61bb a6bf 7068 92bd
000001a0: e33b 13c0 6cf0 6a3f 0d19 823e b0e6 09bf
000001b0: cda9 d6bd 4899 efbf 17d8 a9be 2eeb 13bf
000001c0: ab1c 52bf 80c7 8bbf 5d16 9dbf 76a9 92bf
000001d0: e57e 35bf f24c 99be fe4d 2f3e 3a1d 6fbf
000001e0: da74 9dbe 2a5b 963e 8b06 53bf 7a6c 14c0
000001f0: edeb 22bd 7721 9fbf b12b 5a3e deed bd3e
00000200: 2560 163f 9182 18c0 bc0d f1bf 3dbd 1dbf
00000210: 12cc 16bf 7b86 d13d 36a2 82bc ab96 56bf
00000220: 65a0 45bd e4d5 8bbe c548 103f 3c6c 813c
00000230: 395f 62be eba2 1fc0 a825 bbbf 6c22 3f3e
00000240: 261c 07c0 6989 2bbe becf aebe 48cb 2abf
00000250: 2fc1 25bf 19ad 74bf c6f0 843e f6fb 2abf
00000260: 8530 87bf abdc 51bf 59ec 30bf 91ce 93bf
00000270: 021a c5bf ab9f 72bf 7de0 4d3f 3d9b abbf
00000280: 03a2 48bd 528e 6b3f 8f81 c53d 36c0 563c
00000290: 6ddf f73e b553 5e3f 0adc b93e 06fa 4e3f
000002a0: fe7e 38bf 6ca5 63bf bc43 233f 7640 8c3f
000002b0: 6666 76bf 72d0 b2be 3103 e63d 55f6 34c0
000002c0: 6f0a 483f dab2 36be beb0 fe3e a6fd b1bf
000002d0: 66d3 0abf e8ce b03e 4a90 f43e a51e dd3d
000002e0: d247 353f cc80 a03e 8451 27bc 204c d43d
000002f0: 6f74 64be 8d21 c1bd 3568 33c0 e361 9dbd
00000300: 6c0d 0cc0 53dd 1a3e 6f8e 6c3f 1335 cdbe
00000310: 9697 1e3f 8b5a a1be af0f f2bf fe44 a9bf
00000320: 67e8 94bd 2e80 4cbf ee99 22bf 4a05 623f
00000330: f381 9fbe 345b 8fbf 493e 22bd de3b 433d
00000340: b8bc cc3e 674b 39c0 ad5b 3bbe 20ef 4d3f
00000350: 716e aabf 6431 2ec0 2206 5abe b47e 99bf
00000360: 113d c7bf 0ad9 313f 0ffd c33c 73d8 38c0
00000370: 1375 963e 9516 85be 5164 023f bae3 ad3d
00000380: 7b0c 16be 5470 bd3e 764f 273d 3977 dabf
00000390: 5c44 2b3f 78a5 a3be 5d74 12be 8dd3 8cbc
000003a0: 74d4 6dbf b0da 14be 001b 113f 4a1a 8a3f
000003b0: d12e 69bc 962e 8bbf a551 34be 56f5 2fbe
000003c0: 87d4 a63d d88c d7bf b32b cb3f 66f3 f5be
000003d0: faab 1fbf 79d9 55bf 56cc 52be 53f4 843e
000003e0: a475 d4be c85a 6f3f 024a 07bf fa3f 5f3f
000003f0: 9a41 bfbe bf03 81be 4bb6 58bf 075e bb3e

Operation_3_B f4 [40]
0.17423733 0.33406818 0.11472081 0.90296704 -1.2742877 0.24944365 0.1457637 0.6088755
-1.4053924 0.18995346 -1.8195153 0.35037592 -0.079719946 -0.44581208 0.02260761 -1.8085053
-0.14212368 0.46750957 -0.34224716 0.54662615 -1.4545437 0.42999706 0.47939995 -0.4024861
-0.036722057 -0.8150592 0.39483255 0.56609863 -0.18226662 -0.059162285 0.14444895 -0.37463143
-0.24813366 0.90723926 -0.11302435 -0.73010164 -0.7068445 0.20383704 0.11902534 0.219616
00000000: 456b 323e fc0a ab3e bef2 ea3d d928 673f
00000010: dc1b a3bf 286e 7f3e 1443 153e 44df 1b3f
00000020: e6e3 b3bf 2983 423e e1e5 e8bf 7964 b33e
00000030: 3644 a3bd 7b41 e4be 9833 b93c 1a7d e7bf
00000040: df88 11be 6a5d ef3e 053b afbe b1ef 0b3f
00000050: 7d2e babf 9328 dc3e e973 f53e a812 cebe
00000060: de69 16bd b8a7 50bf 7e27 ca3e d7eb 103f
00000070: 1aa4 3abe 2754 72bd 6dea 133e b1cf bfbe
00000080: c016 7ebe d540 683f 4f79 e7bd f1e7 3abf
00000090: c3f3 34bf a8ba 503e 8fc3 f33d 04e3 603e

Operation_4_W f4 [40, 40]
-1.785138 -1.0134944 0.1871792 -1.489625 -0.35792616 0.7054261 -0.7936998 -1.8195883
-1.4157751 -1.0939035 -1.7722754 -0.42990023 -0.8501464 -0.63391405 0.4170101 -0.30020547
0.59100914 -0.2274053 0.47152212 -1.145648 0.213696 -0.62065554 -0.46269596 0.30712202
0.25823683 -0.7297406 0.33436826 -1.60086 0.03315522 -1.7575775 -0.97720766 -1.5937777
-0.8247708 -0.6710865 -1.0465132 0.86784613 -0.148037 0.5160936 0.10830807 -1.1054335
-0.107215755 -0.1964643 0.010996571 0.1678856 -0.07146305 -0.09756924 -0.015272008 -0.10444246
0.031549644 0.0014635412 -0.08060094 0.016940212 -0.11634694 -0.20588118 -0.056308985 -0.24365333
-0.042975545 -0.2129927 -0.021551574 0.13635622 0.031764455 -0.38761657 -0.2897216 -0.35508186
7.425542e-05 -0.19654365 0.022426935 -0.18839727 0.29560181 -0.036337532 -0.26138794 0.032688215
-0.09602808 -0.010783468 0.07728034 0.17539574 0.0046963035 0.07610272 0.023785155 -0.20386054
0.19240502 0.5676672 -0.61463434 -0.82800144 -0.31021506 -0.26910427 0.27869606 0.0756773
-0.80531764 0.5261554 -0.22706887 -0.13551456 0.27922523 0.2697356 0.4371498 -0.10064122
0.36140865 1.339556 0.39137143 -0.1517161 0.69798267 -0.4133429 -0.115033045 -0.5285684
0.5744143 -1.028875 -0.7355602 0.1323086 0.16212477 -0.33293003 -0.39522952 -1.0159647
-0.12532565 -1.2941415 0.70209914 0.021914383 0.5597717 -0.7643872 -0.5563323 0.25537255
-0.6070438 0.57973033 -0.20808633 -0.4492408 -0.1909474 0.599226 -0.2995289 0.24096544
-0.27474585 0.9674325 -0.058911905 -1.744465 -0.64739084 0.09304787 -0.9974795 -0.35398605
0.43486217 -1.0707086 -0.20778924 -1.0687622 0.20146538 -0.22464909 0.019152805 -0.3858069
-1.3628634 -3.4764633 0.7838958 0.01608367 0.1323732 -0.34851637 -0.0017624352 -0.11672801
-0.32433614 0.119742006 1.1655022 -0.6546678 0.8662232 -1.4263083 -0.3127865 0.6426039
-0.11020533 0.38974336 0.14891268 -0.58427536 -1.2883201 0.39532414 -0.03667298 -0.7939308
0.30258438 -0.89592904 -0.523225 0.2865201 -1.477849 -0.38051286 0.040760666 -1.0351692
-0.02654789 0.75429654 -1.0850786 -0.32774034 0.14961651 -0.9106199 -0.20683867 0.14676549
0.9564951 -1.0907075 0.033369076 -0.08136849 -0.21677278 -0.13102463 0.26033524 -0.16043426
-0.14360543 -0.004135446 1.454961 -1.1032368 -0.33671787 -0.19565192 -0.3769517 -1.2556705
0.07794664 0.20558262 -0.3082279 -2.2424934 -0.95814353 0.40590006 0.48572597 -0.38301903
-0.23784454 -0.90747577 0.6740533 -1.3926451 -0.6987039 0.1114854 0.5194791 -0.54306483
0.6243666 0.26761937 -1.4330064 0.6911576 -1.5897579 0.6864509 -1.9553893 -1.3130822
-0.34648663 -0.012452289 0.8840397 -0.35287172 -0.034975424 -0.89190376 0.20064306 -0.56941926
1.0515268 -0.9145625 0.21505205 -0.12389488 -0.2898583 -0.15379418 0.33090526 -0.97432995
-1.0398484 -1.0404589 0.57435495 -1.1093465 -1.4459109 -1.1941086 -0.6563651 -0.5352597
-0.2472276 0.08618431 -0.025745252 0.37533247 -1.3381019 -0.69413716 -0.08160586 -0.23447903
00000000: 677f e4bf 2fba 81bf e7ab 3f3e 08ac bebf
00000010: 1942 b7be ce96 343f e92f 4bbf 45e8 e8bf
00000020: 1e38 b5bf 0805 8cbf ecd9 e2bf e21b dcbe
00000030: 32a3 59bf 3148 22bf 5982 d53e 88b4 99be
00000040: 604c 173f efdc 68be 596b f13e 98a4 92bf
00000050: 20d3 5a3e 48e3 1ebf 7ce6 ecbe 193f 9d3e
00000060: 9e37 843e 48d0 3abf 5132 ab3e fbe8 ccbf
00000070: c5cd 073d 4df8 e0bf 482a 7abf e800 ccbf
00000080: 2e24 53bf 53cc 2bbf 25f4 85bf 2a2b 5e3f
00000090: 0397 17be b61e 043f 9fd0 dd3d d87e 8dbf
000000a0: ef93 dbbd f02d 49be f62a 343c 34ea 2b3e
000000b0: 385b 92bd 62d2 c7bd 7237 7abc eee5 d5bd
000000c0: 333a 013d 4bd4 bf3a 1b12 a5bd 33c6 8a3c
000000d0: 4e47 eebd 84d2 52be 40a4 66bd 4280 79be
000000e0: 2007 30bd c21a 5abe ed8c b0bc f7a0 0b3e
000000f0: 721b 023d ae75 c6be 6456 94be 4acd b5be
00000100: 93b9 9b38 bd42 49be b1b8 b73c 37eb 40be
00000110: 1f59 973e aad6 14bd a4d4 85be 14e4 053d
00000120: 5faa c4bd 25ad 30bc 2845 9e3d f19a 333e
00000130: 73e3 993b bedb 9b3d 16d9 c23c d1c0 50be
00000140: d205 453e a352 113f ad58 1dbf e7f7 53bf
00000150: 82d4 9ebe 09c8 89be 40b1 8e3e b3fc 9a3d
00000160: 4c29 4ebf 1fb2 063f be84 68be 54c4 0abe
00000170: 9cf6 8e3e c91a 8a3e 19d2 df3e fc1c cebd
00000180: 8e0a b93e 9276 ab3f d661 c83e 775b 1bbe
00000190: feae 323f aea1 d3be 7296 ebbd 4250 07bf
000001a0: d10c 133f 2db2 83bf ac4d 3cbf e87b 073e
000001b0: 0904 263e ce75 aabe 865b cabe 220b 82bf
000001c0: 5e55 00be 6ea6 a5bf c5bc 333f cb85 b33c
000001d0: 334d 0f3f e1ae 43bf cb6b 0ebf 31c0 823e
000001e0: 3967 1bbf 3569 143f 9514 55be e402 e6be
000001f0: b787 43be e066 193f da5b 99be a5bf 763e
00000200: 7dab 8cbe a8a9 773f 9c4d 71bd a14a dfbf
00000210: 68bb 25bf e28f be3d d15a 7fbf a93d b5be
00000220: 41a6 de3e fb0c 89bf b4c6 54be 33cd 88bf
00000230: f14c 4e3e 690a 66be 58e6 9c3c 7b88 c5be
00000240: 4f72 aebf 607e 5ec0 65ad 483f e7c1 833c
00000250: d78c 073e bd70 b2be 8301 e7ba 180f efbd
00000260: 630f a6be 4c3b f53d 2d2f 953f 4f98 27bf
00000270: cec0 5d3f 4591 b6bf 8d25 a0be b081 243f
00000280: 55b3 e1bd 718c c73e 917c 183e 1293 15bf
00000290: ace7 a4bf ed67 ca3e 6836 16bd 0d3f 4bbf
000002a0: 57ec 9a3e 9b5b 65bf 13f2 05bf c3b2 923e
000002b0: 282a bdbf 95d2 c2be a8f4 263d 6d80 84bf
000002c0: f67a d9bc 9419 413f dbe3 8abf 95cd a7be
000002d0: 1235 193e 631e 69bf 84cd 53be b149 163e
000002e0: dddc 743f 4e9c 8bbf 03ae 083d 86a4 a6bd
000002f0: aff9 5dbe 522b 06be a94a 853e e148 24be
00000300: 4d0d 13be a382 87bb 293c ba3f dd36 8dbf
00000310: 4966 acbe fa58 48be d0ff c0be d0b9 a0bf
00000320: 7da2 9f3d 4084 523e 0cd0 9dbe 0385 0fc0
00000330: e548 75bf 22d2 cf3e 13b1 f83e 121b c4be
00000340: 858d 73be 5550 68bf c28e 2c3f 3242 b2bf
00000350: 42de 32bf 7552 e43d 95fc 043f 4c06 0bbf
00000360: 7dd6 1f3f 6805 893e c16c b7bf b4ef 303f
00000370: 307d cbbf 3fbb 2f3f 324a fabf 1413 a8bf
00000380: b266 b1be b004 4cbc 6d50 623f 9aab b4be
00000390: 6442 0fbd ce53 64bf 6075 4d3e 76c5 11bf
000003a0: 6e98 863f c520 6abf 9b36 5c3e 99bc fdbd
000003b0: 4f68 94be 397c 1dbe 6a6c a93e b06d 79bf
000003c0: c119 85bf c22d 85bf ed08 133f 11ff 8dbf
000003d0: 9c13 b9bf 8dd8 98bf 8b07 28bf c806 09bf
000003e0: 3b29 7dbe 6681 b03d b5e7 d2bc 942b c03e
000003f0: ec46 abbf f9b2 31bf f920 a7bd 451b 70be

Operation_4_B f4 [40]
0.45874912 -0.32853633 1.0348469 0.011724047 -0.21888837 -0.5053705 1.6668205 -0.96658987
-2.0424309 -0.4768055 -0.92740864 -0.9635086 0.051642623 -0.26657885 -0.16928904 0.15553562
0.26705772 -0.93555653 -3.5639722 0.59436095 -0.80587626 -0.08263714 -1.1048758 0.072539836
0.12868565 -0.8184061 -0.40216705 -0.30437097 -0.51865345 0.8462786 0.9304455 -0.5922801
-0.5565565 -0.7543016 -1.8607045 -0.26719925 1.0132382 0.34118837 -0.03687722 0.2447102
00000000: 2ae1 ea3e ea35 a8be dd75 843f 3816 403c
00000010: 4624 60be f65f 01bf 605a d53f 6f72 77bf
00000020: 30b7 02c0 da1f f4be a76a 6dbf 80a8 76bf
00000030: 3787 533d 067d 88be 1b5a 2dbe bb44 1f3e
00000040: cabb 883e a280 6fbf 1f18 64c0 0a28 183f
00000050: e84d 4ebf a93d a9bd 926c 8dbf c48f 943d
00000060: 2cc6 033e 1083 51bf d7e8 cdbe 83d6 9bbe
00000070: 79c6 04bf b7a5 583f ad31 6e3f ab9f 17bf
00000080: 7d7a 0ebf e919 41bf 912b eebf 57ce 88be
00000090: cab1 813f 3eb0 ae3e 910c 17bd 5095 7a3e

Operation_5_W f4 [30, 40]
-0.5330518 0.066775754 -0.20834677 0.110204734 -0.75456977 0.06852326 -0.16295815 -0.32084548
-0.71997035 0.34600306 0.014371511 -0.24643518 0.13785271 0.0020406076 0.12246435 -0.4671547
0.29838932 -1.2866383 -0.37811154 0.023328882 -1.4353427 0.4703413 -0.056312688 -0.14360459
0.076862544 -0.8217105 0.07818333 0.1181821 0.071898654 0.2182828 0.07469758 0.11316962
0.34530196 -0.30201367 0.12720513 0.447189 -0.35039046 0.31801668 -0.06544766 0.22520028
0.015983116 -0.010632115 -0.25393087 -0.2032971 0.13758104 0.11343753 0.0575275 -0.25524554
-0.2765835 -0.1371271 -0.13425526 -0.47249687 -0.029918635 0.22950672 -0.14791662 0.10648176
-0.35103315 -0.110296525 0.09398783 -0.12351427 -0.6703524 0.017928302 -0.13170224 -0.22135924
0.086661175 -0.11191482 -0.14590596 -0.0865646 -0.3152121 -0.1928305 -0.085037686 -0.101177156
-0.11102826 0.007946384 0.051796824 -0.05442042 -0.0056895018 -0.43722773 -0.10010387 0.08069575
0.20233035 -0.14742139 0.03915972 -0.21595019 -0.043574978 -0.13065585 -0.2142764 0.058425404
0.028112138 1.9121003 0.36408597 0.10159737 -0.04977244 0.1906952 -0.13081346 -0.097317874
0.29493147 0.11031823 -0.17161863 -0.08563494 -0.4850297 0.33334953 -0.49429944 0.047041148
-0.19647257 0.46607584 0.064174995 -0.34619668 0.056601226 -0.012540492 0.03807822 0.13810217
-0.23436388 -0.16454513 0.1672872 0.106816 -0.15338023 -0.1580447 0.042267 -0.36877367
-0.2359281 -0.1968614 -0.29150465 -0.022317262 -0.1666065 0.14902538 -0.36096454 -0.04834315
-0.26988068 0.18989876 -0.061232723 -0.18270986 -0.10277452 -0.11832573 -0.09798677 -0.17403424
0.08308723 -0.4467213 -0.18308492 -0.2555932 -0.051459603 0.07166949 -0.29574376 0.041510843
-0.17136468 0.046868827 -0.049666014 -0.1023912 -0.08817047 -0.32122523 -0.66426116 0.12548931
-0.10191462 -0.092889495 -0.020184666 -0.011267591 -0.0908485 -0.20078784 0.03656412 0.10260888
-0.47162288 0.05952827 -0.30743283 -0.014604216 -0.2479531 0.048262425 -0.15399383 -0.28934157
0.053677414 0.23776324 -0.30565894 0.06693916 -0.18419552 0.095724955 -0.1644281 -0.0008236488
-0.070064865 -0.47658685 -0.41157213 -0.16813342 0.077797115 0.14195803 0.26860058 0.05978633
-0.24824199 0.014216829 0.066113986 -0.17040326 -0.30032143 -0.17253834 -0.50522447 -0.04916647
-0.057873175 -0.11292643 0.23840947 -0.24930681 0.002261674 -0.39767396 -0.3492951 0.34429267
-0.16807914 -0.02507512 0.004733773 -0.40683007 0.35025623 -1.4141823 -0.32297334 -0.00050973403
-1.1133728 0.10296972 -0.36064327 0.22531025 -1.1652334 -0.6966214 -0.18208313 0.8173646
-0.517213 -1.7492797 -0.03994401 -0.31705472 -0.44231355 0.32902205 -0.12736025 0.1327901
-0.33221334 -0.4700918 0.08511751 0.1726091 0.3316431 0.12303946 -1.7642455 -1.8625709
0.25766492 -0.74183136 -0.5235824 -0.32544973 0.37688157 -0.8094301 0.27961853 -0.83194673
-1.018481 0.14376993 0.28329638 -0.110250756 -0.88159233 1.4093333 -0.3136733 -0.17936476
0.38517618 0.3045007 -1.7319081 -0.112882 -0.21659118 -0.3425913 0.045078445 -0.45037353
00000000: 1576 08bf bac1 883d db58 55be 05b3 e13d
00000010: 7c2b 41bf ec55 8c3d 80de 26be dc45 a4be
00000020: fa4f 38bf 5027 b13e 7c76 6b3c 8159 7cbe
00000030: 4329 0d3e b7bb 053b 97ce fa3d e72e efbe
00000040: 7cc6 983e 90b0 a4bf d697 c1be 361c bf3c
00000050: 4fb9 b7bf 93d0 f03e 22a8 66bd 150d 13be
00000060: 1c6a 9d3d 9f5b 52bf 951e a03d 7509 f23d
00000070: 9a3f 933d 8785 5f3e 0bfb 983d 79c5 e73d
00000080: 6bcb b03e 89a1 9abe 1042 023e f5f5 e43e
00000090: 6166 b3be 15d3 a23e 6c09 86bd e79a 663e
000000a0: 06ef 823c 5332 2ebc 3a03 82be 1d2d 50be
000000b0: 0be2 0c3e f051 e83d f5a1 6b3d 8baf 82be
000000c0: 5a9c 8dbe 0c6b 0cbe 367a 09be 1ceb f1be
000000d0: ed17 f5bc cf03 6b3e 7477 17be 1c13 da3d
000000e0: 9eba b3be 25e3 e1bd b17c c03d 0df5 fcbd
000000f0: 379c 2bbf 60de 923c f4dc 06be ffab 62be
00000100: 6a7b b13d 9933 e5bd 5f68 15be c848 b1bd
00000110: 7b63 a1be 5c75 45be 3d28 aebd f835 cfbd
00000120: c962 e3bd 8d31 023c e828 543d f2e7 5ebd
00000130: 006f babb 50dc dfbe 4203 cdbd d043 a53d
00000140: b02f 4f3e a2f5 16be f165 203d 0c22 5dbe
00000150: ad7b 32bd a6ca 05be 466b 5bbe 7a4f 6f3d
00000160: 6d4b e63c b4bf f43f 7a69 ba3e 4812 d03d
00000170: 30de 4bbd 9a45 433e f7f3 05be 984e c7bd
00000180: 4201 973e 86ee e13d cbbc 2fbe 5f61 afbd
00000190: d055 f8be caac aa3e d114 fdbe 38ae 403d
000001a0: 1b30 49be 7ea1 ee3e 2e6e 833d b140 b1be
000001b0: b0d6 673d a376 4dbc e8f7 1b3d a86a 0d3e
000001c0: 16fd 6fbe 857e 28be 564d 2b3e 59c2 da3d
000001d0: b50f 1dbe 78d6 21be 2920 2d3d e7cf bcbe
000001e0: 2397 71be 0996 49be 1940 95be b1d2 b6bc
000001f0: e59a 2abe 1c9a 183e 58d0 b8be 7803 46bd
00000200: cd2d 8abe d274 423e 2acf 7abd 4b18 3bbe
00000210: 737b d2bd c354 f2bd 4aad c8bd 0836 32be
00000220: a329 aa3d a7b8 e4be 9d7a 3bbe 1ddd 82be
00000230: 4ec7 52bd 74c7 923d ba6b 97be 4607 2a3d
00000240: 397a 2fbe 87f9 3f3d 976e 4bbd 7ab2 d1bd
00000250: b892 b4bd a277 a4be 050d 2abf 4580 003e
00000260: 9db8 d0bd d93c bebd 505a a5bc b49b 38bc
00000270: c70e babd 549b 4dbe 42c4 153d 9b24 d23d
00000280: 8e78 f1be ead3 733d d667 9dbe 8646 6fbc
00000290: 6be7 7dbe d2ae 453d 8fb0 1dbe 9424 94be
000002a0: d9dc 5b3d 3578 733e 547f 9cbe 6617 893d
000002b0: c09d 3cbe 720b c43d d75f 28be 23ea 57ba
000002c0: 2b7e 8fbd 3103 f4be 95b9 d2be 2b2b 2cbe
000002d0: 1854 9f3d 725d 113e 0486 893e 83e2 743d
000002e0: 2633 7ebe b4ed 683c c566 873d 317e 2ebe
000002f0: bbc3 99be e4ad 30be 6456 01bf c862 49bd
00000300: 6c0c 6dbd f945 e7bd 9d21 743e 494a 7fbe
00000310: 9838 143b ec9b cbbe cfd6 b2be 2147 b03e
00000320: f01c 2cbe 576a cdbc c41d 9b3b 084c d0be
00000330: c954 b33e ed03 b5bf c35c a5be ac9f 05ba
00000340: 0083 8ebf cae1 d23d 3ca6 b8be bbb7 663e
00000350: 5e26 95bf c855 32bf 0074 3abe ce3e 513f
00000360: 1268 04bf 66e8 dfbf 559c 23bd ff54 a2be
00000370: ec76 e2be 9475 a83e ba6a 02be 21fa 073e
00000380: de17 aabe dfaf f0be 1752 ae3d 71c0 303e
00000390: 20cd a93e 1dfc fb3d ccd2 e1bf b968 eebf
000003a0: a8ec 833e a9e8 3dbf 7f09 06bf 59a1 a6be
000003b0: 9ff6 c03e d036 4fbf 292a 8f3e 76fa 54bf
000003c0: 965d 82bf 6d38 133e 390c 913e 26cb e1bd
000003d0: 09b0 61bf 0965 b43f c999 a0be 65ab 37be
000003e0: d035 c53e 84e7 9b3e 2aaf ddbf ae2e e7bd
000003f0: 14ca 5dbe 2068 afbe 2da4 383d 5c97 e6be

Operation_5_B f4 [30]
0.06647089 -0.6002021 0.6599663 -0.36876976 -0.5429048 -0.47083402 -2.3328083 0.30561095
0.15990518 0.8270507 0.35421762 -0.43184304 -0.3851548 -0.34477788 0.6737976 -0.2527722
-1.5502794 -1.746437 0.095314324 -0.6859443 -0.07052363 -0.4788661 0.89072925 0.21365406
-0.5023188 0.05048353 -0.707965 -1.1642288 -1.8980541 -0.44140318
00000000: e421 883d d8a6 19bf 8df3 283f 64cf bcbe
00000010: cffb 0abf 2811 f1be bb4c 15c0 0a79 9c3e
00000020: 2fbe 233e 98b9 533f 035c b53e 881a ddbe
00000030: 0333 c5be ba86 b0be 007e 2c3f 5c6b 81be
00000040: 8e6f c6bf 3f8b dfbf 2834 c33d 0c9a 2fbf
00000050: b16e 90bd f02d f5be d506 643f 21c8 5a3e
00000060: f797 00bf d1c7 4e3d 323d 35bf 7305 95bf
00000070: 70f3 f2bf 99ff e1be

Operation_6_W f4 [3, 30]
0.015088603 -0.07641225 0.05387366 0.036917407 -0.33466178 -0.16496588 -0.11062368 -0.09360888
-0.071025915 0.023714852 0.085739255 -0.0072175693 0.014404483 -0.039269157 -1.3581953 0.02591605
-0.55011654 -0.061213687 -0.005953684 0.043324348 -0.013300477 0.03284478 -0.047717195 -0.092914715
-0.027895005 0.07276318 -0.04648134 -0.0217115 0.051515438 -0.01167117 0.15326995 -0.017058266
-0.120873556 -0.050811853 -0.05860106 -0.06319007 -0.15046348 0.049003407 -0.073050514 0.0946215
-0.073615886 0.00035955373 0.036616605 -0.09894462 0.076771826 0.0706414 -0.094253466 -0.049367655
0.057214368 0.0061430824 0.09171375 -0.84741247 -0.1267274 0.04181915 -0.0029598046 -0.051270347
-0.017617332 0.015938992 0.03185947 -0.45234758 0.05218751 -0.04294772 0.032735948 0.038321443
0.1498388 0.068103276 -0.052717995 -0.08287281 0.042883664 -0.012118067 0.050672717 -0.25130454
0.096521944 -0.07082624 -0.016084164 0.072177485 -0.08868584 -0.16284375 -0.1327114 0.0038265595
-0.18336515 -0.02871295 -0.065757 -0.06998314 0.100388795 -0.032158364 -0.47787204 -0.45714048
-0.052000653 0.047550708
00000000: 3036 773c 077e 9cbd a0aa 5c3d b536 173d
00000010: ca58 abbe d1ec 28be ab8e e2bd 03b6 bfbd
00000020: 0976 91bd a645 c23c 1098 af3d 5c81 ecbb
00000030: c800 6c3c b2d8 20bd 58d9 adbf e54d d43c
00000040: 70d4 0cbf 34bb 7abd 1f17 c3bb df74 313d
00000050: 3eea 59bc 3f88 063d 1b73 43bd 124a bebd
00000060: 1184 e4bc dd04 953d 3863 3ebd 51dc b1bc
00000070: da01 533d 6f38 3fbc ccf2 1c3e c7bd 8bbc
00000080: 8e8c f7bd 1720 50bd aa07 70bd cc69 81bd
00000090: 1913 1abe ccb7 483d 829b 95bd ebc8 c13d
000000a0: edc3 96bd 7c82 bc39 4bfb 153d 7aa3 cabd
000000b0: 8c3a 9d3d 70ac 903d f607 c1bd bd35 4abd
000000c0: 9d59 6a3d e94b c93b 6bd4 bb3d 06f0 58bf
000000d0: d4c4 01be 8f4a 2b3d 48f9 41bb db00 52bd
000000e0: 3952 90bc 7d92 823c 137f 023d 1a9a e7be
000000f0: 92c2 553d f3e9 2fbd 2116 063d f2f6 1c3d
00000100: 586f 193e bb79 8b3d d3ee 57bd 38b9 a9bd
00000110: c8a6 2f3d db8a 46bc 328e 4f3d fdaa 80be
00000120: 4cad c53d 590d 91bd f0c2 83bc cad1 933d
00000130: eca0 b5bd 83c0 26be 7fe5 07be 04c7 7a3b
00000140: 13c4 3bbe 6c37 ebbc 9bab 86bd 5253 8fbd
00000150: a498 cd3d 7db8 03bd a5ab f4be 510e eabe
00000160: a3fe 54bd 88c4 423d

Operation_6_B f4 [3]
-0.0093792295 -0.0057868417 -0.022269519
00000000: 57ab 19bc 8c9f bdbb 916e b6bc
