engine/nnmt/ONNX/SingleCarController.onnx (onnx, 22551 bytes, 13 tensors)

input_AvgImg f4 [1, 1, 1, 4]
0	0x3f800000	1.0
1	0x3f800000	1.0
2	0x3f800000	1.0
3	0x3f800000	1.0

Operation_1_W f4 [20, 4]
0	0xbf39f1b3	-0.7263443
1	0x3d59ab56	0.053141914
2	0xbe844e5b	-0.2584103
3	0x3f73e306	0.95268285
4	0x3d61c358	0.055117935
5	0xbe0eea0a	-0.13956466
6	0xbfbdd84c	-1.4831634
7	0x3fa6fc53	1.3045753
8	0xbc7d10cb	-0.015445898
9	0x3cae853b	0.021303764
10	0xbfad4c14	-1.3538842
11	0x3fb2b286	1.3960731
12	0xbf209dbe	-0.62740695
13	0x3e828ade	0.25496572
14	0x3fa5a780	1.2941742
15	0xbf66e9f4	-0.90200734
16	0x3f711e54	0.941869
17	0x3f871c25	1.0555464
18	0x3ea783ec	0.32717836
19	0xbe38e2de	-0.18055293
20	0xbe00c851	-0.12576415
21	0x3f4b9315	0.79521304
22	0xbf996c2d	-1.1986138
23	0x3eb3d58b	0.35123858
24	0x3f4fd531	0.8118468
25	0x3ea71726	0.32634848
26	0xbf8f11bb	-1.1177286
27	0x3f5ebd5e	0.870077
28	0x3da00940	0.07814264
29	0xbf2d756d	-0.677573
30	0x3f505ceb	0.8139178
31	0xbfb70a33	-1.4299988
32	0x3fa98054	1.3242288
33	0xbd95e0ff	-0.07318305
34	0xbf157471	-0.583808
35	0xbf5e0e61	-0.8674069
36	0xbeec759e	-0.46183485
37	0xbfa7efc1	-1.3120042
38	0xbda588a4	-0.08082703
39	0xbfa659ec	-1.2996192
40	0xbf35cbe6	-0.7101425
41	0x3e4210c9	0.18951716
42	0x3fb2332b	1.3921865
43	0xbd117ca1	-0.035519246
44	0x3f3d63c8	0.7398038
45	0x3f95abda	1.169307
46	0xbe84145b	-0.2579678
47	0xbdd49e36	-0.10381739
48	0x3e1d076d	0.15334864
49	0xbf282af2	-0.6569053
50	0xbfd9f1e9	-1.702695
51	0x3f85a81f	1.0441931
52	0xbf613fdb	-0.8798806
53	0x3eaf8268	0.3427918
54	0x3f032a77	0.5123667
55	0x3ee4ad70	0.44663572
56	0xbea95080	-0.3306923
57	0x3ac43530	0.0014969464
58	0xbfcf83fe	-1.6212156
59	0x3fb8c939	1.4436408
60	0xbe8a12d4	-0.2696749
61	0xbf9e6c63	-1.2376827
62	0x3dc8cf6b	0.09805187
63	0xbebc5e65	-0.36790767
64	0xbd7bb450	-0.061451256
65	0x3f1fbf27	0.6240105
66	0xbece0ee9	-0.4024575
67	0x3fad65bb	1.3546671
68	0xbf2e4a39	-0.68082005
69	0xbeafd59d	-0.34342661
70	0x3e282d07	0.16423427
71	0xbf8fdcbc	-1.1239238
72	0x3e854ed2	0.26036698
73	0xbf389edb	-0.72117394
74	0x3f4948ff	0.7862701
75	0xbf99343f	-1.1969069
76	0x3e22e8fd	0.1590919
77	0xbea0bd8a	-0.31394607
78	0x3f21346e	0.62970626
79	0x3ee02ff6	0.4378659

Operation_1_B f4 [20]
0	0x3d61f306	0.055163406
1	0x3d6abced	0.05730908
2	0x3dcc39c0	0.099719524
3	0xbdddbd90	-0.10827172
4	0xbc831a46	-0.01600374
5	0xbe23aa3c	-0.15982908
6	0x3dd90021	0.10595728
7	0x3da615bc	0.08109614
8	0xbe33bcf8	-0.17552555
9	0x3e7c20f3	0.24621944
10	0xbd3942d5	-0.04522975
11	0x3e2e30e4	0.17010838
12	0x3dbed19f	0.09317326
13	0xbe0f94b4	-0.1402157
14	0xbccfa00d	-0.025344873
15	0xbf3cd582	-0.7376329
16	0xbde48d45	-0.111597575
17	0xbe7bd229	-0.24591888
18	0xbda7ffe1	-0.08203102
19	0xbfa7b007	-1.3100594

Operation_2_W f4 [40, 20]
0	0x3d9ff220	0.078098536
1	0xbceca9db	-0.028889587
2	0x3e85dcc1	0.26144984
3	0xbfc5b874	-1.5446916
4	0x3e656053	0.22400026
5	0xc0135a01	-2.3023684
6	0xbaad4a6b	-0.0013221031
7	0xc0040239	-2.0626357
8	0x3f05a4f5	0.5220483
9	0xbccf61e8	-0.02531524
10	0xbfaf41f9	-1.3692008
11	0xbe5c0c0d	-0.21488972
12	0xbf3574c4	-0.70881295
13	0xc01da07b	-2.46292
14	0x3f4609bc	0.77358603
15	0xbf6c0773	-0.92198867
16	0x3dce8117	0.10083216
17	0xbdaddcb3	-0.08489361
18	0x3d85fd0b	0.06542405
19	0xbd45ffa0	-0.048339486
20	0xbd967d74	-0.07348147
21	0x3c7d6850	0.015466765
22	0x3df45c87	0.11931711
23	0xbe5b6c3f	-0.21428011
24	0xbebbdc9b	-0.36691746
25	0xbe607bdc	-0.21922249
26	0x3d187cab	0.037228268
27	0xbd9cf454	-0.076637894
28	0x3e17f513	0.14839582
29	0xbe0215d1	-0.12703635
30	0xbcf12950	-0.029438645
31	0x3de9a834	0.11409035
32	0xbe9e13fc	-0.30874622
33	0xbc9bdc4b	-0.019025942
34	0xbe2d69a0	-0.16934824
35	0xbeb8f646	-0.36125392
36	0xbe151b4e	-0.14561197
37	0xbd51ae94	-0.05119188
38	0xbba4a367	-0.005024362
39	0xbdd3fde8	-0.10351163
40	0xbeb5149b	-0.35367283
41	0xc03d21f7	-2.955198
42	0xbf30cccd	-0.690625
43	0x3e641b4c	0.22276038
44	0x3ec01c4e	0.37521595
45	0x3e05598d	0.13022442
46	0x3ecc56a2	0.39909846
47	0x3f1a91bb	0.6037862
48	0x3e9c1abc	0.30489147
49	0x3e962e24	0.29332078
50	0xbfdc95f3	-1.7233261
51	0x3ede9f39	0.43480852
52	0xc03b5215	-2.926885
53	0xbf44d7fb	-0.7689206
54	0xc00149b3	-2.0201232
55	0xbc205554	-0.009785969
56	0xbe6a16eb	-0.22860305
57	0xbee8d69c	-0.45476234
58	0xbf5117fc	-0.8167722
59	0xbf70ed41	-0.9411202
60	0xbdd39074	-0.103302866
61	0xc0277cca	-2.6169915
62	0xc0789c19	-3.8845274
63	0xbf0791b1	-0.5295668
64	0x3e92350e	0.28556103
65	0xbfc8c3a2	-1.5684702
66	0xbe803dcd	-0.2504715
67	0x3ed9aa56	0.42512769
68	0xbeaa4891	-0.3325849
69	0x3deb5b4a	0.114920214
70	0x3eb42106	0.35181445
71	0x3d9519f4	0.07280341
72	0xbfb6007c	-1.4218898
73	0xbe2438bf	-0.16037272
74	0xbf2b1078	-0.66822004
75	0xbe7a3888	-0.24435627
76	0x3e5ccaf7	0.215618
77	0x3e4eedcc	0.202079
78	0xbe30975e	-0.17245242
79	0xbeb9c71e	-0.36284727
80	0x3eef52e7	0.46742937
81	0x4053aaa7	3.3072908
82	0x4086db7f	4.214294
83	0xbda5a975	-0.08088962
84	0x3e8035f8	0.25041175
85	0x3d4da76d	0.050208498
86	0xbde7064e	-0.112804994
87	0xbe6b2e30	-0.22966838
88	0x3e09697a	0.13419142
89	0xbf0ae0d9	-0.5424934
90	0x3e9c617c	0.30543125
91	0x3ddae9e3	0.106891416
92	0x40084f26	2.1298308
93	0x3e8b6a4b	0.27229533
94	0x3ebc1d8b	0.3674129
95	0xbfffc126	-1.9980819
96	0xbec7751b	-0.38956532
97	0x3eab9e28	0.335191
98	0xbe8fa8b5	-0.280584
99	0xbfe61bf7	-1.7977284
100	0xbe0ead3e	-0.13933274
101	0xc0453b4e	-3.0817447
102	0xc08b63d3	-4.3559356
103	0x3f7f6e6d	0.9977787
104	0x3ed3ba85	0.4135324
105	0x3d8dcd67	0.06923943
106	0xbd6cb707	-0.057791736
107	0x3f67b246	0.905064
108	0x3f7c0001	0.98437506
109	0xbe322441	-0.17396642
110	0xbea40adf	-0.32039544
111	0x3f37972f	0.7171506
112	0xbf0f5ecd	-0.5600403
113	0x3e4706fb	0.19436257
114	0xbf4dc86b	-0.8038394
115	0x3d989bf0	0.07451618
116	0xbf03b5da	-0.5144936
117	0x3d00bf1a	0.03143225
118	0x3ef388d1	0.4756532
119	0xbc822fec	-0.015891992
120	0x3ec2408a	0.37939864
121	0xbfb9f432	-1.4527647
122	0xc0249081	-2.5713198
123	0x3e40ce65	0.18828733
124	0x3e9e1eea	0.3088296
125	0xbe3748f6	-0.17898926
126	0x3c70c71a	0.014695907
127	0x3e95bba4	0.2924472
128	0x3f4d1c35	0.80121166
129	0x3f8f400f	1.1191424
130	0x3dd6f20c	0.104953855
131	0xbf168b9e	-0.5880679
132	0xbf7efb6d	-0.99602395
133	0xbe27b90c	-0.16379184
134	0x3d8b2666	0.06794433
135	0x3ed0b599	0.40763548
136	0x3ea832a8	0.32851148
137	0x3f6879b8	0.9081073
138	0x3e689d67	0.22716294
139	0x3f096df4	0.536834
140	0xbe5c0023	-0.21484427
141	0xc006873a	-2.1020036
142	0xc0386717	-2.881292
143	0x3e177e8d	0.14794369
144	0xbd09e2b2	-0.03366346
145	0x3f0fd326	0.5618156
146	0x3ddf1696	0.1089298
147	0x3ecc15ef	0.39860484
148	0x3f125ec8	0.57175875
149	0xbedef8c2	-0.43549162
150	0x3c9bbbbe	0.01901042
151	0xbd47ce2c	-0.048780605
152	0xbf7abd35	-0.97944957
153	0xbf833321	-1.0249978
154	0x3f4106b6	0.75400865
155	0x3d8ff248	0.07028633
156	0xbec79c7f	-0.38986585
157	0x3f1554e2	0.58332646
158	0x3f86bdca	1.0526669
159	0x3f605116	0.8762373
160	0x3e099103	0.13434224
161	0xc0773759	-3.8627532
162	0xc01525d1	-2.3304331
163	0x3f51fcb7	0.8202624
164	0xbefec3ad	-0.49758664
165	0xbffb97e2	-1.9655726
166	0xbfdef3e0	-1.7418175
167	0x3f2b9354	0.6702168
168	0xbe87bde5	-0.26512066
169	0xc046c8c1	-3.106003
170	0xbdea3c7c	-0.11437318
171	0x3f8cc567	1.0997742
172	0xbfa5ed5a	-1.2963059
173	0xbf3e950a	-0.74446166
174	0x3fe0aa07	1.7551888
175	0x3e86228e	0.26198238
176	0xbf04aaa6	-0.5182289
177	0x3d8f3ef8	0.06994432
178	0x3f5b0b83	0.8556444
179	0x3dab8f6f	0.08376967
180	0xbebbc14c	-0.3667091
181	0x3ef3021e	0.47462553
182	0xbfc69a41	-1.5515825
183	0x3f1b27f8	0.6060786
184	0xbe0cdcaa	-0.13756052
185	0xc0d6f5d1	-6.717507
186	0x3f1a44bb	0.60261124
187	0xbe38d499	-0.1804985
188	0x3e65fe07	0.22460185
189	0x3f1ddcb7	0.6166491
190	0xc01c5c02	-2.4431157
191	0xbff5645c	-1.9171252
192	0x3d65dfe7	0.056121733
193	0x3eff8f38	0.49913955
194	0x3f792f16	0.9733747
195	0xc00363c9	-2.0529654
196	0xc0762073	-3.8457305
197	0x3ee2dfd5	0.44311395
198	0x3cb4abbd	0.022054547
199	0xbfde8aa1	-1.7386056
200	0x3e273951	0.16330458
201	0x4036bda4	2.8553247
202	0x408871e5	4.263903
203	0x3dad2e33	0.084560774
204	0x3e5445a0	0.20729685
205	0xbe6cf6a7	-0.23140965
206	0x3effc863	0.4995757
207	0xbf100d02	-0.5626985
208	0x3e98409d	0.29736796
209	0x3f222105	0.63331634
210	0xbf89afb9	-1.0756751
211	0xbf8b6608	-1.0890512
212	0x3fb177a9	1.3864642
213	0x3e88c782	0.26714712
214	0x3ece5b6f	0.40304133
215	0xbe4be3c5	-0.19911106
216	0x3e8c904b	0.27453837
217	0x3e8b2cd0	0.27182627
218	0xbf447f70	-0.76756954
219	0x3e22b299	0.15888442
220	0x3ecedb71	0.40401796
221	0xbf42f01d	-0.76147634
222	0xbe41a3d8	-0.18910158
223	0xbd7f9c01	-0.062404636
224	0xbeab6c81	-0.3348122
225	0xbfa02f80	-1.2514496
226	0x3ed18a29	0.4092572
227	0xbf7761f1	-0.9663382
228	0xbf8ef41d	-1.1168247
229	0xbf1b7ea9	-0.60740143
230	0x3ca29ab0	0.019849151
231	0xbfa02a74	-1.2512956
232	0xbfe07100	-1.7534485
233	0x3df6c766	0.12049751
234	0xbf6c21dd	-0.9223917
235	0xbef7cacb	-0.48396906
236	0x3ed3faba	0.41402227
237	0xbf0d4145	-0.5517772
238	0xbf2b16af	-0.6683149
239	0xbfd72666	-1.6808593
240	0x3ee25fa1	0.44213584
241	0x401c31e0	2.4405441
242	0x40bfb886	5.991275
243	0xbd5f7df7	-0.05456349
244	0xbe671377	-0.22566019
245	0xbe8a6704	-0.2703172
246	0x3ca3f468	0.020014003
247	0xbf3a573f	-0.72789377
248	0x3a0c2251	0.000534569
249	0xbf22c26e	-0.63577926
250	0xbdbf98ba	-0.09355302
251	0x3df884f3	0.12134733
252	0x3f9607c4	1.172112
253	0xbef00c60	-0.4688444
254	0x3fa334f4	1.2750535
255	0xbd9d29f9	-0.07674021

Operation_2_B f4 [40]
0	0x3e41e1ee	0.18933842
1	0xbcbbe859	-0.02293794
2	0x3e953da6	0.29148597
3	0x3f85e802	1.0461428
4	0xbef4b4e3	-0.47794256
5	0x3ec7a829	0.38995484
6	0xbee8e2d8	-0.45485568
7	0xbef085d2	-0.46977097
8	0x3ef29138	0.47376418
9	0x3e4e1084	0.20123488
10	0xbef5eeab	-0.48033652
11	0x3f83487d	1.0256497
12	0x3ecb16e9	0.39665917
13	0xbf0a3c1d	-0.53997976
14	0xbf7d277e	-0.98888385
15	0x3e40b25d	0.1881804
16	0xbd001ba1	-0.03127635
17	0xbe92935c	-0.2862805
18	0xbd951c59	-0.072807975
19	0xbf4a6d19	-0.7907272
20	0xbe4231d5	-0.18964322
21	0xbe94bf94	-0.29052413
22	0x3f33248e	0.69977653
23	0xbe0abf44	-0.13549525
24	0x3f3f7f40	0.74803543
25	0x3d3715aa	0.044698395
26	0xbe048b13	-0.12943678
27	0xbf29f7a2	-0.6639348
28	0xbd94c0ac	-0.07263312
29	0x3e56f52e	0.20991966
30	0x3e9d78f2	0.30756336
31	0xbe120d4d	-0.14262886
32	0x3f55cafc	0.83512855
33	0x3ec46a0d	0.3836216
34	0x3e9bc524	0.30423844
35	0x3e088d76	0.13335213
36	0xbfb7e079	-1.4365379
37	0xbd939f77	-0.0720815
38	0x3c95311e	0.018211897
39	0xbf260e40	-0.64865494

Operation_3_W f4 [40, 40]
0	0x3ecb761f	0.39738557
1	0xbd4c631f	-0.049899217
2	0xbd0af2fd	-0.033923138
3	0xbe8705ff	-0.26371762
4	0xbf01f8f0	-0.50770473
5	0x3e8cf7a0	0.27532673
6	0x3d66175b	0.056174617
7	0x3cd2c735	0.025729755
8	0xbe2949cf	-0.16532062
9	0x3e5b83e9	0.21437038
10	0xbf3d8fb3	-0.7404739
11	0x3cdda115	0.027054349
12	0xbe000726	-0.12502727
13	0xbdadb32e	-0.084814414
14	0xbec536e4	-0.3851844
15	0x3e9c7595	0.30558458
16	0xbe637433	-0.22212295
17	0x3e459f3a	0.19299021
18	0xbe35e540	-0.17763233
19	0x3e24d7e7	0.16097985
20	0xbf42b99b	-0.7606446
21	0xbe37b19e	-0.1793885
22	0xbe4d7fc0	-0.20068264
23	0xbeb24ccb	-0.34824213
24	0xbe0699bc	-0.13144583
25	0xbe7e871a	-0.24856225
26	0x3d28f870	0.041252553
27	0xbee527de	-0.4475698
28	0xbcabfd0a	-0.020994682
29	0x3e044505	0.12916954
30	0xbe4c727b	-0.19965546
31	0xbe8cd57e	-0.27506632
32	0xbd2ae9f4	-0.04172702
33	0xbd802fa7	-0.06259089
34	0x3ecb7b54	0.3974253
35	0xbe1ef0a8	-0.1552149
36	0x3e3a1e0a	0.18175521
37	0x3e77643e	0.24159333
38	0xbe782420	-0.2423253
39	0xbd686c13	-0.056743693
40	0x3f7a8bc3	0.9786951
41	0x3d63b33e	0.05559086
42	0xbfee80f7	-1.8633107
43	0x3f58566a	0.8450686
44	0x3f59ac87	0.8502888
45	0xbdf6e7f6	-0.12055962
46	0xbda9bf5c	-0.08288452
47	0xbefba5c3	-0.49149904
48	0xbdb3a9d9	-0.0877263
49	0xc03b720d	-2.928836
50	0xbeaf8776	-0.34283036
51	0x3daeabf8	0.08528894
52	0x3df8f5d2	0.121562615
53	0x3ed4cf84	0.41564572
54	0x3f33059b	0.6993043
55	0xbd5be26b	-0.053682726
56	0x3d27daf1	0.040980283
57	0xbe962654	-0.29326117
58	0x3e15fedb	0.14648001
59	0x3e2d8763	0.16946177
60	0x3e27d91d	0.16391416
61	0x3c6fe4d1	0.014641956
62	0x3f4d6550	0.80232716
63	0xc085a2ce	-4.1761236
64	0x3c8a1c66	0.016859245
65	0xbf0e0557	-0.554769
66	0xbfd50530	-1.6642208
67	0xbf69f61c	-0.9139116
68	0x3e8b9eb7	0.27269527
69	0xbee7eb22	-0.4529658
70	0x3f1dd615	0.6165479
71	0xbc49db07	-0.012320287
72	0x3c235678	0.009969346
73	0x3f054f81	0.5207444
74	0xbd0c6f24	-0.03428568
75	0x3f31d083	0.6945879
76	0xbd766265	-0.06015243
77	0xbe3ff819	-0.18746985
78	0x3f162a9b	0.5865876
79	0xbea49795	-0.32146898
80	0xbd8c58c5	-0.06852869
81	0xbe2dfc07	-0.16990672
82	0xc0101295	-2.2511342
83	0x3ec31f47	0.381098
84	0x3ecf657a	0.40507108
85	0xbfa2ee61	-1.2728997
86	0xbeb71317	-0.35756752
87	0x3efe8b6a	0.4971574
88	0xbf30be88	-0.6904073
89	0xbfceb0ef	-1.6147746
90	0xbfc6da55	-1.553538
91	0xc08ed2a0	-4.463211
92	0x3f23d656	0.63998926
93	0xbe947ec6	-0.2900297
94	0xc02ff553	-2.7493484
95	0x3e42c2a7	0.19019566
96	0xbe44683f	-0.19180392
97	0x3de5b1a1	0.11215521
98	0x3cb15c27	0.021650387
99	0x3e8cb615	0.27482668
100	0xbf3ee99b	-0.74575204
101	0xbd9c5f88	-0.07635409
102	0xbef36eb7	-0.47545406
103	0x3fbd5400	1.479126
104	0x3f58fa91	0.84757334
105	0xbf14039f	-0.57818025
106	0xc0496958	-3.1470547
107	0xbf22e6f1	-0.6363364
108	0x3e214233	0.15747909
109	0xbf923a56	-1.1424053
110	0x3dd9579d	0.10612414
111	0x3cdbb46d	0.026819432
112	0x3ed50461	0.41604903
113	0x3f1f209c	0.6215913
114	0x3f226360	0.63432884
115	0xbe570ec1	-0.21001722
116	0xc003935d	-2.0558693
117	0x3da90a7f	0.08253955
118	0xbf885428	-1.0650682
119	0xbfb32a79	-1.3997337
120	0x3e072f89	0.13201727
121	0xbe03b05e	-0.12860247
122	0x3e27bed1	0.16381384
123	0x3f060154	0.52345777
124	0x3f08f5c6	0.5350002
125	0xbe321c02	-0.17393497
126	0xbf9fe35c	-1.249126
127	0xc0180e81	-2.3758852
128	0xbdd8037f	-0.10547542
129	0x3f88663f	1.0656203
130	0x3ed277da	0.41107064
131	0x3f49ff3e	0.78905094
132	0x3f54de9a	0.83152163
133	0xbd316520	-0.04330933
134	0x3e340688	0.17580616
135	0xbfa5232b	-1.2901357
136	0xbd844754	-0.06458917
137	0x3f0c0f0d	0.54710466
138	0xbc9dde11	-0.019270929
139	0xbfac441f	-1.3458289
140	0xbe242f98	-0.1603378
141	0xbf1a0c9e	-0.601755
142	0x3f0a1f65	0.53954154
143	0xbdb1a863	-0.08674695
144	0x3f06942f	0.5256986
145	0xbf53fada	-0.82804644
146	0xbe6f9f00	-0.23400497
147	0xbf30c8e2	-0.6905652
148	0xbdcbe61e	-0.09956001
149	0xbe3c5d04	-0.18394858
150	0xbf2b6a8b	-0.66959447
151	0x3e864f0f	0.26232192
152	0xbfbe4bac	-1.4866843
153	0xbfa23c64	-1.267468
154	0x3fc1c163	1.5137142
155	0x3e6a9e4e	0.22911951
156	0xbf3ecaac	-0.74528
157	0x3de67cc8	0.11254269
158	0x3e75b537	0.23994909
159	0xbedcf80a	-0.4315799
160	0x3f25414d	0.64552766
161	0xbd0c6933	-0.034280013
162	0xbf19254b	-0.5982253
163	0x3c992215	0.01869301
164	0x3caa22ac	0.020768486
165	0xbdf06652	-0.11738266
166	0xbeec0a95	-0.46101823
167	0xbf05c223	-0.52249354
168	0xc03e70c2	-2.9756322
169	0x3f269303	0.6506807
170	0x3f7fbf4b	0.99901265
171	0x3f50a2c7	0.8149838
172	0x3f0dd221	0.55398756
173	0xc04420c3	-3.0644996
174	0x3ef8508f	0.4849896
175	0xbf591622	-0.84799397
176	0xbde5c538	-0.11219257
177	0x3f2fa627	0.68612903
178	0x3e3191dd	0.17340799
179	0xbf2e15a5	-0.68001777
180	0x3d55ca9c	0.052195176
181	0xbf3e1b51	-0.7426043
182	0xbfcb6f2d	-1.5893303
183	0x3e3bdf8d	0.18346997
184	0xbe289bab	-0.16465633
185	0x3eeb04d0	0.4590211
186	0x3f626f74	0.88451314
187	0xbe4f815c	-0.2026419
188	0xbd577e51	-0.0526107
189	0x3ce61216	0.028084796
190	0xc08d5ceb	-4.4175925
191	0xbfb32f07	-1.3998727
192	0x3f134b1b	0.57536477
193	0xbf34a046	-0.7055706
194	0x3edd84dc	0.43265426
195	0x3efc4355	0.4927012
196	0x3f8ba417	1.0909451
197	0xbd592924	-0.05301775
198	0xc00f988c	-2.2436857
199	0xbf2f9bd0	-0.68597126
200	0xbff38e98	-1.9027891
201	0xbe21de53	-0.15807466
202	0xbfdfa3f3	-1.7471908
203	0x3f023dee	0.5087575
204	0xbfdda210	-1.7315083
205	0x3f041ed4	0.5160954
206	0xbf2f63b4	-0.6851151
207	0x3ebdad50	0.3704629
208	0x3f82642d	1.0186821
209	0x3fdd123b	1.7271188
210	0xbf4423db	-0.7661721
211	0x3f8a1036	1.0786197
212	0xbef517da	-0.4786976
213	0xbf0847f2	-0.5323478
214	0xbfc35642	-1.5260699
215	0xc0747cf9	-3.8201277
216	0x3e59ab57	0.21256767
217	0xbec88eae	-0.39171356
218	0x3dac0015	0.08398453
219	0xbf8b96b8	-1.0905371
220	0xbfe31841	-1.7741777
221	0xbe355225	-0.17707117
222	0xbeb70380	-0.35744858
223	0xc002b3b8	-2.0422192
224	0x3f9b92ad	1.2154137
225	0x3e06c4e0	0.1316104
226	0x3ea63142	0.32459456
227	0xbfa315e3	-1.2741054
228	0xbe4b1430	-0.1983192
229	0xbf5dff64	-0.8671782
230	0x3ec3d8b4	0.3825127
231	0xbf24469e	-0.64170253
232	0x3f88a246	1.0674522
233	0xbff5cbd3	-1.9202827
234	0xbf75b1ae	-0.9597424
235	0x3df70b20	0.12062669
236	0xbf98f3d5	-1.1949412
237	0xbdd18bf7	-0.10231774
238	0xbde12a02	-0.109943405
239	0xbf16a251	-0.58841425
240	0x3ede6f86	0.4344446
241	0xbcdedba9	-0.027204351
242	0xc001dc34	-2.0290651
243	0x3dc16e39	0.094448514
244	0xbfbebe0e	-1.490175
245	0xbdfffa1e	-0.12498878
246	0xbe8e1efb	-0.2775801
247	0xbe2e8608	-0.17043316
248	0x3f2f83b0	0.68560314
249	0x3f9b1c16	1.2117946
250	0xbe86c66b	-0.26323256
251	0xbee25f4b	-0.44213328
252	0x3b4522c1	0.003008053
253	0x3b8d8a88	0.0043194927
254	0xbfe1c925	-1.763951
255	0xbf29dcd9	-0.6635261

Operation_3_B f4 [40]
0	0xbe82336c	-0.25429857
1	0xbf1ac91f	-0.60463136
2	0x3f11e867	0.5699524
3	0xbe0fed2f	-0.14055322
4	0x3b9af452	0.0047288323
5	0x3fb35b6d	1.4012276
6	0x40014bdf	2.0202558
7	0xbe54fcba	-0.20799533
8	0x3f04c243	0.5185892
9	0xbf889ded	-1.0673195
10	0xbdf0fe05	-0.117672004
11	0x3edc5e67	0.43040773
12	0x3f0162f0	0.5054159
13	0xbfae16da	-1.3600724
14	0x3ed5638f	0.4167752
15	0x3f68be45	0.9091533
16	0xbf654ba8	-0.8956857
17	0x3ed4f64a	0.41594154
18	0xbefab38a	-0.48965102
19	0xbd9e99ff	-0.07744216
20	0xbfa79511	-1.3092366
21	0xc00034eb	-2.0032299
22	0xbfa160e4	-1.2607694
23	0xbdde46db	-0.10853358
24	0xbf3df8fe	-0.74208057
25	0xbf8eb770	-1.1149731
26	0xc038622d	-2.8809922
27	0x3dff7682	0.124737754
28	0xbdbade27	-0.091244034
29	0xbfe12f30	-1.7592525
30	0xbf3c9540	-0.7366524
31	0xbf162031	-0.5864287
32	0xbe0374e9	-0.12837566
33	0x3cdc2f2a	0.026877958
34	0x3fa5ea4a	1.2962124
35	0xbdfa255a	-0.122141555
36	0xbd7bbe6d	-0.0614609
37	0x3f1b9350	0.60771656
38	0xc0028c38	-2.0398083
39	0xbe046bf9	-0.12931813

Operation_4_W f4 [40, 40]
0	0x3ee2e259	0.44313315
1	0xbe6ac4b8	-0.22926605
2	0x3f857f99	1.0429565
3	0xbf540201	-0.8281556
4	0x3e1213f0	0.14265418
5	0x3ec1ed18	0.378762
6	0x3f54f059	0.8317924
7	0xbe93297c	-0.28742588
8	0xbfa91dbf	-1.3212203
9	0xbea2f3c6	-0.3182661
10	0xbe581e29	-0.21105255
11	0x3cc731a6	0.024315666
12	0x3f2292d2	0.6350528
13	0xc0910352	-4.5316553
14	0xbfd0d60a	-1.631532
15	0x3f45bb12	0.7723857
16	0x3f1f6641	0.622654
17	0x3e843364	0.25820458
18	0x3e6a989b	0.22909777
19	0x3d401259	0.046892498
20	0xbf93c38f	-1.1544055
21	0xbf2bd569	-0.67122513
22	0xbf7be518	-0.98396444
23	0xbe535e30	-0.20641398
24	0x3ddda573	0.108225726
25	0xbf0c7fa4	-0.54882264
26	0x3e78b44a	0.24287525
27	0xbf811d26	-1.008702
28	0xbf8f7ebb	-1.121055
29	0xc0153d03	-2.3318489
30	0xbff37e7c	-1.9022975
31	0xbf06259b	-0.5240113
32	0xbe822e4e	-0.25425953
33	0x3dae503f	0.085113995
34	0xbd0503b3	-0.03247423
35	0xbe49f9df	-0.19724225
36	0xbfaa1c6d	-1.3289925
37	0x3c7bd0b2	0.015369581
38	0xbe620dc7	-0.22075568
39	0x3f5d884e	0.8653611
40	0x3ea53354	0.32265723
41	0xbf1adbfc	-0.6049192
42	0x3d5a8658	0.053350776
43	0x3e37f096	0.1796287
44	0x3f99fd57	1.2030438
45	0xbfdda5ec	-1.731626
46	0x3efaa93a	0.48957235
47	0xbefa992d	-0.4894499
48	0x3e85861a	0.26078874
49	0xbf970cf9	-1.1800834
50	0xbe1a57fb	-0.15072624
51	0x3ef5f4e5	0.48038402
52	0x3f528322	0.8223134
53	0xbdbbd15d	-0.09170792
54	0x3e97bf61	0.29638198
55	0x3f77d42c	0.96808124
56	0xbdf7d36a	-0.12100871
57	0x3e3b6067	0.18298493
58	0x3ddf8e0b	0.109157644
59	0xbd10a7a9	-0.035316143
60	0xbe52e678	-0.2059573
61	0xbea143da	-0.3149708
62	0xbf10af23	-0.5651724
63	0x3eee6bbd	0.46566573
64	0xbea692dc	-0.3253392
65	0x3e7a89d0	0.24466634
66	0xbeed9f2b	-0.46410498
67	0xbeaeb163	-0.3411971
68	0x3e72240d	0.23646565
69	0xbf457223	-0.77127284
70	0x3db9e82e	0.09077488
71	0x3efd607f	0.49487683
72	0xbf9e8327	-1.2383775
73	0xbfee6872	-1.8625624
74	0xbe2480c0	-0.16064739
75	0xbd06d7be	-0.03292059
76	0xbc1136d9	-0.008863174
77	0x3f0c60d1	0.5483523
78	0xbdcfa6a5	-0.10139207
79	0xbf041a0f	-0.5160226
80	0xbdd3ba30	-0.10338247
81	0xbfc18d2c	-1.5121207
82	0xbf008bde	-0.5021342
83	0xbdff34ea	-0.124612644
84	0xbe1f1eb8	-0.15539062
85	0x3db09e40	0.08623934
86	0x3f398ab4	0.7247727
87	0xc026e111	-2.607487
88	0x3ed157ae	0.40887207
89	0x3edee42b	0.43533453
90	0x3e13e7df	0.1444392
91	0xbdc05e3c	-0.09392974
92	0x3f7c6930	0.98598003
93	0xbfa75e81	-1.3075715
94	0x3f335736	0.7005495
95	0x3f79aee6	0.975325
96	0xbf102948	-0.5631299
97	0xc00c6045	-2.1933758
98	0xbe888e31	-0.26670983
99	0x3d9aac1f	0.07552361
100	0x4037434f	2.8634832
101	0x3eeb013a	0.45899373
102	0xbf05f651	-0.52328974
103	0xbfa0b4c3	-1.2555164
104	0xc0b9366e	-5.7878942
105	0xc09789a8	-4.7355537
106	0x3de47ffe	0.11157225
107	0x3f85cd0d	1.0453202
108	0x3f787532	0.97053826
109	0x3db8ff63	0.09033086
110	0xbcf8071d	-0.03027683
111	0xc062df15	-3.5448658
112	0x3e35fac0	0.17771435
113	0xbfc9acce	-1.5755861
114	0x3dd387e4	0.103286535
115	0xbe58c8be	-0.21170327
116	0xc02bc771	-2.684048
117	0xbdbc956d	-0.09208188
118	0xbf20b640	-0.6277809
119	0xbfa6dadd	-1.3035542
120	0xbc353a8b	-0.011061321
121	0x3dc1c85c	0.09462044
122	0x3f41115c	0.75417113
123	0xc08a208c	-4.316473
124	0xbfed8ebe	-1.8559186
125	0x3fca12a5	1.578694
126	0xc0067be0	-2.1013107
127	0xbf3c9d1e	-0.7367724
128	0x3f1096ca	0.56480086
129	0x3e937aba	0.2880457
130	0xbda95917	-0.08268946
131	0xbf8f9c70	-1.1219616
132	0xbf8c2d93	-1.0951408
133	0x3f161f72	0.5864173
134	0x3eef93ec	0.46792543
135	0xbf6cacaf	-0.92450994
136	0x3f23b361	0.63945585
137	0xbfa8c11c	-1.3183932
138	0xbf44fd87	-0.7694935
139	0x3e62dd27	0.22154675
140	0xc08349d2	-4.1027613
141	0x3df71018	0.120636165
142	0xbe78b35d	-0.24287172
143	0x3f16202f	0.5864286
144	0xbeedbc03	-0.46432504
145	0xbfd10454	-1.6329446
146	0xbd2a3001	-0.041549686
147	0xbfb62bff	-1.4232177
148	0xbddd62d5	-0.10809866
149	0x3eb652cc	0.35610044
150	0xbe3eda44	-0.18637949
151	0x3da7dbbc	0.08196208
152	0x3e6c579d	0.23080297
153	0xbf93afbd	-1.1538006
154	0xbe5b3586	-0.21407136
155	0xbc8a46c7	-0.016879452
156	0xbf7053b7	-0.9387774
157	0xc027e08e	-2.6230807
158	0x3eaf92e5	0.3429176
159	0xbfa1b1a1	-1.2632333
160	0x3d2f8e61	0.042860392
161	0xbf387dbd	-0.7206686
162	0xbf0a7630	-0.5408659
163	0x3f15210f	0.5825357
164	0x3f95b56d	1.1695992
165	0xbf369275	-0.71317226
166	0x3d4a3555	0.049367268
167	0xc010c3d3	-2.2619522
168	0xbe2c4b52	-0.16825607
169	0xbfc050cd	-1.5024658
170	0x3de28c00	0.11061859
171	0x3ea9391e	0.3305139
172	0x3f339028	0.7014184
173	0xbe2d3a36	-0.16916737
174	0x3ed43eaf	0.41454074
175	0xbd453761	-0.048148517
176	0x3f80f70f	1.0075396
177	0xbe30642c	-0.17225713
178	0xbf88d4e6	-1.0689971
179	0xbe3816d9	-0.17977466
180	0x3f82a770	1.0207348
181	0xbfbb8e3f	-1.4652785
182	0xbfd005ea	-1.6251805
183	0xbf8aa69e	-1.0832098
184	0x3e9bfeb6	0.30467767
185	0xbf86ad24	-1.0521588
186	0xbfa76159	-1.3076583
187	0x3f79de10	0.97604465
188	0x3f4b56ad	0.7942913
189	0xbf22a49a	-0.6353241
190	0x3fa14e93	1.2602104
191	0x3d6bb1a5	0.057542462
192	0xbec7d736	-0.3903138
193	0x3f0faf97	0.56127304
194	0x3e6f95dd	0.23397012
195	0xbe609a0e	-0.21933767
196	0xbfdfc275	-1.7481219
197	0xbf0b5ce1	-0.54438597
198	0xbf2f0aac	-0.6837566
199	0xbffd1063	-1.9770626
200	0xbe09cd67	-0.13457261
201	0xbf4f8a6f	-0.8107061
202	0x3f20f238	0.62869596
203	0xbf8237d8	-1.0173292
204	0xbf0bd266	-0.5461792
205	0x3f5c18de	0.85975444
206	0xbf39e50f	-0.7261514
207	0xbe00c230	-0.12574077
208	0xbff1ac78	-1.8880758
209	0xc020b6ab	-2.5111492
210	0x3d676532	0.05649299
211	0xbf695add	-0.9115427
212	0xbe3dbff8	-0.18530262
213	0xc09baae4	-4.8646107
214	0xc01b4354	-2.4259844
215	0x3de770b2	0.11300792
216	0x3f17c4ac	0.5928447
217	0x3e9311ae	0.28724426
218	0x3efe1686	0.4962656
219	0x3db34662	0.08753659
220	0xbe076f18	-0.13225973
221	0xbcf55eab	-0.029952368
222	0x3ea10f60	0.31457043
223	0x3f3ec49e	0.74518764
224	0x3eb07a46	0.34468287
225	0xbf263f40	-0.6494026
226	0xc08b910c	-4.361456
227	0x3e0df0bd	0.13861366
228	0xbfd6f894	-1.679461
229	0xbf814a3a	-1.0100777
230	0x3ce6f99a	0.028195191
231	0x3f1131c3	0.56716555
232	0x3f01d705	0.5071872
233	0xbf7855f3	-0.9700615
234	0x3e5770c4	0.2103911
235	0xbe5dfb80	-0.21677971
236	0xbee85aae	-0.45381683
237	0x3f58b39e	0.84649074
238	0xbc207868	-0.009794332
239	0x3f2a5917	0.6654219
240	0xbdfbcd00	-0.1229496
241	0xbf767709	-0.96275383
242	0xbf985565	-1.190106
243	0x3ebcddfc	0.3688811
244	0xbf42ae2f	-0.76047033
245	0xc06e8cba	-3.7273393
246	0xbfe887d5	-1.8166453
247	0xbf163d65	-0.5868743
248	0xbf16dc1e	-0.5892962
249	0xbfccc271	-1.5996839
250	0x3e95e913	0.29279384
251	0xbfde0592	-1.734545
252	0xbedd35de	-0.4320516
253	0xbfc48abc	-1.5354838
254	0xbf8127bb	-1.009025
255	0x3d86b736	0.065779135

Operation_4_B f4 [40]
0	0x3f8c78e3	1.0974392
1	0x3f32582a	0.6966578
2	0xbed2d4b4	-0.41177905
3	0xbf87103c	-1.0551829
4	0xbfc291f5	-1.5200793
5	0xbe089702	-0.13338855
6	0xbee891ba	-0.4542368
7	0xc0395e71	-2.8963892
8	0xbf639780	-0.88903046
9	0xbf605167	-0.8762421
10	0x3e1a6757	0.15078484
11	0x3ee0b61f	0.43888947
12	0xbe4ebf0a	-0.20190063
13	0xbf877791	-1.0583364
14	0x3f5007a3	0.8126165
15	0x3f4b0b2b	0.79313916
16	0x3fab9755	1.3405558
17	0x3fb556e9	1.4167148
18	0xbfacab41	-1.3489763
19	0xc009c77d	-2.1528008
20	0x3e88fdd4	0.26756155
21	0x3f19d91b	0.600969
22	0xbf14513e	-0.57936466
23	0x3e58f2db	0.21186392
24	0xbedfdc99	-0.4372299
25	0x3f434ac4	0.7628596
26	0x3f82730d	1.0191361
27	0xbf95a5bb	-1.1691202
28	0xbec61d1e	-0.3869409
29	0x3f5e3e2e	0.8681363
30	0xbf2ba26b	-0.67044705
31	0xbe026cc4	-0.12736803
32	0xbfcfcb91	-1.6233999
33	0xbf19e245	-0.60110885
34	0xc01327ed	-2.2993119
35	0xbe52833c	-0.20557874
36	0xbe83e588	-0.25761056
37	0xbec1e940	-0.37873268
38	0xbee778d0	-0.4520936
39	0xbfc8cffe	-1.5688474

Operation_5_W f4 [20, 40]
0	0xc02b478f	-2.6762426
1	0xbf5043af	-0.81353277
2	0xbf85f4c8	-1.0465326
3	0xbddf9ecd	-0.10918961
4	0xc017d779	-2.3725264
5	0xc00e9489	-2.2278159
6	0xbf1790f1	-0.5920554
7	0x3be51100	0.006990552
8	0xc02f4a36	-2.7389045
9	0x3e71b01c	0.23602337
10	0xbde024ea	-0.10944541
11	0x3fb8c056	1.4433696
12	0xbe493494	-0.19648963
13	0x3e2eab0b	0.17057435
14	0x3eb082cf	0.344748
15	0xbe325e13	-0.17418699
16	0xbe84f2a0	-0.25966358
17	0xc03604c8	-2.8440418
18	0xbebf3e91	-0.37352422
19	0xbca85e61	-0.020552816
20	0xc00cfa69	-2.2027838
21	0xbe9b58e1	-0.30341247
22	0x3e0a9852	0.13534668
23	0xc03dc4fc	-2.965148
24	0xbeb4e694	-0.35332167
25	0xc05947c4	-3.3950052
26	0xbe88873c	-0.26665676
27	0x3f087615	0.5330518
28	0xbd12135a	-0.035662986
29	0xc091fbc1	-4.5619817
30	0xbce7b0ed	-0.028282607
31	0xbe3816ee	-0.17977497
32	0xbf5e04d7	-0.86726135
33	0xbdff3462	-0.12461163
34	0xbfae114a	-1.3599026
35	0xbf3334c0	-0.70002365
36	0xbfeb7e0f	-1.8397845
37	0x3f0e7faf	0.5566358
38	0x3e9975ed	0.29972783
39	0x3f299138	0.6623721
40	0x3eabe474	0.33572733
41	0xbedf961a	-0.43669206
42	0xbe31e943	-0.17374139
43	0x3f09c101	0.53810126
44	0xbef15c22	-0.47140604
45	0x3f16336c	0.58672214
46	0xbec937e3	-0.3930045
47	0x3da69f9c	0.08135912
48	0x3d27acdd	0.04093634
49	0x3e95811f	0.29200074
50	0x3d9ebf12	0.077512875
51	0x3dce6602	0.1007805
52	0x3e5337b3	0.20626716
53	0x3f8b8bff	1.0902098
54	0x3e19d41a	0.15022317
55	0x3ea787e8	0.32720876
56	0x3f8f7968	1.1208925
57	0x3e7fe8db	0.24991171
58	0xbf0ba5cc	-0.5454986
59	0x3e186c2b	0.14885013
60	0xbe8ba533	-0.27274475
61	0xbe28a36f	-0.16468595
62	0x3f329fc1	0.69775015
63	0x3effc0fa	0.49951917
64	0x3e130c0f	0.14360069
65	0x3d8635ce	0.06553231
66	0x3eb0ab06	0.3450548
67	0xbf322db4	-0.6960099
68	0x3cd71a5c	0.026257686
69	0xbe61f9d7	-0.22067963
70	0x3ee9ad8b	0.45640215
71	0x3d56cce1	0.05244148
72	0x3dad0b10	0.08449376
73	0x3e66da86	0.22544298
74	0x3e8a9494	0.2706648
75	0xbefc3bf3	-0.49264488
76	0xbe8c1c44	-0.27365315
77	0xbe231efa	-0.15929785
78	0x3f4f22ae	0.8091229
79	0xbdade18a	-0.08490284
80	0x3d77b1ed	0.060472418
81	0xbe2f6d93	-0.17131643
82	0x3fc38715	1.5275599
83	0x3eec9b50	0.46212244
84	0xbd882aca	-0.06648786
85	0xbea49a19	-0.32148817
86	0xbdd5e451	-0.104439385
87	0xbe9e416b	-0.30909285
88	0x3c4e10fb	0.012577291
89	0xbed1f449	-0.41006687
90	0xbfcedc3f	-1.6160964
91	0xbfe8fb7c	-1.8201747
92	0xbdeed748	-0.116621554
93	0x3f204ba3	0.6261541
94	0xbeceaf8c	-0.40368307
95	0xbd510bb2	-0.051036544
96	0xc002bdc0	-2.0428314
97	0xc0ac9cda	-5.394147
98	0x3c853cb4	0.016264297
99	0x3db0f46c	0.0864037
100	0xbfe07408	-1.753541
101	0xbff26f4c	-1.8940215
102	0xbe2a16c8	-0.16610253
103	0xbf6bc614	-0.9209912
104	0xbeb4813a	-0.35254842
105	0xbfedff3b	-1.8593515
106	0x3f025d93	0.5092403
107	0xbe13b9db	-0.14426367
108	0x3ea7ef0d	0.3279957
109	0x3ca161c6	0.019699942
110	0x3ec89108	0.3917315
111	0xbdbc0e94	-0.09182468
112	0x3db095d4	0.086223274
113	0x3f0f0b7f	0.55876917
114	0xbeadf377	-0.3397481
115	0x3d435243	0.047685873
116	0x3e4e9f26	0.20177898
117	0xbfaffee8	-1.3749666
118	0x3e0b51ab	0.13605373
119	0x3e0cc36b	0.13746421
120	0xbf1f22a5	-0.6216224
121	0x3e382c11	0.1798556
122	0x3e9d0784	0.30669796
123	0x3d970af4	0.07375136
124	0xbe5483f0	-0.20753455
125	0xbd7471e2	-0.05967892
126	0x3f1caaf9	0.61198384
127	0x3db81a70	0.089894176
128	0xbc8ba154	-0.0170447
129	0xbf2abcec	-0.6669452
130	0xbbf159cb	-0.0073654405
131	0xbeb61909	-0.35565975
132	0xbe2b8089	-0.16748251
133	0xbf0bb9d6	-0.5458044
134	0xbea47c4b	-0.32126078
135	0xbe7a9c5c	-0.24473709
136	0xbeb9a1e6	-0.3625633
137	0x3efa144c	0.4884361
138	0x3bdd2bde	0.006749614
139	0xbf8bef17	-1.093234
140	0xbe7996ba	-0.24373904
141	0xbe9d7b32	-0.30758053
142	0xbd46c116	-0.048523985
143	0x3e32fbd3	0.17478876
144	0xbf242d89	-0.6413198
145	0xbeab80ad	-0.3349661
146	0xbefafb28	-0.49019742
147	0xbd127178	-0.035752743
148	0xbebe073a	-0.37114888
149	0xbf23710e	-0.6384438
150	0x3dbcee59	0.09225149
151	0xbdb2b872	-0.087265864
152	0xbe17534b	-0.14777867
153	0xbe41ee98	-0.18938673
154	0x3e96cdd7	0.29453918
155	0x3d92b5a2	0.0716355
156	0x3c7e6ded	0.015529138
157	0xbd6ede94	-0.058317736
158	0xbdd31be0	-0.10308051
159	0xbe8a09cc	-0.269606
160	0xbe448886	-0.19192705
161	0x3eb5286c	0.35382402
162	0xbf1bbc09	-0.60833794
163	0xbf9cd652	-1.2252905
164	0x3f0bce62	0.5461179
165	0xbf18d7c4	-0.5970423
166	0xbd903359	-0.07041044
167	0x3f1a1396	0.60186136
168	0x3e9e51cb	0.30921778
169	0xbec2c1d2	-0.38038498
170	0x3ec5906a	0.38586742
171	0x3ecd19f4	0.40058863
172	0x3ce503d8	0.027955934
173	0x3f396258	0.72415686
174	0xbf7e237b	-0.9927289
175	0xbe1fb0b3	-0.15594749
176	0x3f0b34ec	0.5437763
177	0xbde53b76	-0.11192982
178	0x3eb5d844	0.3551656
179	0xc00aebd8	-2.1706448
180	0x3c9175f3	0.017756438
181	0xbc9ff2a8	-0.019524887
182	0x3efa068f	0.4883313
183	0xbef05967	-0.4694321
184	0xbf2145f3	-0.6299736
185	0x3c96ec03	0.018423086
186	0x3ee00850	0.43756342
187	0x3f19c61e	0.6006793
188	0xbdc77516	-0.09739129
189	0x3e48d78d	0.19613476
190	0x3f11dd16	0.56977975
191	0x3c680cb4	0.014163185
192	0xbff1f594	-1.890307
193	0xbe187871	-0.14889695
194	0xbf224681	-0.6338883
195	0x3e41265d	0.1886229
196	0xba66f1e3	-0.00088098476
197	0x3e1039f7	0.14084612
198	0x3f231cc5	0.63715774
199	0xbe52df06	-0.20592889
200	0x3e5af6a0	0.21383142
201	0x3e9af2be	0.30263323
202	0x3fae7e44	1.3632283
203	0xbd9d7960	-0.07689166
204	0xbfad4611	-1.3537008
205	0x3ebd08aa	0.36920673
206	0x3d8990f3	0.067171
207	0x3d9b8d0d	0.07595263
208	0x3fb60e90	1.4223194
209	0x3f8175ff	1.0114135
210	0xbe5abdd4	-0.21361476
211	0x3ea35322	0.31899363
212	0x3d27c111	0.040955607
213	0x3f00329a	0.5007721
214	0x3da311dd	0.079623915
215	0x3e70997a	0.23496047
216	0xbef4a20a	-0.47779876
217	0xbe165277	-0.14679895
218	0xbf45062a	-0.7696253
219	0x3bd2cc0d	0.006433016
220	0xbefefafe	-0.49800867
221	0x3edec0fa	0.43506604
222	0x3eda5a36	0.4264695
223	0xbdc4c62c	-0.09608111
224	0x3ecfed3d	0.40610686
225	0xbe989c3f	-0.29806706
226	0x3ecdcb7a	0.40194303
227	0xbfb58d41	-1.4183732
228	0xbfb9ff75	-1.4531084
229	0xbf0ab353	-0.5417988
230	0x3f583fd2	0.8447238
231	0xbe0ac0ff	-0.13550185
232	0x3e88c452	0.2671228
233	0x3eb02688	0.34404397
234	0x3ec23715	0.3793265
235	0xbe8cfa06	-0.27534503
236	0xbe893b10	-0.26802874
237	0xbf9a061c	-1.2033114
238	0x3ec5324f	0.38514945
239	0xbf6797e5	-0.9046615
240	0xbd9038e2	-0.070420995
241	0x3cc05ace	0.023480799
242	0xbac52b4e	-0.0015042813
243	0xba7f1e51	-0.00097319955
244	0xbcece169	-0.028916078
245	0x3d3d65cd	0.046239663
246	0xbe164c47	-0.14677535
247	0xbd8f478f	-0.069960706
248	0xbe0a1a22	-0.13486531
249	0xbc483d86	-0.0122217
250	0x3a9e2412	0.0012065193
251	0x3c8f0a61	0.017461004
252	0x3d8484bf	0.06470632
253	0xbd490391	-0.049075667
254	0xbbab0016	-0.005218516
255	0xbc469e8f	-0.012122764

Operation_5_B f4 [20]
0	0x3f0b51aa	0.54421484
1	0x3d482835	0.04886647
2	0xbfcf5611	-1.619814
3	0xbfa5c8eb	-1.295194
4	0xbf00378e	-0.5008477
5	0x3ec290a2	0.3800097
6	0x3df4db11	0.11955846
7	0xc0056c72	-2.084744
8	0xbfe7d71f	-1.8112525
9	0xbe9cc30e	-0.30617565
10	0xbf93f3ba	-1.1558754
11	0xc0126040	-2.2871246
12	0x3ec54bbc	0.38534343
13	0x3d6bcdd2	0.057569332
14	0x3f44ef12	0.7692729
15	0x3e0eefd6	0.13958678
16	0xc03a4110	-2.910221
17	0xbfd53210	-1.6655903
18	0xbfd2b380	-1.6461029
19	0xbe0bf517	-0.13667713

Operation_6_W f4 [3, 20]
0	0xbbfe22cd	-0.0077556134
1	0xbb59622c	-0.0033170087
2	0xb9ce4794	-0.00039344712
3	0x3bf63245	0.007513317
4	0xbb52ca79	-0.003216414
5	0xbb06de13	-0.0020579144
6	0xbda5ecc1	-0.08101798
7	0x3a1657d1	0.00057351316
8	0xba630964	-0.0008660762
9	0xbd301902	-0.0429926
10	0x3b3b68f4	0.0028596492
11	0x3a8a65a5	0.0010558857
12	0x3aa49633	0.001255697
13	0x3d8b10a6	0.06790285
14	0xbad3b954	-0.0016153255
15	0xbb0adbc8	-0.0021188129
16	0x3bd8925b	0.006609244
17	0x39cf254d	0.00039509908
18	0xbb509c66	-0.0031831502
19	0xbb4bcb52	-0.003109653
20	0x3d87561b	0.0660822
21	0x3d8eec92	0.06978716
22	0xbda65da6	-0.08123331
23	0xbdb82e2a	-0.0899318
24	0xbd6a809d	-0.05725156
25	0x3d631735	0.055442054
26	0x3bf5c511	0.007500299
27	0xbd9388af	-0.07203805
28	0xbd97f660	-0.07420039
29	0xbe5b8cda	-0.2144045
30	0xbd836bf1	-0.064170726
31	0x3da76cef	0.08175074
32	0xbd989812	-0.0745088
33	0xbc3e1e9c	-0.0116039775
34	0xbd6aa44b	-0.05728559
35	0xbd68799c	-0.0567566
36	0xbd9f1c8e	-0.07769118
37	0xbe49a0d6	-0.1969026
38	0xbdf30b3b	-0.118673764
39	0xbd42d4b7	-0.047566142
40	0xbd55ff1f	-0.052245256
41	0xbe2b997d	-0.1675777
42	0xbed60ef1	-0.41808274
43	0xbe93f99b	-0.2890137
44	0xbe274d1b	-0.16338007
45	0xbe78ed18	-0.24309194
46	0xbe5fe9fb	-0.218666
47	0xbe884a84	-0.2661935
48	0xbe877c7b	-0.2646216
49	0x3c0f9cd2	0.008765416
50	0xbe1b9939	-0.15195169
51	0x3d9d4a7f	0.076802246
52	0xbd6a2ca9	-0.057171497
53	0xbe738160	-0.23779821
54	0xbd170a18	-0.03687486
55	0xbd14d922	-0.036339886
56	0xbe26ec84	-0.16301161
57	0xbdd5c374	-0.1043767
58	0xbe823898	-0.25433803
59	0x3d81828b	0.06323727

Operation_6_B f4 [3]
0	0x3ef89562	0.4855147
1	0x3e457c2e	0.19285652
2	0xbf076108	-0.5288243
